es-rl/experiments/checkpoints/E001-MNIST_none/190107-183718.945766|sNES|MNIST|MNISTNet/state-dict-model.pkl (torch_old, 91552 bytes, 20 tensors)

conv1.weight f4 [10, 1, 5, 5]
0	0xbe2497c2	-0.16073516
1	0xbe3e24a1	-0.1856866
2	0xbdf6ea1c	-0.120563716
3	0x3d91a5d8	0.0711171
4	0x3b18a8d8	0.0023293998
5	0xbdd47dce	-0.10375558
6	0x3c42e84e	0.011896206
7	0xbd50051c	-0.050786123
8	0x3bbb281e	0.0057115695
9	0x3d164936	0.036690913
10	0x3d284c47	0.04108837
11	0x3e214e4d	0.15752526
12	0x3d52a3a6	0.0514256
13	0xbd55d4dd	-0.052204955
14	0x3e314d44	0.17314631
15	0x3cdce484	0.026964433
16	0x3b4d9e14	0.003137474
17	0xbc81b1a4	-0.015831776
18	0x3e23a3f3	0.1598051
19	0x3e36d41f	0.17854355
20	0x3dad2e9b	0.08456155
21	0x3ba26fc7	0.0049571726
22	0xbd9a2547	-0.07526641
23	0x3d569b89	0.052394424
24	0xbe0c5fad	-0.13708372
25	0xbe187331	-0.14887692
26	0xbd94f8f5	-0.07274047
27	0xbcf2c6bd	-0.029635781
28	0x3d7c79df	0.061639663
29	0xbe17a6f8	-0.14809787
30	0x3c27833a	0.010224158
31	0xbdaadd9a	-0.083430484
32	0xbe10cb8b	-0.14140145
33	0xbde5d8b4	-0.112229735
34	0x3d8e6b2d	0.06954036
35	0xbc11ad29	-0.008891382
36	0xbde69c5d	-0.11260293
37	0x3dab3d41	0.08361293
38	0xbbd31663	-0.0064418777
39	0xbd8fec98	-0.070275486
40	0x3c7622ec	0.015022974
41	0xbe6565b8	-0.22402084
42	0xbe2bdcc5	-0.16783436
43	0xbe5484b0	-0.20753741
44	0x3e68f8e7	0.22751199
45	0x3d2c69f2	0.042093225
46	0xbe91b0c2	-0.28455168
47	0x3d8d7f68	0.069090664
48	0xbdd483a1	-0.10376669
49	0x3e3c8fb6	0.18414196
50	0x3e3cdec5	0.18444355
51	0x3e5abe90	0.21361756
52	0x3e7702e8	0.24122202
53	0x3da66bd6	0.08126037
54	0x3e019c6b	0.12657325
55	0x3d1370b1	0.035996143
56	0xbdfbe658	-0.12299794
57	0x3e871c4c	0.26388776
58	0x3e1fd7f8	0.1560973
59	0x3d63428a	0.05548338
60	0xbe4f2666	-0.20229492
61	0xbe2872b6	-0.16450009
62	0xbe477dbc	-0.19481558
63	0x3e0b3e2c	0.13597935
64	0xbb073c7c	-0.0020635417
65	0xbcc755c6	-0.024332892
66	0xbe17b3ed	-0.1481473
67	0xbe012187	-0.12610446
68	0x3c066884	0.008203629
69	0x3d85c4c9	0.065316744
70	0xbe9ba605	-0.304001
71	0xbd6e347d	-0.058155525
72	0xbe00ae95	-0.12566598
73	0xbe57c64e	-0.21071741
74	0xbda4472d	-0.08021388
75	0x3d5ffcf5	0.054684598
76	0xbd9fc371	-0.07800949
77	0xbd1527b8	-0.036414832
78	0xbdc691c7	-0.096957736
79	0x3d86ae29	0.06576187
80	0xbd6da748	-0.05802086
81	0x3bf66596	0.007519434
82	0x3dd572b4	0.104222685
83	0x3cbad6e8	0.022807553
84	0x3e2337e4	0.1593929
85	0xbdb0daad	-0.08635459
86	0x3d99cc83	0.07509711
87	0x3d178e20	0.037000775
88	0xbe1661e5	-0.14685781
89	0x3d09e821	0.03366864
90	0x3d030fac	0.031997368
91	0x3da7b48f	0.08188736
92	0x3d8c860c	0.06861505
93	0x3d123c65	0.035702128
94	0xbe0eddd0	-0.13951802
95	0x3d8314d3	0.06400456
96	0x3e00abd8	0.12565553
97	0x3e067b1e	0.13132903
98	0x3e841ec2	0.25804716
99	0x3c37762a	0.011197606
100	0xbd990d63	-0.074732564
101	0xbc8873fa	-0.016656864
102	0x3da74c84	0.08168891
103	0x3e11e034	0.14245683
104	0x3ed211bf	0.41029164
105	0xbe05a5e2	-0.1305156
106	0xbdbbed89	-0.091761656
107	0xbdbc102d	-0.09182773
108	0xbe7145d4	-0.23561794
109	0x3e7f31b4	0.24921304
110	0xbdbf2192	-0.09332575
111	0xbd994da8	-0.07485515
112	0x3e0329b7	0.12808882
113	0x3dec6e4a	0.115444735
114	0xbd9c9fcb	-0.076476656
115	0xbe27435c	-0.1633429
116	0x3da4a25f	0.08038782
117	0x3d841651	0.06449569
118	0x3e6e84c4	0.23292834
119	0xbdbf874c	-0.09351978
120	0xbdea8dab	-0.11452802
121	0x3dff01b7	0.12451499
122	0x3e9ef03d	0.31042662
123	0xbc132068	-0.008979894
124	0xbec01145	-0.37513176
125	0xbd0747ef	-0.033027586
126	0xbcdff42c	-0.02733811
127	0xbdea0a87	-0.11427789
128	0xbdcc93c2	-0.0998912
129	0xbe03c03b	-0.12866299
130	0x3e3837b8	0.17990005
131	0x3e965fd9	0.2937
132	0xbcdf429a	-0.027253438
133	0xbb91ed77	-0.004453357
134	0x3d55b136	0.052170955
135	0x3c67db58	0.014151417
136	0x3e3ce72d	0.18447562
137	0xbdb62b49	-0.08894975
138	0x3e22bc23	0.15892081
139	0xbe58444f	-0.21119808
140	0xbdb97f8c	-0.09057531
141	0x3e41d4a9	0.1892878
142	0x3d2e6af8	0.042582482
143	0x3d5a5703	0.053305637
144	0x3e3c5a9d	0.18393941
145	0x3d617688	0.05504468
146	0x3e2f2362	0.17103341
147	0xbdb2b1cf	-0.087253205
148	0x3de61d41	0.112360485
149	0xbc439ed3	-0.011939722
150	0x3e08ffc6	0.1337882
151	0xbd3dcaa7	-0.046335842
152	0xbd39d1ea	-0.045366205
153	0x3d7bb874	0.061455205
154	0x3c3399ad	0.010961932
155	0x3e325821	0.17416431
156	0x3e66c8c3	0.22537522
157	0x3d0dc27e	0.03460931
158	0xbe079975	-0.13242133
159	0xbc600504	-0.013673071
160	0x3db8f273	0.090306185
161	0x3eb4750e	0.35245556
162	0xbdd4a759	-0.103834815
163	0x3e624d1c	0.22099727
164	0xbd748eb6	-0.059706412
165	0xbde8628f	-0.113469236
166	0x3de6fb1a	0.112783626
167	0x3b1d63f7	0.0024015883
168	0xbe1f7c44	-0.15574747
169	0x3d9ab0fd	0.07553289
170	0xbdb9980a	-0.09062202
171	0x3db6193c	0.08891532
172	0x3d52b3a0	0.051440835
173	0xbd8279e3	-0.06370904
174	0xbdc6ef24	-0.09713581
175	0xbddb76b2	-0.10715999
176	0x3d52f1df	0.051500197
177	0x3e114554	0.14186603
178	0x3d8ffcbf	0.07030629
179	0x3dfaea26	0.122516915
180	0xbd67c4fa	-0.056584336
181	0xbe2c9f21	-0.16857578
182	0xbdf97f79	-0.121825166
183	0x3d3a33cc	0.045459554
184	0x3dd2d17a	0.10293861
185	0x3c69b8a7	0.014265216
186	0xbd1474f0	-0.036244333
187	0xbe034c8b	-0.12822168
188	0xbe14902f	-0.14508127
189	0x3e61c8ed	0.22049303
190	0xbe0fab17	-0.1403011
191	0xbe6a975c	-0.22909302
192	0x3c9ab763	0.018886274
193	0xbd42d12e	-0.04756277
194	0x3e08f4ed	0.13374682
195	0xbd43cfdb	-0.04780565
196	0xbd7adada	-0.06124387
197	0xbe17eb18	-0.14835775
198	0x3e0bc7d7	0.13650452
199	0xbe3ec751	-0.1863072
200	0xbd832730	-0.06403959
201	0x3dfd86b8	0.12379211
202	0xbd55f02c	-0.052231
203	0xbe113406	-0.14180002
204	0xbdad248d	-0.08454237
205	0xbe458288	-0.19288075
206	0xbe545e29	-0.20739044
207	0xbca6becc	-0.02035465
208	0x3cb45349	0.02201237
209	0xbe392f83	-0.1808453
210	0x3e139b33	0.14414673
211	0xbd12e405	-0.035861988
212	0xbd8e9835	-0.06962625
213	0x3dfeecc1	0.12447501
214	0x3e7169c5	0.23575504
215	0x3dc4309a	0.095795825
216	0x3d3cc301	0.046084408
217	0xbdb9e7f5	-0.090774454
218	0xbb8b8c97	-0.004258703
219	0x3e1ec6bb	0.15505497
220	0xbe591581	-0.2119961
221	0xbe53f07f	-0.2069721
222	0xbd224fd6	-0.03962692
223	0xbddfd3ed	-0.109290935
224	0x3daebdb2	0.08532275
225	0xbd9e276c	-0.07722363
226	0xbbbef8c0	-0.005827993
227	0xbddad53f	-0.10685205
228	0x3d54151f	0.051777955
229	0xbba66117	-0.005077492
230	0xbe0ce7c9	-0.13760294
231	0xbd65dd72	-0.05611939
232	0xbda362f9	-0.07977862
233	0x3e7e4315	0.24830277
234	0x3ddd58da	0.10807963
235	0x3d69607f	0.05697679
236	0xbd211773	-0.039329004
237	0x3e4278af	0.1899135
238	0x3d5f048e	0.054447703
239	0xbbe44cd4	-0.0069671664
240	0x3d9ebe01	0.07751084
241	0xbdc9d687	-0.09855371
242	0x3dd5c92f	0.10438763
243	0xbd456778	-0.04819438
244	0xbe7b6f18	-0.24554098
245	0xbd31222f	-0.04324549
246	0x3e488df7	0.19585405
247	0x3e51535c	0.20441955
248	0xbde92100	-0.113832474
249	0x3da1c101	0.07898141

conv1.bias f4 [10]
0	0x3cd81d38	0.02638112
1	0x3a60fd94	0.0008582708
2	0xbd8c608e	-0.06854354
3	0x3ce688cc	0.028141402
4	0x3d681f84	0.05667068
5	0x3d873196	0.06601255
6	0x3c06cfe0	0.008228272
7	0x3d201277	0.03908011
8	0x3d4169fc	0.047220215
9	0x3e225de7	0.15856133

conv1_bn.weight f4 [10]
0	0x3ebab004	0.36462414
1	0x3efbeec2	0.49205595
2	0x3f261369	0.6487337
3	0x3e8cd70a	0.27507812
4	0x3e308cc4	0.17241198
5	0x3ec158c4	0.37763035
6	0x3ed60fa8	0.4180882
7	0x3e9c75de	0.30558676
8	0x3e9db780	0.30804062
9	0x3ebe0c92	0.37118965

conv1_bn.bias f4 [10]
0	0xbdb37d92	-0.08764185
1	0x3e912156	0.28345746
2	0xbb2f2720	-0.0026726201
3	0x3cdf946b	0.02729245
4	0x3d7cdbfc	0.06173323
5	0xbdaa6acd	-0.08321152
6	0x3e0afe27	0.13573514
7	0x3b4612f2	0.0030223695
8	0xbe4f2c77	-0.20231806
9	0xbd43d8ad	-0.04781406

conv1_bn.running_mean f4 [10]
0	0x3cdaf73e	0.026729222
1	0xbda132e6	-0.07871036
2	0xbda3ef24	-0.08004597
3	0x3e078a35	0.13236316
4	0x3d8d7dce	0.06908761
5	0x3db504f0	0.088388324
6	0x3d847a7c	0.064686745
7	0xbc1aed2f	-0.009455963
8	0x3c409fe4	0.011756871
9	0x3e277b05	0.16355522

conv1_bn.running_var f4 [10]
0	0x3eb1e8db	0.34747967
1	0x3f6241bd	0.8838156
2	0x3f82196b	1.0164007
3	0x3efd8c9a	0.49521333
4	0x3f7a53f4	0.9778435
5	0x3f0bfbf9	0.54681355
6	0x3f32e62b	0.6988246
7	0x3f1c043c	0.6094396
8	0x3f034e7a	0.5129162
9	0x3ed9e3e7	0.42556688

conv2.weight f4 [20, 10, 5, 5]
0	0xbdebc733	-0.115126036
1	0xbd8c68db	-0.06855937
2	0xbd3d896d	-0.046273638
3	0x3e243b58	0.16038263
4	0x3db043b8	0.08606666
5	0xbd8793e6	-0.06620006
6	0x3d32b3c5	0.043628473
7	0xbba73196	-0.0051023467
8	0x3d98a531	0.07453383
9	0x3e703dd3	0.23461084
10	0x3dee1d85	0.11626724
11	0xbe580711	-0.21096446
12	0x3caa8a47	0.020817889
13	0x3ddb823f	0.10718202
14	0x3c0e2063	0.008674714
15	0xbd4411f4	-0.047868684
16	0xbd8bbdc2	-0.06823303
17	0xbcd975bf	-0.026545404
18	0xbd311f86	-0.043242954
19	0x3d7dfabe	0.062006705
20	0x3d528a50	0.051401436
21	0x3b7909f8	0.0038000327
22	0xbd0f84a7	-0.035038617
23	0xbd2fcc40	-0.042919397
24	0xbe0fccf4	-0.14043027
25	0x3d837fce	0.06420861
26	0xbe496316	-0.19666705
27	0xbe0259e4	-0.12729603
28	0x3ccfe970	0.025379866
29	0xbe03c235	-0.12867053
30	0xbd70d8f6	-0.05880066
31	0x3b6d68ec	0.0036225868
32	0x3cffde3a	0.031233896
33	0xbc7e2fb4	-0.015514303
34	0xbe0999df	-0.13437603
35	0x3d66e1a5	0.056367535
36	0xbe24beb0	-0.16088367
37	0xbab22734	-0.0013592006
38	0xbc9d1d29	-0.019178944
39	0x3d07cd42	0.033154733
40	0x3d1ea460	0.03873098
41	0xbcc65a99	-0.024213122
42	0x3c4e5bda	0.012595141
43	0x3e2672e1	0.1625476
44	0xbda516d6	-0.08060996
45	0x3dce807b	0.100830995
46	0xbe0f5f97	-0.14001308
47	0xbe8f5dc4	-0.28001225
48	0x3ea419dd	0.32050982
49	0xbdb47c37	-0.088127546
50	0xbd0efbb2	-0.034908004
51	0xbdf49625	-0.119427
52	0x3c33e518	0.010979913
53	0xbe54c8fc	-0.20779794
54	0xbbd83a03	-0.0065987124
55	0xbd97c6ea	-0.07410987
56	0x3d6b8d83	0.057508003
57	0x3d0a2b0e	0.033732466
58	0x3d56d3cb	0.052448075
59	0x3df04a55	0.11732928
60	0xbdf7ba19	-0.12096042
61	0x3e2a6f05	0.16643913
62	0xbd8b81dc	-0.06811878
63	0xbd126cc2	-0.03574825
64	0x3d2c69fd	0.042093266
65	0x3d9b780a	0.07591255
66	0x3da204a4	0.079110414
67	0xbccb70c8	-0.024834052
68	0x3d689690	0.056784213
69	0x3d6f1563	0.058370005
70	0x3e6b32a5	0.22968538
71	0x3e0ca6c9	0.13735498
72	0x3d5df6b2	0.054190345
73	0x3c708e6e	0.014682395
74	0x3d5eb186	0.05436852
75	0x3d4a65ca	0.04941348
76	0xbd0eaf95	-0.034835417
77	0xbe3c5071	-0.18390061
78	0xba89b84c	-0.0010507195
79	0xbe7338a2	-0.23752072
80	0xbcedad78	-0.02901338
81	0x3db60162	0.088869825
82	0xbe303809	-0.17208876
83	0xbd7d8093	-0.061890196
84	0x3e845da0	0.2585268
85	0x3de0abbf	0.10970258
86	0x3b02bf7c	0.001995056
87	0x3d151c4d	0.036403943
88	0x3d3c3a4d	0.045954037
89	0x3cefe196	0.029282372
90	0xbc86b5b5	-0.016444067
91	0x3bbf74e4	0.005842792
92	0xbdde9fbf	-0.10870313
93	0x3e4411b1	0.19147374
94	0x3d8425ec	0.064525455
95	0xbbc93014	-0.0061397646
96	0xbd0fe591	-0.03513104
97	0x3dd74dc9	0.10512883
98	0x3ddc9bc8	0.107719004
99	0xbd6bb2fd	-0.057543743
100	0x3d869793	0.06571879
101	0xbe0c4fcc	-0.13702315
102	0xbddfb31b	-0.109228335
103	0xba9c86dc	-0.0011942047
104	0x3d677b33	0.056513976
105	0x3d75b58a	0.059987582
106	0x3e0a11bb	0.13483326
107	0x3d8a9250	0.06766188
108	0xbe4324fb	-0.19057076
109	0x3d428bc5	0.047496576
110	0xbe4dc4cd	-0.20094605
111	0xbd9454f0	-0.07242763
112	0xbdb3a9f7	-0.087726526
113	0x3da2e772	0.07954301
114	0xbda16ca9	-0.078820534
115	0x3d324e6c	0.04353182
116	0xbd438740	-0.047736406
117	0xbe0e6485	-0.13905533
118	0xbe3c6437	-0.18397604
119	0xbdbe7971	-0.09300507
120	0xbc75b116	-0.014995834
121	0xbda9d758	-0.08293027
122	0xbe074125	-0.13208444
123	0x3cd788cf	0.026310353
124	0xbd9ab612	-0.075542584
125	0x3d1a2b3b	0.037638884
126	0xbb924833	-0.004464173
127	0xbe199b5f	-0.15000676
128	0xbde60393	-0.112311505
129	0xbb611aa2	-0.003434815
130	0xbd4bff6c	-0.049804136
131	0xbddd658e	-0.10810386
132	0xbd4bf1b1	-0.04979104
133	0xbe528f4a	-0.20562473
134	0xbdd2f86f	-0.10301291
135	0x3c04209b	0.008064414
136	0xbd826219	-0.06366367
137	0x3dc051e3	0.09390619
138	0x3cf6c378	0.030122504
139	0x3e431c05	0.19053657
140	0x3d3af5fc	0.045644745
141	0x3d8c9eba	0.06866212
142	0x3df84825	0.121231355
143	0xbdbe528c	-0.09293088
144	0x3e80a39f	0.25124833
145	0xbe1f6554	-0.15565997
146	0xbd59e399	-0.05319557
147	0x3e308697	0.17238842
148	0xbd9bfca7	-0.07616549
149	0x3d793796	0.060844027
150	0x3e27433d	0.16334243
151	0xbd3f78f7	-0.04674622
152	0x3cfb15d5	0.030650059
153	0xbe5e5065	-0.21710356
154	0x3d48956b	0.04897062
155	0x3e19f81b	0.15036051
156	0xbe386dda	-0.18010655
157	0x3da3ba32	0.07994498
158	0xbe593036	-0.21209797
159	0xbd91c0e5	-0.0711687
160	0x3d537884	0.051628605
161	0x3cecc56a	0.028902728
162	0xbdfaef30	-0.12252653
163	0x3d351c93	0.044216704
164	0xbca7df73	-0.020492291
165	0xbcb69997	-0.022290034
166	0x3e22c62e	0.15895912
167	0xbd334c57	-0.043773975
168	0x3dbc0552	0.09180702
169	0xbe191b14	-0.14951736
170	0x3d7d98a5	0.06191315
171	0x3c27fff1	0.010253892
172	0xbd91955a	-0.07108565
173	0x3d0d4b9b	0.03449593
174	0xbdbbbd8b	-0.09167012
175	0x3ca98b1f	0.02069622
176	0xbe1ac97a	-0.1511592
177	0xbd509973	-0.05092759
178	0xbe4d9d05	-0.2007943
179	0x3d1ed9f8	0.03878209
180	0x3df76c4b	0.12081202
181	0xbdfbb362	-0.12290074
182	0x3d842da0	0.06454015
183	0xbba0dc2c	-0.004909059
184	0xbcf62388	-0.03004624
185	0x3cc9b432	0.024622057
186	0x3dfae8ef	0.1225146
187	0xbe1e797c	-0.1547603
188	0xbd3ab176	-0.045579396
189	0x3e58bb58	0.21165216
190	0x3e1ea9f0	0.15494514
191	0x3d8125c2	0.0630603
192	0x3d540d52	0.051770516
193	0xbd36e494	-0.044651583
194	0x3e5d05cc	0.21584243
195	0xbda5cdb8	-0.08095878
196	0xbdac90eb	-0.084260784
197	0xbd1990db	-0.03749166
198	0x3d4c304c	0.049850747
199	0xbc42aa77	-0.011881462
200	0x3d0aff4f	0.033934887
201	0x3ce385d7	0.02777378
202	0xbe265618	-0.1624378
203	0xbd266a3b	-0.040628653
204	0x3ddc9ce7	0.10772114
205	0xbda09bd4	-0.07842222
206	0xbe16b3df	-0.14717053
207	0xbce441ba	-0.027863372
208	0xbc8eeefe	-0.017447945
209	0xbe1ee56c	-0.15517205
210	0xbdfcf5d4	-0.123515755
211	0x3d8abe8d	0.06774626
212	0x3d7ac566	0.06122341
213	0x3d78d6ce	0.06075173
214	0xbc1fa14c	-0.009743046
215	0xbd446e4d	-0.047956754
216	0x3df4d0d2	0.11953892
217	0xbd664a2e	-0.056223087
218	0xbde2129f	-0.11038708
219	0x3ca7dd57	0.020491285
220	0xbd8a2557	-0.06745403
221	0x3da38221	0.079838045
222	0xbda80284	-0.08203605
223	0x3e411e2d	0.18859167
224	0xbb4cbcf3	-0.0031240552
225	0x3d7b6858	0.061378807
226	0x3d02f44c	0.03197126
227	0xbe79681e	-0.24356124
228	0x3d808ef3	0.062772654
229	0xbe57f3ec	-0.21089143
230	0xbd581fa2	-0.052764542
231	0xbdd479d1	-0.10374797
232	0x3df610cc	0.120149225
233	0x3d0e08ae	0.034676246
234	0x3dcd0430	0.10010564
235	0x3bc35734	0.005961323
236	0xbe1dd982	-0.15415004
237	0xbe226ad4	-0.15861064
238	0x3d976dab	0.073939644
239	0x3dbd60b8	0.09246963
240	0xbe0dca31	-0.13846661
241	0x3c716e58	0.014735781
242	0x3d997df2	0.07494725
243	0xbe530b28	-0.20609725
244	0x3e215347	0.15754424
245	0x3dd740a6	0.105103776
246	0xbdab7575	-0.083720125
247	0x3d891d20	0.06695008
248	0xbd53585a	-0.05159793
249	0x3d288aae	0.04114788
250	0xbe203f96	-0.15649256
251	0x3c3299db	0.01090094
252	0xbb66776c	-0.0035166396
253	0xbc8949df	-0.016758857
254	0xbc74ba15	-0.014936944
255	0xbe692a33	-0.22770004

conv2.bias f4 [20]
0	0xbdb6b51c	-0.089212626
1	0x3dd00af6	0.10158341
2	0xbcac08fd	-0.02100038
3	0xbd9a3fe6	-0.07531719
4	0xbd01f9e4	-0.031732455
5	0xbcf269d1	-0.029591473
6	0xbdd2a646	-0.102856204
7	0xbc46ea85	-0.012140875
8	0xbe21757c	-0.15767473
9	0xbd89e0ad	-0.06732307
10	0xbc2f2660	-0.010690302
11	0x3d99ab73	0.075034045
12	0x3d7ba24c	0.061434075
13	0x3dccbdaf	0.09997117
14	0xbe390c11	-0.18071009
15	0xbc8a42ba	-0.01687752
16	0x3d6d0ff8	0.057876557
17	0xbc93cbca	-0.01804151
18	0xbdb0bd4f	-0.08629858
19	0xbe210334	-0.15723878

conv2_bn.weight f4 [20]
0	0x3ea39839	0.31952074
1	0x3ed691b6	0.41908044
2	0x3f198b9c	0.5997865
3	0x3ec5cb86	0.3863184
4	0x3eab9584	0.3351251
5	0x3edf58e4	0.43622506
6	0x3ee1ba05	0.44087234
7	0x3ecb7e12	0.39744622
8	0x3f19b9b1	0.6004897
9	0x3edbca8a	0.42927963
10	0x3ef01fcc	0.4689926
11	0x3ed3d885	0.4137613
12	0x3ec5cfee	0.386352
13	0x3f12079f	0.5704288
14	0x3ef973d9	0.48721197
15	0x3ea7ab65	0.3274795
16	0x3eec14e9	0.46109703
17	0x3ee6da45	0.450884
18	0x3e913da1	0.28367332
19	0x3eb54c10	0.35409594

conv2_bn.bias f4 [20]
0	0x3e1c5a26	0.15268764
1	0xbc92805b	-0.01788347
2	0x3e482136	0.19543919
3	0xbcf54cf9	-0.02994393
4	0xbd16d766	-0.036826514
5	0x3e0a2d6d	0.13493891
6	0xbd678797	-0.056525793
7	0xbcbae74c	-0.02281537
8	0xbdc1bf88	-0.0946036
9	0x3d33d79d	0.043906797
10	0x3c29fd3b	0.010375316
11	0x3e098a08	0.13431561
12	0x3dc89a84	0.097950965
13	0x3da32e51	0.079678185
14	0xbd9128ed	-0.07087884
15	0xbda7bfb5	-0.08190862
16	0x3dcccc3a	0.099998906
17	0xbca09518	-0.019602343
18	0x3d7f7bce	0.06237393
19	0xbe29c155	-0.16577657

conv2_bn.running_mean f4 [20]
0	0xbf226477	-0.6343455
1	0x3f0687da	0.52551043
2	0x3fa2ab4e	1.2708528
3	0x3ec51f6f	0.38500544
4	0xbebf4fee	-0.3736567
5	0x3ef8a0b3	0.48560104
6	0xbeabf97e	-0.33588785
7	0x3d0b58f6	0.034020387
8	0xbd7d467b	-0.061834794
9	0xbf20eb05	-0.6285861
10	0x3ef14656	0.47123975
11	0x3e0c6d06	0.13713464
12	0xbd2d34b0	-0.042286575
13	0xbf2f3f8b	-0.68456334
14	0x3ea6cb32	0.325769
15	0x3f0cadf6	0.54952943
16	0x3fa83f92	1.31444
17	0x3dd59030	0.10427892
18	0xbebbba95	-0.36665788
19	0x3ea47850	0.3212304

conv2_bn.running_var f4 [20]
0	0x3f22bc55	0.6356862
1	0x3f24fc5a	0.6444756
2	0x3f31d35b	0.6946313
3	0x3f3e4be1	0.7433453
4	0x3f32c19a	0.6982666
5	0x3ec0c221	0.3764811
6	0x3fa7f168	1.3120546
7	0x3f6090f0	0.8772116
8	0x3f4798fc	0.7796781
9	0x3f1b0364	0.6055205
10	0x3f53350b	0.8250281
11	0x3f45d453	0.77277106
12	0x3fccf5bc	1.6012492
13	0x3f95e928	1.1711779
14	0x3f2fb01a	0.68628085
15	0x3f1eecf9	0.6208034
16	0x3f3b3598	0.7312865
17	0x3f998fb1	1.1996976
18	0x3edb3b74	0.42818797
19	0x3eecb7fc	0.4623412

fc1.weight f4 [50, 320]
0	0x3e2f9dd8	0.17150056
1	0xbe5bad56	-0.21452841
2	0x3caa6dc2	0.02080429
3	0xbe03d026	-0.12872371
4	0xbd427f03	-0.04748441
5	0x3d1d129d	0.03834783
6	0xbc9ffd12	-0.019529853
7	0xbdc53b58	-0.096304595
8	0xbddd5d25	-0.108087815
9	0x3bf2fa92	0.007415124
10	0xbdcd960a	-0.10038383
11	0x3d1d287b	0.038368683
12	0x3dd2dcbe	0.102960095
13	0xbdf2ad39	-0.11849446
14	0xbc2013c8	-0.009770341
15	0x3d6d4fcf	0.05793744
16	0x3ce04e8a	0.0273812
17	0xbdc43f73	-0.095824145
18	0xbd16b7bc	-0.036796317
19	0xbd5bb3e1	-0.053638343
20	0xbc7e65b8	-0.015527181
21	0xbcae4a7f	-0.021275757
22	0xbe0da6af	-0.13833116
23	0x3dccb16d	0.09994779
24	0xbd34ff12	-0.044188567
25	0xbde467e9	-0.11152632
26	0x3d971e30	0.07378805
27	0x3d6e031a	0.058108427
28	0x3e0b1b1f	0.13584565
29	0xbddd6032	-0.108093634
30	0xbcab958c	-0.020945333
31	0xbd951d66	-0.07280998
32	0x3d123fd0	0.035705388
33	0xbdbcd5c8	-0.09220463
34	0x3b6457dc	0.0034842407
35	0x3c59dad3	0.013296801
36	0x3d4cb241	0.049974684
37	0xbcda78ce	-0.026668932
38	0x3d36204b	0.04446439
39	0x3cbbc2a5	0.022919962
40	0x3dca3374	0.09873095
41	0xbd606630	-0.054784954
42	0x3e10c21e	0.1413655
43	0xbc9036ac	-0.017604195
44	0x3d8fec26	0.070274636
45	0xbcf0e5a2	-0.029406372
46	0xbd103e46	-0.03521564
47	0x3e2c5348	0.16828644
48	0x3dc8b39f	0.09799885
49	0xbdb918b3	-0.09037914
50	0xbd89bfc9	-0.06726033
51	0x3dc3cc07	0.095603995
52	0xbd8e2c15	-0.06942002
53	0x3e82d87e	0.25555795
54	0x3d95ecc0	0.07320547
55	0xbe912e3e	-0.28355592
56	0x3d7bd75b	0.061484676
57	0xbd2921f2	-0.04129214
58	0x3e154d80	0.14580345
59	0x3c1e6205	0.009666924
60	0x3c1b603b	0.009483392
61	0x3cedd34f	0.029031424
62	0x3de7f97c	0.11326882
63	0xbc62bebc	-0.01383942
64	0x3e617936	0.22018895
65	0xbdc5e704	-0.09663203
66	0x3e3ed8dc	0.18637413
67	0x3e203153	0.15643816
68	0xbe330fec	-0.17486542
69	0x3d551d80	0.052030087
70	0xbce57a7f	-0.028012512
71	0x3ae3cb48	0.0017379308
72	0xbdd9db8c	-0.10637578
73	0x3d064906	0.032784484
74	0x3df1bf02	0.1180401
75	0x3e1dae35	0.15398486
76	0xbe03801a	-0.12841836
77	0xbe0adb9e	-0.1356034
78	0x3d29d6e0	0.041464686
79	0xbccf02c0	-0.025269866
80	0xbe0330e6	-0.12811622
81	0xbdadce91	-0.08486665
82	0xbd3049b7	-0.04303905
83	0x3dc37500	0.095438
84	0x3ddc22a6	0.10748796
85	0xbca72c7e	-0.020406958
86	0x3e2b5de3	0.16735034
87	0x3de295d6	0.11063735
88	0xbe1c0f99	-0.15240325
89	0xbce531dd	-0.027977878
90	0x3dbae922	0.09126498
91	0x3c43230e	0.011910213
92	0x3cb98516	0.022646468
93	0xbde6808f	-0.11254989
94	0x3d8cd184	0.068758994
95	0x3e393c86	0.18089494
96	0x3cb5d764	0.022197433
97	0xbc8f3da6	-0.017485451
98	0x3e979d14	0.2961203
99	0xbe32d1be	-0.17462823
100	0xbb5b2e02	-0.003344417
101	0x3dde890a	0.10865982
102	0x3cded6a5	0.02720196
103	0x3d933822	0.07188441
104	0xbe5a6d18	-0.21330678
105	0x3c546116	0.0129626
106	0x3d71b05f	0.05900609
107	0x3dffde3b	0.12493559
108	0x3dbc10d3	0.091828965
109	0xbd87b672	-0.066265956
110	0xbdece2f2	-0.11566724
111	0x3e62c35a	0.22144833
112	0x3d81f32a	0.06345208
113	0x3dd17b1b	0.10228559
114	0xbe4ca8ef	-0.19986318
115	0xbe4cb37a	-0.1999034
116	0x3d29524c	0.04133825
117	0x3da0206c	0.07818684
118	0x3bf02163	0.0073281988
119	0xbe028644	-0.12746531
120	0x3dccc456	0.099983856
121	0xbccc554c	-0.024943016
122	0x3d9ac5fa	0.07557292
123	0x3a7388a5	0.0009290076
124	0x3de53e15	0.11193482
125	0x3cb465d8	0.02202122
126	0x3dd3b06b	0.103363834
127	0x3d5b48e1	0.0535363
128	0x3e328900	0.17435074
129	0xbdace4d0	-0.0844208
130	0x3e635235	0.22199328
131	0x3db83490	0.089944005
132	0x3d0fc7bd	0.035102595
133	0x3da67b64	0.08129004
134	0xbc887eec	-0.016662084
135	0xbd24d063	-0.040237796
136	0xbd437cb0	-0.047726333
137	0xbdaa4b3f	-0.08315133
138	0xbdbd0a0b	-0.09230431
139	0xba564558	-0.0008173785
140	0x3dc10dca	0.09426458
141	0x3c0eb458	0.0087099895
142	0xbe34ca87	-0.17655383
143	0xbd1bd6dc	-0.038046703
144	0xbd0bcca6	-0.034130715
145	0x3d1bdefa	0.038054444
146	0xbb264a00	-0.0025373697
147	0x3cb0fc8e	0.021604802
148	0xbc6f694e	-0.014612509
149	0x3d35535e	0.04426896
150	0xbda88a84	-0.08229545
151	0xbdd78e89	-0.10525233
152	0xbe3282ee	-0.17432758
153	0x3d514b61	0.051097278
154	0x3dcdae8e	0.10043059
155	0x3d3d53bd	0.046222437
156	0x3c36db4e	0.011160685
157	0xbda93ec8	-0.08263928
158	0xbb30500f	-0.0026903187
159	0xbd1bd3ed	-0.038043905
160	0xbbb89cce	-0.005633927
161	0xbc04f406	-0.00811482
162	0x3d1bd629	0.038046036
163	0xbe0a3ee8	-0.1350056
164	0x3d066238	0.032808512
165	0xbdf34453	-0.11878266
166	0x3e2dd969	0.16977467
167	0xbd095d0a	-0.033535995
168	0x3d24a22f	0.040193733
169	0x3d5c85af	0.053838428
170	0xbd200c09	-0.039073978
171	0x3d801773	0.062544726
172	0xbd960974	-0.07326022
173	0x3c90737d	0.017633194
174	0xbc9b99ff	-0.01899433
175	0xbd9fca4e	-0.078022584
176	0x3d9f553a	0.077799276
177	0xbe710ab3	-0.23539238
178	0x3d30ae54	0.043135002
179	0x3e267805	0.16256721
180	0x3e2a1625	0.1661001
181	0x3dce2185	0.10064987
182	0x3e19cc69	0.15019383
183	0xbddee013	-0.108825825
184	0x3d709a66	0.058740996
185	0xbd9da720	-0.07697892
186	0x3d5063cb	0.05087642
187	0xbe268e07	-0.16265117
188	0xba0559e0	-0.000508694
189	0xbd0777c8	-0.033073217
190	0xbdba147d	-0.09085939
191	0x3dfd7781	0.12376309
192	0x3db8261a	0.08991642
193	0x3d86de26	0.0658534
194	0x3e20b358	0.15693414
195	0x3d212bb7	0.03934833
196	0x3e5e6753	0.21719103
197	0x3d1ba058	0.037994713
198	0xbbfa3978	-0.0076362453
199	0x3d66b43a	0.05632422
200	0x3bd9a09d	0.006641461
201	0xbdb44e20	-0.08803964
202	0x3e51d1bd	0.20490165
203	0x3bfb7f22	0.0076750675
204	0x3da94dd2	0.08266796
205	0xbd236f19	-0.039900873
206	0xbe6c6461	-0.23085167
207	0xbd3da8c9	-0.046303544
208	0x3d99e949	0.07515199
209	0x3e0a1341	0.13483907
210	0x3e3030e2	0.17206147
211	0x3e1abe42	0.1511164
212	0xbd14b3dd	-0.036304343
213	0x3cc927cb	0.024555108
214	0xbdadd5d1	-0.08488048
215	0xbe25dd58	-0.16197717
216	0x3c8a3c2b	0.016874393
217	0xbc74c9cb	-0.014940689
218	0xbd8e2505	-0.06940655
219	0x3dcadde9	0.09905607
220	0x3d0a5ac0	0.033777952
221	0x3e2f1f60	0.17101812
222	0xbd90d324	-0.07071522
223	0xbd8584a2	-0.06519438
224	0xbb7c6f8e	-0.003851864
225	0x3e2c873b	0.16848461
226	0xbddc9d7d	-0.10772226
227	0x3e41ec92	0.189379
228	0xbd453b0b	-0.04815201
229	0xbd8d259e	-0.068919405
230	0xbe0e45f7	-0.13893877
231	0xbdd19fe8	-0.10235578
232	0xba873e20	-0.0010318197
233	0x3da817b9	0.0820765
234	0xbe4345fc	-0.19069666
235	0x3dc84fea	0.097808674
236	0x3d984c7c	0.07436463
237	0xbe8ae55f	-0.2712812
238	0xbe311e22	-0.17296651
239	0x3e597e6e	0.21239635
240	0xbc94f504	-0.018183239
241	0xbe400c59	-0.1875471
242	0x3dc4f605	0.09617237
243	0x3d6def51	0.058089558
244	0x3cc00458	0.023439571
245	0x3d2c6b1d	0.04209434
246	0x3c99fa2a	0.018796045
247	0xbe585f15	-0.21130021
248	0xbc5d53c8	-0.013508745
249	0xbd821409	-0.06351478
250	0x3e5618d5	0.2090791
251	0xbd2d15ea	-0.042257227
252	0xbe4c0d42	-0.19926932
253	0x3e336f8d	0.17523022
254	0xbd6ba9b0	-0.057534873
255	0x3cafbf42	0.021453504

fc1.bias f4 [50]
0	0xbd15049b	-0.036381345
1	0xbd8f4957	-0.0699641
2	0xbc84ca2f	-0.01620969
3	0x3d6cc4a0	0.057804704
4	0x3dcb6696	0.09931676
5	0x3df9a245	0.121891536
6	0x3db49db6	0.088191435
7	0xbe01263e	-0.12612244
8	0x3e058b04	0.13041312
9	0xbcabeda2	-0.020987336
10	0x3d48bfc2	0.049011
11	0xbd3c56d2	-0.045981236
12	0xbd599c83	-0.053127777
13	0x3d03545e	0.03206288
14	0x3e320171	0.17383362
15	0x3c012f95	0.00788488
16	0xbe177406	-0.14790353
17	0x3d816567	0.06318169
18	0x3df7d0e3	0.12100389
19	0x3d06a68b	0.03287367
20	0x3c92b52f	0.01790866
21	0xbe01eddc	-0.12688392
22	0xba58d8c4	-0.00082720467
23	0x3e169127	0.14703809
24	0xbd80e07e	-0.062928185
25	0x3d24d768	0.04024449
26	0xbe07b82b	-0.13253848
27	0x3d154873	0.036446046
28	0x3d0b01fd	0.033937443
29	0xbe2168a9	-0.15762581
30	0x3bda4ca6	0.0066619692
31	0xbc9c2593	-0.019060886
32	0xbd5e7b85	-0.054317016
33	0xbdf596af	-0.11991631
34	0xbd25e4c5	-0.040501375
35	0x3ddfa538	0.10920185
36	0x3cd5b0b7	0.02608524
37	0xbd9c6e52	-0.076382294
38	0xbe29319c	-0.1652283
39	0xbe0a14a1	-0.13484432
40	0x3e3f7c65	0.18699796
41	0x3df9dc7b	0.122002564
42	0x3d409063	0.047012698
43	0xbdb64e80	-0.089016914
44	0x3deb28e2	0.11482407
45	0x3cbd7540	0.023127198
46	0xbda9bb8c	-0.08287725
47	0xbd19d511	-0.03755671
48	0xbd9651f4	-0.0733985
49	0x3c22578e	0.00990857

fc1_bn.weight f4 [50]
0	0x3f182da4	0.5944464
1	0x3f1560d1	0.58350855
2	0x3f178531	0.5918761
3	0x3f052b3e	0.5201911
4	0x3f1ae58f	0.6050653
5	0x3ec59d90	0.38596773
6	0x3f24cdea	0.643767
7	0x3edb9e60	0.42894268
8	0x3f373ae3	0.7157423
9	0x3f0962ac	0.53666186
10	0x3ef06d21	0.4695826
11	0x3ef68682	0.48149496
12	0x3f009c4c	0.5023849
13	0x3ef61086	0.4805948
14	0x3ebe2e51	0.37144712
15	0x3e80982a	0.25116092
16	0x3ee465e8	0.44608998
17	0x3f09bb7a	0.5380169
18	0x3f162bfc	0.58660865
19	0x3f35e6ef	0.710555
20	0x3f1013c2	0.5628015
21	0x3ee8d95d	0.45478335
22	0x3ec0680f	0.3757939
23	0x3f0a9446	0.541325
24	0x3ef83eb9	0.48485354
25	0x3f610818	0.87902975
26	0x3f32337f	0.69609827
27	0x3f2958d2	0.66151154
28	0x3f13fd38	0.57808256
29	0x3f077fa4	0.5292914
30	0x3f1f3838	0.6219516
31	0x3eea1ad3	0.4572359
32	0x3eef738c	0.46767843
33	0x3f32f948	0.69911623
34	0x3f083831	0.5321074
35	0x3eb4d96b	0.35322127
36	0x3ee2d3cd	0.44302216
37	0x3f3dc742	0.7413217
38	0x3ef7a928	0.48371243
39	0x3f1d152d	0.61360437
40	0x3eebf51f	0.4608545
41	0x3f3eb292	0.74491227
42	0x3f1a8da9	0.60372406
43	0x3f1f0b77	0.6212687
44	0x3e598373	0.2124155
45	0x3f761936	0.9613222
46	0x3ecc9143	0.39954576
47	0x3e5bddc2	0.21471313
48	0x3f09fd74	0.53902364
49	0x3f576d17	0.8415083

fc1_bn.bias f4 [50]
0	0x3e034b50	0.12821698
1	0x3abb930e	0.0014310793
2	0x3de1071a	0.10987683
3	0x3e24d1ad	0.1609561
4	0x3eb6ede2	0.35728365
5	0x3d8efea6	0.06982164
6	0x3e8759df	0.26435754
7	0xbe0832f2	-0.13300684
8	0x3e08d84f	0.13363765
9	0xbafc80be	-0.0019264442
10	0x3d2be8bc	0.04197
11	0x3d9023ed	0.07038102
12	0x3e6bf677	0.23043238
13	0xbd7adf88	-0.061248332
14	0x3e0b8567	0.13625108
15	0x3dd96cda	0.10616465
16	0x3ca09b92	0.019605432
17	0x3cdc68b2	0.026905391
18	0x3dc06439	0.09394116
19	0x3bddce20	0.006768957
20	0x3e10214e	0.14075205
21	0x3e31282a	0.17300478
22	0x3e511397	0.20417629
23	0x3d2ecfe0	0.042678714
24	0x3ea47fa6	0.32128638
25	0xbb5cd33c	-0.0033695241
26	0x3dbcddba	0.092219785
27	0x3e38ab6e	0.18034145
28	0x3db57ee4	0.08862093
29	0x3ac5efe4	0.00151014
30	0x3da23090	0.07919419
31	0x3dce3144	0.100679904
32	0x3cb1a08a	0.021682996
33	0x3e0cd5fd	0.13753505
34	0x3e84be8c	0.25926626
35	0x3e9f43f0	0.3110652
36	0x3e5d9326	0.21638164
37	0xbcb2606b	-0.021774491
38	0x3dcc8f3c	0.09988257
39	0x3ea0c217	0.3139808
40	0x3e3078d3	0.17233591
41	0x3dd26fc4	0.10275224
42	0x3e1ec771	0.15505768
43	0x3e748872	0.23880175
44	0x3e43f8c1	0.19137861
45	0x3e8431de	0.25819296
46	0x3d35de7a	0.044401623
47	0x3dcd20ec	0.10016045
48	0xbccc569c	-0.024943642
49	0x3e1b2a88	0.15152943

fc1_bn.running_mean f4 [50]
0	0x3ecafc50	0.39645624
1	0xc015b5a3	-2.3392112
2	0xbe83d2b1	-0.25746682
3	0xbf0414e5	-0.5159438
4	0x3f66d7d0	0.90173054
5	0x3d0dd24b	0.03462438
6	0xbcdc29f3	-0.026875472
7	0xbf1314ef	-0.5745382
8	0xbee80b3a	-0.45321065
9	0xbf5fca8e	-0.8741845
10	0x3f23c980	0.6397934
11	0xbf545dbf	-0.82955545
12	0xbf50e4cc	-0.81599116
13	0x3e362366	0.17786941
14	0xbf544d2f	-0.8293027
15	0xbecbd94d	-0.39814225
16	0x3f659ab7	0.896892
17	0x3efa8c4d	0.48935166
18	0x3fe99cf0	1.8251019
19	0xbe62fbc7	-0.22166358
20	0x3f5748c2	0.84095395
21	0xbf96915d	-1.1763111
22	0xbf05bdf9	-0.52243
23	0x3fc2b1e0	1.5210533
24	0x3c35aafe	0.011088131
25	0x3ef465f4	0.47734034
26	0x3f3070e2	0.68922246
27	0xbfbf9fd3	-1.497065
28	0xbd541aaf	-0.05178326
29	0x3d4675c8	0.04845217
30	0x3f0aa185	0.5415271
31	0x3fdae303	1.7100528
32	0xbf0b77ee	-0.54479873
33	0xbe53c94c	-0.20682257
34	0xbf7c67d7	-0.9859595
35	0x3ce567a5	0.028003523
36	0x3fad0be2	1.3519251
37	0xbf874d5b	-1.0570482
38	0xbfebbd30	-1.841711
39	0x3dddd86b	0.10832294
40	0x3f37f934	0.7186463
41	0xbff21464	-1.8912473
42	0xbe9210d1	-0.28528455
43	0x3e7e27f3	0.24819927
44	0x3f8f7cb3	1.120993
45	0x3ee568f9	0.4480665
46	0x3ee67a85	0.4501535
47	0x3e6da223	0.23206381
48	0xbf262391	-0.6489802
49	0x3e4ce130	0.20007777

fc1_bn.running_var f4 [50]
0	0x3f160390	0.58599186
1	0x3f298aba	0.66227305
2	0x3ed88960	0.4229231
3	0x3f41120b	0.75418156
4	0x3f142aaa	0.578776
5	0x3ed579d9	0.41694525
6	0x3ee2ae24	0.44273484
7	0x3f36f012	0.7146007
8	0x3fa53242	1.2905962
9	0x3ed6bde1	0.4194174
10	0x3f13e257	0.5776724
11	0x3fbb8037	1.4648503
12	0x3f70d723	0.9407827
13	0x3f3b4e84	0.7316668
14	0x3f5e3338	0.86796904
15	0x3ec08a13	0.37605342
16	0x3e7729d7	0.24137054
17	0x3f367342	0.7126962
18	0x3eb7bc24	0.35885727
19	0x3f2c89c4	0.67397714
20	0x3eb8f436	0.36123818
21	0x3ee1dfd4	0.4411608
22	0x3f3ac2b1	0.72953326
23	0x3f4f3cd6	0.80952203
24	0x3eeaf67c	0.45891178
25	0x3eeeeaa8	0.46663404
26	0x3f586169	0.84523636
27	0x3fc5d8fd	1.5456845
28	0x3fc3bb72	1.5291579
29	0x3e52b8ee	0.20578358
30	0x3f80f58e	1.0074937
31	0x3ed0a39f	0.40749833
32	0x3f7f79c0	0.9979515
33	0x3f379ca9	0.7172342
34	0x3ef06124	0.46949112
35	0x3f615d91	0.88033396
36	0x3ecc965b	0.39958462
37	0x3ed10dd7	0.4083087
38	0x3e846bc8	0.2586348
39	0x3f59b1c5	0.8503688
40	0x3eab9f04	0.33519757
41	0x3ee1e865	0.44122615
42	0x3eab8689	0.3350108
43	0x3fca7d2b	1.5819448
44	0x3e79a1e3	0.24378161
45	0x3f1a2f1e	0.60228145
46	0x3f6c6b55	0.92351276
47	0x3f3a1053	0.7268116
48	0x3ee35786	0.44402713
49	0x3ee7fd07	0.45310232

fc2.weight f4 [10, 50]
0	0xbe7e30db	-0.24823324
1	0xbe01e901	-0.1268654
2	0xbd933adb	-0.0718896
3	0xbe1fe0a3	-0.15613036
4	0xbe7f0d76	-0.24907479
5	0xbd2854fa	-0.041096665
6	0xbe622c5a	-0.22087231
7	0x3d8e254b	0.06940707
8	0x3e81b39d	0.25332347
9	0xbd6827db	-0.056678634
10	0xbdebe278	-0.11517805
11	0xbe4d013e	-0.20020005
12	0x3e636d82	0.22209743
13	0xbe2c474a	-0.1682407
14	0xbcdeca5d	-0.027196104
15	0xbd274745	-0.040839452
16	0xbd3d8749	-0.046271596
17	0xbd4b516a	-0.04963819
18	0x3d986575	0.074412264
19	0xbc969316	-0.018380683
20	0xbe30a2b2	-0.17249563
21	0xbdc06ce8	-0.09395772
22	0xbe61d9d1	-0.22055747
23	0xbd62ae5b	-0.05534206
24	0x3c7ad2b2	0.015309023
25	0x3dd9d723	0.10636737
26	0x3ec103ba	0.37698156
27	0x3ee5b333	0.4486328
28	0xbd779d9a	-0.060453035
29	0xbded8330	-0.11597288
30	0xbe19d9eb	-0.15024535
31	0xbd2ff323	-0.042956483
32	0x3de86490	0.11347306
33	0xbdddfc02	-0.10839082
34	0xbddb0946	-0.10695128
35	0xbd9f8a40	-0.07790041
36	0x3dd29210	0.102817655
37	0x3dcdb592	0.100443974
38	0x3d06eb7e	0.032939427
39	0xbe4fcec0	-0.20293713
40	0x3a568ae8	0.0008184151
41	0x3db6b606	0.08921437
42	0xbe89df2d	-0.26928082
43	0xbe300c25	-0.17192133
44	0xbd198205	-0.037477512
45	0xbdf77ddb	-0.12084552
46	0x3e8524a2	0.2600451
47	0x3e61e43e	0.22059724
48	0x3ce3179c	0.027721219
49	0x3f29ee5f	0.6637935
50	0xbe1a8440	-0.15089512
51	0x3e8020d5	0.2502505
52	0x3e936e55	0.28795114
53	0x3eea5c8a	0.45773727
54	0xbe1ec2de	-0.15504023
55	0xba02ae06	-0.0004985038
56	0xbe378c4e	-0.17924616
57	0x3c9e1515	0.019297162
58	0xbe8724a8	-0.26395154
59	0x3e78a871	0.24283005
60	0x39ee46de	0.00045447698
61	0xbc918b12	-0.01776651
62	0xbb0a9ec6	-0.0021151765
63	0xbdc0dee9	-0.09417517
64	0xbb6dfca0	-0.0036313906
65	0xbd3e00f4	-0.046387628
66	0x3cf10c5f	0.029424844
67	0xbe88c527	-0.26712915
68	0x3dad90c3	0.08474877
69	0x3eed9b52	0.46407562
70	0xbd177eae	-0.036986046
71	0x3e20bdbc	0.15697378
72	0x3e3d0758	0.18459833
73	0xbe91fecc	-0.28514707
74	0xbe98808c	-0.29785573
75	0xbb9f8f7e	-0.0048694005
76	0xbdfb2e2f	-0.12264668
77	0xbdc82800	-0.097732544
78	0x3c4c0df8	0.012454502
79	0xbe556964	-0.20840985
80	0xbe0a3b2a	-0.13499132
81	0xbe8e9426	-0.27847403
82	0x3d6d7bf8	0.057979554
83	0x3f06a98e	0.5260247
84	0xbd8c95f2	-0.06864537
85	0xbe9a879a	-0.3018158
86	0xbddb9b75	-0.107230105
87	0x3f095877	0.5365061
88	0x3d417b18	0.047236532
89	0x3d73202c	0.059356853
90	0xbe8f6184	-0.28004086
91	0xbd993395	-0.074805416
92	0xbdeaab67	-0.11458474
93	0xbd2b7991	-0.04186398
94	0xbd35fca4	-0.04443039
95	0xbe187515	-0.14888413
96	0xbd488304	-0.04895307
97	0xbde5993f	-0.1121087
98	0x3ea389e8	0.31941152
99	0xbe5d12a5	-0.21589144
100	0x3d87e8ed	0.06636224
101	0xbe4e96f3	-0.2017477
102	0xbe824faa	-0.25451404
103	0xbd98d212	-0.07461943
104	0xbd9c90f5	-0.07644836
105	0x3e0cbb47	0.13743316
106	0xbe4e2e09	-0.20134749
107	0x3e313a19	0.17307319
108	0xbd858cc0	-0.065209866
109	0x3e930530	0.28714895
110	0xbcc6ac86	-0.024252187
111	0xbdf3e64e	-0.119091615
112	0x3ddd36de	0.10801481
113	0x3eabdf61	0.33568862
114	0xbd9c2ffd	-0.076263405
115	0xbe4ad91b	-0.19809382
116	0x3c25e7a1	0.010126025
117	0xbde0e169	-0.109804936
118	0x3f0b4b0a	0.54411376
119	0x3e3be302	0.18348315
120	0xbe052b0c	-0.13004702
121	0xbd993c66	-0.07482223
122	0xbe570ce5	-0.21001013
123	0x3d0467c1	0.03232551
124	0x3e09a6a9	0.13442482
125	0x3f068f3c	0.5256231
126	0xbc31ac9d	-0.010844377
127	0xbe26c7da	-0.16287175
128	0xbcf64c9a	-0.030065823
129	0x3e7adfa8	0.2449938
130	0xbd520e6d	-0.05128329
131	0xbd431272	-0.047625013
132	0xbe4d5992	-0.200537
133	0x3c427a93	0.011870044
134	0xbd329586	-0.043599628
135	0x3e4685eb	0.19387023
136	0xbe37153f	-0.17879198
137	0xbd74e997	-0.05979308
138	0xbd32e232	-0.043672748
139	0x3ea6db4a	0.3258918
140	0xbe3bd008	-0.18341076
141	0x3c044d8e	0.008075131
142	0xbdbc60a4	-0.0919812
143	0x3e4edf31	0.20202328
144	0x3d215cf5	0.03939529
145	0xbdffc2aa	-0.12488301
146	0x3ddf556f	0.10904967
147	0xbd7cc11c	-0.0617076
148	0xbdc20a52	-0.09474625
149	0xbe3f6d09	-0.18693937
150	0xbe2514e2	-0.16121247
151	0x3dbd9ac8	0.09258038
152	0xbe490cf3	-0.19633846
153	0xbe039b1e	-0.12852141
154	0x3e5af63e	0.21382996
155	0xbe892ac3	-0.26790437
156	0xbe87bcdc	-0.26511276
157	0xbe4a8aa5	-0.19779451
158	0xbc172029	-0.009223976
159	0x3d6f7859	0.05846438
160	0xbbb28440	-0.0054478943
161	0x3e601056	0.21881232
162	0x3e6fe334	0.23426515
163	0xbb4b0f34	-0.0030984404
164	0x3e9ee3b5	0.31033102
165	0xbe7d91be	-0.24762627
166	0x3e525a73	0.20542316
167	0xbd6c6d6e	-0.057721548
168	0x3dbde6ea	0.09272559
169	0x3ced84f9	0.02899407
170	0x3cb085d2	0.021548185
171	0xbddcb963	-0.10777547
172	0x3e09885d	0.13430925
173	0xbdec3927	-0.115343384
174	0xbd4fc9f2	-0.0507297
175	0xbe7e40ad	-0.2482936
176	0xbe222a20	-0.15836382
177	0xbe38d167	-0.1804863
178	0x3d8139f7	0.06309884
179	0xbd94d12b	-0.07266458
180	0x3ee6ffbc	0.45116985
181	0xbe68cddc	-0.22734779
182	0xbcc0db82	-0.02354217
183	0xbcf8eaf9	-0.030385481
184	0xbd70331b	-0.058642488
185	0xbd8865cf	-0.066600434
186	0x3e642497	0.22279583
187	0xbecb0a70	-0.396564
188	0xbe3f0146	-0.1865283
189	0x3e2fc388	0.17164433
190	0xbdf29cd2	-0.11846317
191	0xbcfdc814	-0.030979194
192	0xbdda8ab1	-0.106709845
193	0x3ef2fa3c	0.4745654
194	0xbdba61e4	-0.091007024
195	0xbe9b4a0f	-0.3032994
196	0x3c591eb8	0.013251953
197	0xbdecf1b5	-0.115695395
198	0xbea5e4e1	-0.32401183
199	0xbde95644	-0.11393407
200	0x3e6af35e	0.229444
201	0xbdcc2c55	-0.09969393
202	0xbd0bdcc0	-0.03414607
203	0xbd288ab0	-0.041147888
204	0xbe211d88	-0.15733922
205	0xbd0f8e40	-0.03504777
206	0x3eba903f	0.36438176
207	0x3e369b97	0.1783279
208	0xbe7d0d80	-0.24712181
209	0xbdf05771	-0.11735428
210	0x3ecf5284	0.40492642
211	0xbc57561c	-0.013143089
212	0xbdd8df6c	-0.10589489
213	0xbe18379b	-0.14864962
214	0xbe435b61	-0.19077827
215	0x3dba6de1	0.09102989
216	0xbd09efc5	-0.033675928
217	0x3e1582a9	0.14600624
218	0x3c14c637	0.009080461
219	0xbc92bbe2	-0.017911855
220	0x3ccb5c15	0.024824182
221	0xbdef18d8	-0.116746604
222	0x3e802038	0.2502458
223	0x3ca92d15	0.02065138
224	0xbe136176	-0.14392647
225	0xbd2048b0	-0.03913182
226	0x3d20b377	0.03923365
227	0xbe27161c	-0.16317028
228	0xbe8216f3	-0.25408134
229	0x3c8735c2	0.016505126
230	0x3d976449	0.07392175
231	0xbd03ff1a	-0.032225706
232	0xbd61a5b6	-0.055089675
233	0x3e83994c	0.25702894
234	0x3f0fcd61	0.5617276
235	0x3e84e7a4	0.25957978
236	0xbec05d99	-0.3757141
237	0x3cb7d528	0.022440508
238	0xbe031e46	-0.12804517
239	0xbe81187c	-0.25213993
240	0xbcdcd150	-0.026955277
241	0x3c3bf17f	0.011471151
242	0xbd6a80c7	-0.057251718
243	0xbdffd0b3	-0.12490978
244	0xbdf39f6a	-0.1189564
245	0x3ecc91b8	0.39954925
246	0xbe4531c2	-0.19257262
247	0x3cff3b56	0.031156223
248	0xbdb3692c	-0.08760294
249	0xbebbd66d	-0.3668703
250	0x3a234e50	0.0006229626
251	0x3e005881	0.12533762
252	0xbdc287af	-0.09498536
253	0xbe2cc297	-0.16871105
254	0x3de5d22f	0.1122173
255	0x3d577cfb	0.052609425

fc2.bias f4 [10]
0	0xbe1924b4	-0.14955407
1	0xbcf3658f	-0.029711513
2	0xbdbeab3f	-0.09310006
3	0x3dae47fa	0.08509822
4	0xbc927a8b	-0.017880699
5	0x3d7a6207	0.061128642
6	0xbce35c90	-0.027754098
7	0x3c4767d9	0.012170755
8	0x3c4af3ba	0.0123872105
9	0xbd104758	-0.03522429
