es-rl/experiments/checkpoints/E001-MNIST_none/190107-183714.654622|sNES|MNIST|MNISTNet/state-dict-best-model.pkl (torch_old, 91552 bytes, 20 tensors)

conv1.weight f4 [10, 1, 5, 5]
00000000: aaaa 8bbe 68b8 19be c477 83be 7f4b d9bc
00000010: 38e8 c5bc 172a 0ebe d7c0 20be 7fff dabd
00000020: 6f43 d83b 3169 3e3e 06df 733d 8df7 343e
00000030: 025a d43d b427 2bbe 30fd 9f3e 7b36 823c
00000040: d1a1 0e3d c0c6 39bd 282b be3d 2ef0 c43e
00000050: 22f3 803e 34ca 5b3c 5149 2f3d 1ae4 f2bd
00000060: 47ee 31be a3b9 21be e27c 20be 3856 cabd
00000070: 64d3 f83d d8c4 8cbe 5bc7 e43d 51ea 1dbe
00000080: 0c8f 2abe b61f 04bd 98da 18bd a71a 5eba
00000090: 0c8c 18be 32a4 09bd 8bc0 ccbd 7143 69be
000000a0: 8a7d 0ebe 4af6 79be 13e4 d3bd 9bc2 b6be
000000b0: 2c67 ab3e 1f0b 343e 6cb2 04bf 1406 b0bc
000000c0: 071f 99bd 33a4 933e 6296 543e 3211 9c3e
000000d0: bc5f a93e 065e 9bbc 0a71 1b3d bce5 bdbd
000000e0: f654 1bbe c675 e33e a3f5 a03e f623 093e
000000f0: ffcf c2be 624e 52be f15e 8fbe 06fb 953e
00000100: 2c10 ed3c df69 ad3d 6924 05be d59b cabd
00000110: 0078 ec3c fd9c 47ba 7ea4 8ebe 4cae a9bd
00000120: 18b5 7ebe 54f4 7ebe 10f8 a1bd 7684 db3d
00000130: 1d11 f33b 622f 6bbc 4e0d e1bd 9de1 e53c
00000140: 583f 9bbe 70b6 c43d 8933 3f3e 2239 b6bd
00000150: 1778 4c3e 1b82 c4bd 9f3c 713d daf5 b2bd
00000160: 53d7 8a3d 4fd8 1c3e 67fc 21bd 3226 223d
00000170: 216c 493e fe67 8ebc c8ab 973b b0c2 acbd
00000180: c012 953d f7c8 003e f446 b33e 1fa1 48bd
00000190: 58d3 b7bd 429a b4bd be85 a63d 0880 6a3e
000001a0: 2fdd f33e 4411 a9bd 25c5 b0be 85e9 e1bc
000001b0: 631f d8be 5db4 b83e 3edd b4bd a646 afbe
000001c0: 1024 833e 3984 af3d b33f f6bd 7d1d 96be
000001d0: 0709 143e 7bd9 85bd 93bd e33e 6ffe 2abe
000001e0: 080f debc 8b02 2d3e 86d2 8b3e 67ed 253d
000001f0: 6b6e fdbe 667e 6e3d 6bb7 89bd b3aa 84be
00000200: e26e 64bd c760 e6bb 4fc4 863e bfff b73e
00000210: bd85 01be db81 8dbd 7755 9cbd 7dee c43d
00000220: 3cd5 3b3e cd10 08be c06e 753e 04b2 c5be
00000230: d1f1 92bd 7981 2e3e dac9 21bd e12d 7d3e
00000240: 1161 823e 604c e4bc b556 063f 59c5 35be
00000250: 5e2f 023e 34e2 09be 7e6b 753e cb35 5b3e
00000260: f7eb ff3d 3c21 c83d 4cc4 003d a2f0 9e3e
00000270: 82d2 b13e 4667 c43c 4fab 35be 801f b23c
00000280: 0365 983e 16ae d73e 7bf9 86be 354c b33e
00000290: a8ee cebc 72d2 cebc 5881 a03d c417 0ebe
000002a0: 30ef 79be f81c 043d 25e1 2ebe 05d6 7d3c
000002b0: baf8 b93c 34ad e73d 0e51 0dbe 1a4e fbbd
000002c0: f7b9 eebc 72ef 473e 01d6 eb3d 7a2b 073e
000002d0: 43af 7abe 8700 65be fdbf a0be f772 293e
000002e0: c741 b53d ba3f 2dbb ae4f 7ebd 6664 48be
000002f0: 0057 9bbe bf5e 983e 371b cc3b ad88 d1be
00000300: 83c3 33bd 7334 53be 1aa4 323e ae12 153c
00000310: 81dd 36bd 0aaf 3fbe ae78 573e 60bc 3bbe
00000320: bc8f 3b3d 200d 323e 0a4f cbbd fc27 64be
00000330: a3c1 29be aa67 c8be 2348 9cbe 1032 3abc
00000340: 4027 d3bc 4497 2abe 1983 21bd 78b8 88bd
00000350: e757 88be 3322 3d3e 0137 2d3e 2d67 ef3d
00000360: a6e8 a13d 566d 79bd 728a f2bd cba9 5d3e
00000370: 5b17 babd 09a2 5dbe 152f 0ebe a076 fe3c
00000380: afe5 c5bc c88d 4abd c735 4dbd 6619 7abe
00000390: 4c5e d53d b5fd f03d 6202 0dbe 7c60 33bd
000003a0: 1a96 1bbe 35f4 b23e 6336 303e f2bb cabd
000003b0: 6cc0 30be d971 ca3e 509d 6c3c 01a8 43be
000003c0: 28b1 443d 0426 fcbd d46b 503e 3f44 83bd
000003d0: 0589 b6be 5030 f53d 5a7e aa3b 4331 b03e
000003e0: 99b5 e5bd fbb5 543e
-0.27278644 -0.15011752 -0.2567731 -0.026525257 -0.024158582 -0.13883244 -0.15698563 -0.10693263
0.0065998356 0.18594815 0.059538864 0.17672558 0.1036873 -0.16714364 0.31247854 0.015895119
0.03482229 -0.04535556 0.09285575 0.38464493 0.25185496 0.013414908 0.04279453 -0.11859913
-0.17376052 -0.15793471 -0.15672639 -0.09879726 0.121496946 -0.2749393 0.111708365 -0.15421416
-0.1665613 -0.032256804 -0.037317842 -0.00084725994 -0.14897174 -0.033603854 -0.09997662 -0.22779633
-0.13915077 -0.24410358 -0.10346236 -0.35695347 0.3347715 0.17582367 -0.5183475 -0.021487273
-0.07476621 0.28836212 0.20760491 0.3048187 0.33080852 -0.018965732 0.0379496 -0.09272334
-0.15169129 0.44425792 0.31437406 0.13392624 -0.38049313 -0.20537713 -0.28002122 0.29293078
0.028938375 0.08467459 -0.1300217 -0.09893004 0.028865814 -0.00076146406 -0.27859873 -0.082851976
-0.2487377 -0.24897891 -0.07908642 0.10718624 0.0074178115 -0.014354559 -0.10988866 0.028061682
-0.30321765 0.0960511 0.18672003 -0.08897616 0.19967686 -0.09595128 0.058895703 -0.08738299
0.06779351 0.1531689 -0.03954735 0.039587207 0.19670154 -0.017383572 0.004628632 -0.08435571
0.07278967 0.12576662 0.3501507 -0.048981782 -0.089758575 -0.08818485 0.08130978 0.22900403
0.47629687 -0.08255246 -0.3452541 -0.027577171 -0.42211446 0.36075106 -0.08831261 -0.34233588
0.2561345 0.08570141 -0.120238684 -0.29319373 0.14456569 -0.06535622 0.4448057 -0.16698621
-0.027106777 0.16895501 0.27309054 0.040509608 -0.49498305 0.05822601 -0.06724437 -0.25911483
-0.05576981 -0.0070305797 0.26321647 0.35937306 -0.12648673 -0.069095336 -0.076334886 0.096158005
0.18343061 -0.13287659 0.23968029 -0.38612378 -0.07175029 0.17041577 -0.03949914 0.24724533
0.2546468 -0.02786845 0.52476054 -0.17751063 0.12713382 -0.13465196 0.23966786 0.21407239
0.124961786 0.09771964 0.031437203 0.31042963 0.34730917 0.023975026 -0.1774113 0.021743536
0.29764566 0.42125005 -0.26362213 0.3501908 -0.025260285 -0.025246833 0.0783717 -0.13876253
-0.24407649 0.03225419 -0.17078073 0.015492921 0.02270161 0.11312333 -0.13800451 -0.12270756
-0.02914141 0.19524935 0.115154274 0.13200179 -0.2448092 -0.22363482 -0.31396475 0.16547762
0.08850437 -0.002643569 -0.062087707 -0.19569549 -0.30339813 0.29759786 0.00622883 -0.40924588
-0.043887626 -0.20625477 0.17445412 0.009098692 -0.044644836 -0.18719116 0.2104213 -0.18333578
0.045791373 0.1738782 -0.09927185 -0.22280878 -0.16577773 -0.3914159 -0.30523786 -0.011364475
-0.025775552 -0.16659266 -0.039431665 -0.066758096 -0.26629564 0.18470077 0.16915514 0.11689601
0.07905702 -0.060895287 -0.118428126 0.21646802 -0.09086486 -0.21643843 -0.13885148 0.031062424
-0.024157373 -0.04945162 -0.050100114 -0.24423751 0.10418376 0.11767141 -0.1377044 -0.043793187
-0.15193978 0.3495194 0.17208247 -0.09899129 -0.17260903 0.39539984 0.014441803 -0.19107057
0.048020512 -0.123119384 0.20353633 -0.06409501 -0.35651413 0.119721055 0.0052030506 0.34412584
-0.11216278 0.20772545

conv1.bias f4 [10]
00000000: 9596 fc3c 2e0d aebd 39cf 893d 9824 613e
00000010: f3c9 993d 2ada 023e a133 c63c ba75 a23d
00000020: af29 883d 961e 0b3e
0.030833522 -0.084986076 0.06728978 0.21986616 0.07509222 0.12778535 0.02419454 0.07932611
0.066485755 0.13585886

conv1_bn.weight f4 [10]
00000000: 96ea 673f 547a 983f c671 a03f 4a5c 863f
00000010: f9bb 073f d96f 753f c5f0 823f 8833 893f
00000020: d978 533f 7bc9 7b3f
0.90592325 1.1912332 1.2534721 1.0496914 0.530212 0.9587379 1.0229727 1.0718851
0.82606274 0.9835431

conv1_bn.bias f4 [10]
00000000: 85ea 02be 6a77 573e 2096 88bc 54fa 063e
00000010: 7bca 9c3c 4bc0 dcbd 87b0 bc3d a307 5fbd
00000020: 7901 bbbe af6e afbd
-0.12784775 0.21041647 -0.016673148 0.1318143 0.019139519 -0.107788645 0.092133574 -0.054450642
-0.3652456 -0.08566033

conv1_bn.running_mean f4 [10]
00000000: 9fa5 6a3d eb3f 67be 4875 6e3d 1c7e a53e
00000010: 804c 8c3d 2905 313e fbe6 f63d 5b78 0fbd
00000020: 5e0b 0fbd 0522 1b3e
0.057286855 -0.22582977 0.058217317 0.32322776 0.06850529 0.17287125 0.12055775 -0.03502689
-0.03492295 0.15149696

conv1_bn.running_var f4 [10]
00000000: dd2a 6e3f 2df2 2840 26d7 b03f 61cd 5d3f
00000010: 73be cd3f 08a5 643f 755d 2240 db8d d03f
00000020: f135 953f cee9 473f
0.93034154 2.6397812 1.3815658 0.8664151 1.6073745 0.8931432 2.5369542 1.6293291
1.1657087 0.7809113

conv2.weight f4 [20, 10, 5, 5]
00000000: b4d1 03be ccd4 3cbd 7c49 43be 4e69 5f3e
00000010: 216c 153e e739 f2bc e26a ff3d 69fa 8b3d
00000020: 85af ba3d 52a4 f33e c99a 4e3e fbfa 1cbe
00000030: 4d0f 213d 82cf 723d c9bd 543e d603 4a3d
00000040: f530 85be a527 bc3c 1877 f23d 6372 7b3d
00000050: ef4a 763e 4d97 5bbd 23f8 503e b5f0 00be
00000060: 1a98 16be 6761 96bc 1b4d 96be f8aa 65be
00000070: edcc 73bd b609 8abd 78d7 1abe 6fdf 5e3c
00000080: dd4b aabd 866d a9bd 6e66 ffbd d00b 913d
00000090: 7313 58be 724e 223e 2e3a 7cbd 03fd cd3d
000000a0: 2a97 1d3e 2a4a 4c3d e4d1 133c 384c 2b3e
000000b0: f02b 4abe 59b7 763d 7aa5 9d3d 935b 71be
000000c0: d45d 643e 71de 73be 57d8 79bd cb91 1abe
000000d0: 4386 ee3d 83ed 6ebe 6399 fc3d 1441 d63a
000000e0: 55b1 343d 98f2 3d3e 8038 f4bd d8f1 363e
000000f0: 01d3 36be 4d08 b93d 240f 5dbe 8259 2c3c
00000100: 19b9 1cbe 44fc 86bd 54aa 413e 9c7f 2dbc
00000110: 0984 893d 52eb 0e3e 7dd4 063e 77e2 863e
00000120: 9477 503d e4d2 6ebd 075e 1d3e fddd cebd
00000130: 6821 15bd 24d1 2cbe 3fa8 f7bd 6276 8fbe
00000140: d79d d5bd 54f5 733d 9c6e eabd fa77 c1bd
00000150: c27c 883e aaaf 383e 9285 0b3e 3771 b93c
00000160: f915 fd3d 88e1 36be 110e 03bd 786d 823d
00000170: 241e debd 5a1b 813e b61e 3abd 7d92 a33d
00000180: 490f 96bd 839b 663e 1816 eb3d 5571 19be
00000190: 83e3 403e c403 78bd 38ce 223c 0ce3 4f3e
000001a0: 1b6f 253e e034 3a3e 91a2 9dbd 8ceb 013e
000001b0: 4b0a d6bd 3787 fe3d 088a cfbe f8cd 19be
000001c0: 9dd4 28be b4ce 813c b170 38be e108 f83d
000001d0: 3fd2 54bd 4630 2dbe f4dd 23be 1853 8cbd
000001e0: f54c b63d 534a 32bd 873e 33be 6757 c23d
000001f0: 2ec2 0dbe ce88 b8bc fe96 09be 2c50 3fbe
00000200: ea4c 90bd c5d3 c3bd c531 2cbe 70bb d5bd
00000210: deeb b1bd 2769 acbd 3f42 22be 85bb c33c
00000220: 3bef a5bd e7f9 143e 866b 063d 984c aa3e
00000230: 61d3 bb3c 10b1 e63d 4e4e 883e eed2 37bd
00000240: 4322 943e 24cc f0bd 51ae dabd 058a 5fbd
00000250: 06c7 d6bd 8afa 813d 64dd 243d a0ed 1e3d
00000260: 1f3a a93c d2ba cabe 5a1f 14be 927e bb3e
00000270: 3c75 85be d7ee 623d 60a6 83be 71c2 5bbe
00000280: e1cf 183e a5ff 873b 6237 0ebe b347 cc3d
00000290: 433d 593c 76bd 59bd 612d 2b3e b7ba cbbd
000002a0: 5659 1b3e 9f6e 7cbe 117d 623e 8a28 c1bd
000002b0: 4d7c b8bd 6c41 2f3e 2c2f 283b aeea 573c
000002c0: 4ec5 5cbe 5911 32be 83d3 5fbd 5e3a 10be
000002d0: c5aa 24bc 8392 a4be 938d 643c eb19 5f3d
000002e0: 8289 77be 3843 4d3d 9453 093e 9c6c 3abe
000002f0: e7f9 31be 927f c43e a5a8 9e3e d5fd 5f3e
00000300: bbe5 cc3d 3b7a 20be e168 de3e ec56 38bd
00000310: b3c8 1e3d a505 c13d c837 e03d 826a 61bd
00000320: 25b1 423d 77c3 243e e373 bfbe 047b f1bd
00000330: 424e 3a3e 2fd5 ac3c 21c5 8bbe 8288 48bd
00000340: f0cf 04be 4c97 e5bd a8da debd 4ff4 9c3d
00000350: b933 5e3e 24d4 163e 55e0 ddbc 2814 ec3c
00000360: 0ea1 873c cdde 8dbd 6804 0dbe 5d3f 1cbe
00000370: 7fc0 09bc 6c01 c9bc f005 033e d4a6 c23e
00000380: 9e26 40bd 1355 073e 56d3 b0bd 3ee8 1dbe
00000390: 1289 3b3e 5483 8abe 52e2 67be bec4 1ebe
000003a0: 792b ddbc 0743 a8bd f32c 513e dc2b 923d
000003b0: fad1 00be 341c 05be 5410 fd3d f54f b93c
000003c0: a862 4fbe 733e 4fbc fbdc 4d3e 4560 b6be
000003d0: 06ab 253e 7c5f bc3d 07fe 13be 1407 263e
000003e0: dca2 92be 85b0 7c3d c3f4 49be 73a6 a8bc
000003f0: 3275 6bbd 1156 ecbc 5c87 013d fab9 bcbe
-0.12872964 -0.046101376 -0.19071001 0.21817514 0.14592029 -0.029568626 0.12471558 0.06834871
0.09115509 0.47586304 0.20176233 -0.15330116 0.039321233 0.059279926 0.20775522 0.049320064
-0.26013914 0.022968123 0.118391216 0.061388385 0.24052022 -0.05361109 0.20407157 -0.12591822
-0.1470646 -0.018356992 -0.29355702 -0.224285 -0.059521604 -0.067401335 -0.15121257 0.013603075
-0.08315251 -0.08272843 -0.12470709 0.07082331 -0.2110117 0.15850237 -0.061578922 0.10058024
0.15389696 0.049875416 0.00902221 0.16728294 -0.19743323 0.060233448 0.07697578 -0.23570089
0.22301418 -0.23815323 -0.060997333 -0.15094678 0.11646702 -0.23332791 0.12333944 0.0016346299
0.04411443 0.18549573 -0.11924839 0.17865694 -0.17853929 0.090347864 -0.21587807 0.010519387
-0.15304984 -0.065910846 0.18912631 -0.0105895065 0.06714637 0.13956955 0.13166995 0.26344654
0.05089529 -0.05830659 0.153679 -0.10100935 -0.03640881 -0.16876656 -0.12092637 -0.28020006
-0.10430496 0.059560135 -0.11446878 -0.09446712 0.26657683 0.1803576 0.13625172 0.022636993
0.123577066 -0.17859471 -0.031995837 0.06368536 -0.108455926 0.2521618 -0.045439444 0.07986925
-0.07327134 0.2252026 0.114788234 -0.14984639 0.18836789 -0.060550466 0.009936862 0.20301455
0.16155665 0.18184233 -0.07697023 0.1268751 -0.10451182 0.12428134 -0.40534997 -0.15019977
-0.16487356 0.015845634 -0.18011738 0.121110685 -0.05195832 -0.16912946 -0.16002637 -0.068517864
0.08901397 -0.043527912 -0.17504321 0.09489327 -0.13843605 -0.022526171 -0.13436505 -0.18682927
-0.0704592 -0.09561876 -0.1681586 -0.104361415 -0.08687566 -0.08418494 -0.15845583 0.023893127
-0.0810227 0.14548455 0.032817386 0.3326156 0.022927942 0.11264241 0.26622242 -0.044878893
0.2893239 -0.11757687 -0.106777795 -0.054574985 -0.104871795 0.06346615 0.040250197 0.038800836
0.020657597 -0.39595658 -0.14465085 0.36620003 -0.26066005 0.055403557 -0.25712872 -0.21460892
0.1492305 0.0041503482 -0.13888314 0.09974613 0.013259235 -0.0531592 0.1671653 -0.099477224
0.15170798 -0.24651574 0.22118022 -0.0943156 -0.090080835 0.171148 0.0025662882 0.013178511
-0.21559641 -0.1738943 -0.054645073 -0.14084765 -0.01005048 -0.3214303 0.01394977 0.054468077
-0.24173549 0.050112933 0.13410789 -0.18205494 -0.17380486 0.38378578 0.3098804 0.21874173
0.10004755 -0.15671627 0.4343939 -0.04500477 0.03876562 0.09424905 0.109481394 -0.055033214
0.04753222 0.16090189 -0.37393102 -0.117910415 0.18193915 0.021097748 -0.27298835 -0.04895831
-0.12969947 -0.11210498 -0.10881549 0.07663786 0.21699418 0.14729363 -0.027084509 0.028818205
0.016556289 -0.069272615 -0.13771212 -0.15258546 -0.008407711 -0.02453681 0.12795234 0.38017905
-0.04691183 0.13216047 -0.08634059 -0.15420625 0.18314007 -0.2705332 -0.22644928 -0.15504739
-0.026998268 -0.082159095 0.20427303 0.07137272 -0.125801 -0.1299904 0.1235663 0.022621134
-0.20252478 -0.012649166 0.20103829 -0.35620323 0.16178522 0.091979 -0.14452372 0.16213638
-0.28639877 0.06169178 -0.19722275 -0.020587182 -0.057484813 -0.028849633 0.03162323 -0.3686064

conv2.bias f4 [20]
00000000: 50e4 56bd 76e2 343d bdcc 1cbd f01e 1fbe
00000010: e558 11bd 93a4 0a3e dfc2 45be 6448 a03d
00000020: 6aad 73be 7238 7bbe 34ac 123c a69e 1d3e
00000030: b174 b73d 1a79 3f3e bc6c 94be 9e88 d53d
00000040: 8578 383e 79fe 60bd 0f15 70be 41fe 14be
-0.05246383 0.044161282 -0.03828119 -0.15539145 -0.035485167 0.13539343 -0.19312619 0.078263074
-0.23796621 -0.24533251 0.008952189 0.15392551 0.08957804 0.1869854 -0.28989208 0.10426448
0.18014725 -0.054930184 -0.23445533 -0.14550115

conv2_bn.weight f4 [20]
00000000: cb78 593f d2f1 7c3f b8d0 a13f 19b9 823f
00000010: e3be 603f 7e74 833f 5235 8f3f aa4a 8d3f
00000020: ad21 913f 4bbd 6a3f d6b9 6e3f 5a6a 883f
00000030: 6f15 8c3f dcb9 863f e916 8c3f 3e1a 8f3f
00000040: 5177 883f b834 8b3f 73b4 453f 57b1 503f
0.8494994 0.9880649 1.2641821 1.0212737 0.8779127 1.0269926 1.1188147 1.1038411
1.1338402 0.9169509 0.93252313 1.0657456 1.0944041 1.052547 1.0944492 1.1179883
1.0661412 1.0875463 0.7722847 0.815206

conv2_bn.bias f4 [20]
00000000: 0bbd bb3e d440 323d 40da 753e 9dd6 c7ba
00000010: a168 e8bc 763a 863e df5c 26bd a657 37bd
00000020: 5b6c b7bd da6e 673d 233e 8c3b 65ce b0bc
00000030: 146d 253e 5031 383d 0f5e d2bb 5ec8 c0bd
00000040: e9a5 5ebd 307a cebd 4661 c63d 04fb 14bd
0.36667666 0.043518856 0.24009037 -0.0015246455 -0.028370203 0.26216477 -0.040615913 -0.044761322
-0.08956214 0.0565022 0.004279868 -0.021582792 0.16154891 0.044968903 -0.006419904 -0.09413217
-0.054357443 -0.10081899 0.09686522 -0.0363722

conv2_bn.running_mean f4 [20]
00000000: 620b 95bf 6582 983f f043 5740 ec45 0ebf
00000010: b5ce dfbf fd86 fd3f ccd8 63c0 c0db 983f
00000020: e015 4b3e c4ae 40c0 4df8 3940 b07b b93e
00000030: c1d7 babe 5838 73bf 6333 6bbe c9a2 ce3e
00000040: 8b2f 9840 ba1a 63bf a783 0d40 a539 763f
-1.1644099 1.1914793 3.3635216 -0.5557544 -1.7484957 1.980682 -3.5601072 1.1942062
0.19832563 -3.0106668 2.90578 0.3622718 -0.36492732 -0.9500785 -0.22968821 0.4035857
4.7558036 -0.88712656 2.2111604 0.9618171

conv2_bn.running_var f4 [20]
00000000: 61e4 ca40 f0fe 3741 5920 ce40 f8f3 0f41
00000010: 9c0f e140 d91c 6e40 fc87 8a41 5090 4e41
00000020: 35b8 d240 fbdd da40 9aa6 0041 1d7f ca40
00000030: b317 2e41 aa84 0741 ae51 a040 7428 1741
00000040: aaa0 4141 7ac0 ed40 1ded 9b40 04b8 b340
6.3403783 11.499741 6.4414487 8.997063 7.0331554 3.7205107 17.316399 12.910233
6.584986 6.839597 8.040674 6.3280168 10.880786 8.469889 5.0099707 9.447376
12.101725 7.4297457 4.8726945 5.616213

fc1.weight f4 [50, 320]
00000000: e7ce b93e bc29 8ebe 7e03 0b3e 490e 4dbd
00000010: e27f a2bd 97bb 0bbe 3c45 3cbe f0e6 d3bd
00000020: b673 ffbd 699e 0c3d a083 8bbc 9167 973d
00000030: c91c bc3c 65d5 34be d4c1 043d 4911 e13d
00000040: 70c6 b4bc 6b3b 56be 5f56 aa3c f777 073c
00000050: 9dcb b2bd a8b0 92be b65d 94be 6760 a53e
00000060: 77b4 03be 8348 bbbd 1153 3d3e 60ec 423e
00000070: 52ec 0e3e 2f59 9cbd 721f febd ab4d eabd
00000080: e177 58bd 9474 43be f39a b33d 6be7 be3d
00000090: 778d b43b 2d12 68be 0bd7 8b3d 8d19 97bc
000000a0: 3def 693e 42b0 72be 44f6 933e 781a d63c
000000b0: d91f 073d 41b8 70bd 6f74 5ebe 6a14 053c
000000c0: 86c1 6cbd 9722 3bbe 68ef 12bc f99e b63d
000000d0: 2d94 32be 8f6f ae3e b00e 89bd 324e b5be
000000e0: 9ca3 513e 03d9 ad3d 2d3b 183e 363b 863c
000000f0: c740 f33c 8d78 29bd 2f16 833e c513 23be
00000100: b597 823e 00db 79be 69d2 603e d4fa 4d3e
00000110: 1eb2 93be f03b 1d3c 29da 06be 94ff 01bb
00000120: 58e6 12be c80b f6bd d1a9 443e cc13 5e3e
00000130: f422 82bd 091e 8cbe 69a5 d83d 0c2a 9cbd
00000140: 144d 25be 3152 47be 97e8 89bd bb59 b43d
00000150: 59cc 1e3e e023 b3bd 917f 2e3e d24f 823d
00000160: 65b2 95be 0492 fd3c 2823 e33c 8619 703e
00000170: 1686 2e3d 5986 88be b228 533e 9d3a 663e
00000180: 46c1 023e 0db3 ddbd d11a dd3e 331d 14be
00000190: c5d8 d73d 929f 983d 91df e43c 81c6 573e
000001a0: 025f 1dbe c544 a03d 55e0 633e 4918 5d3e
000001b0: 3431 5c3e ee5f dbbd 4ba7 0abd b1a3 403e
000001c0: 5b8d 433e 5cb2 ba3d c8e7 88be c87d 5dbe
000001d0: 1ba4 c9bd f471 0abe c5a9 d03d 0fb6 5abe
000001e0: 819a 803e 3ccb 653d f813 a13e 14cf bb3d
000001f0: 961f cf3d bd7c 8c3d 235e c6bb c68a c2bc
00000200: 8a37 f03d 6e71 5bbe 3ffa 563e c1bf 333e
00000210: 5609 7c3c ac23 ad3d ec07 d5bc 0472 f4bc
00000220: 5a95 c73d 571a 15be 9cec 1dbd cbd8 893e
00000230: 94a2 153e 28e2 50ba 6ddb 26be 41a5 d4bc
00000240: 3099 013d 8df7 b03d 2cb5 11bd fc10 d0bd
00000250: 6116 b13d 6642 00bd d7dd d7bd fc67 69be
00000260: 48b1 4cbe a175 a3bd f850 d9bc 62d5 2e3e
00000270: 439b a6bd 4963 b7bd 04e7 46bd 0085 85bd
00000280: 6428 57bc 07a9 613d 2112 ac3d 80ea 9fbd
00000290: b98d 163e 19a9 a1bd c395 903d 7888 9dbd
000002a0: ed46 6d3d def5 22bd c869 d5bd 59b7 d03d
000002b0: 6f2f 7fbe efeb 503e b7ee 98bd 543b 17be
000002c0: 8dc5 5e3e 0ada b6be c5bf 8c3d 93b7 9e3e
000002d0: 9d9f d83d 5156 663e 8c95 efbd e605 2dbe
000002e0: 3124 99bb 79d9 4fbe 5458 243b 1de7 89bd
000002f0: 35ec 303e fa89 31bd be83 f4bd 069a ee3d
00000300: 2720 5c3e 6132 8c3d 0733 483e f3b7 403d
00000310: b3d2 9b3e 8d6a 06be a476 ed3c 7963 233e
00000320: 2aad 293e d9cb e8bb 233a 993e 1b0f 83ba
00000330: e539 113e a6bc ac3d 92bc 69be e55d 3f3d
00000340: 2074 523d d6b6 043e 5a9d 373e 19b1 e73d
00000350: 3d13 843d e56e c8bd 7d1c 6cbd 4cb6 55be
00000360: 608b 343e 7f6b 78bd 4199 1ebd dd6d 543d
00000370: e91b 123e 4110 633e 3ad2 1d3c a074 febd
00000380: 3680 bcbc 3352 093e 8147 4d3c c61c 213e
00000390: 2538 483d 49db e2bd 0ac8 3cbe 3af9 33bd
000003a0: 6ba0 1c3c fa1a 8a3d 6f38 5bbe 4dc6 b93d
000003b0: aaf4 483e ecf7 abbe ca6a 5ebe 47cf 053f
000003c0: 8c93 1d3e d7a0 49be bcfd 513e 2f79 463e
000003d0: 2ea1 d33c 5082 eb3d 4e3b 753d 2cc0 ebbe
000003e0: 21ad 8fbd 375e 60bb 36d8 6c3e dbac a1b9
000003f0: ae8c 28be 2002 3b3e 99b7 063e a23c b03c
0.36290666 -0.27766216 0.13575551 -0.05006245 -0.07934548 -0.13645779 -0.18385786 -0.10346782
-0.12473242 0.03433076 -0.017030537 0.073928006 0.022962945 -0.17659529 0.03241141 0.10989625
-0.022067279 -0.20921104 0.020793138 0.008268348 -0.087302424 -0.28650403 -0.28977746 0.32300112
-0.1286181 -0.0914469 0.18488719 0.19035482 0.13957337 -0.07634198 -0.124083415 -0.11440595
-0.0528487 -0.1908744 0.087697886 0.09321483 0.005510028 -0.22663184 0.068281256 -0.0184448
0.22845168 -0.2370005 0.28898823 0.026135668 0.032989357 -0.05876947 -0.21724103 0.008122543
-0.057801746 -0.18274914 -0.008968212 0.089170404 -0.17439337 0.34069487 -0.066922545 -0.3541122
0.20472568 0.08488657 0.14866324 0.016385656 0.029693974 -0.04137473 0.25602862 -0.1592551
0.25506368 -0.24399948 0.21955265 0.20115215 -0.2884683 0.00959681 -0.13169159 -0.0019836174
-0.14345682 -0.12013966 0.19205405 0.2168724 -0.06354323 -0.27366665 0.105784245 -0.07625207
-0.16142684 -0.19464947 -0.06733816 0.08806177 0.1550764 -0.08747077 0.1704085 0.06362881
-0.29237667 0.030953415 0.027726725 0.23447236 0.042608343 -0.26665 0.20620993 0.22483297
0.1276904 -0.10825167 0.43184522 -0.14464264 0.105393924 0.074523106 0.027938636 0.21071817
-0.15368274 0.07825617 0.22253545 0.21591295 0.21503145 -0.107116565 -0.03385095 0.18812443
0.19096892 0.091160506 -0.26739335 -0.21630013 -0.09845754 -0.13520032 0.10188631 -0.21358512
0.25117877 0.056102023 0.31460547 0.091703564 0.101134464 0.068597294 -0.0060537024 -0.023747813
0.11729343 -0.21429989 0.20993899 0.17553617 0.015383085 0.084540695 -0.026004754 -0.029839523
0.097452834 -0.14560829 -0.038555726 0.26923212 0.146128 -0.000796827 -0.16294642 -0.025957705
0.03164023 0.086409666 -0.03557317 -0.101594895 0.086468466 -0.031313322 -0.105403595 -0.22793573
-0.19989502 -0.0798142 -0.026527867 0.17073587 -0.081350826 -0.08954484 -0.048560157 -0.06519508
-0.0131321885 0.055092838 0.08401895 -0.07808399 0.147025 -0.07893581 0.07059815 -0.07692045
0.05792897 -0.03978526 -0.10420567 0.10191221 -0.24920438 0.20402502 -0.07467406 -0.14768726
0.21755047 -0.35713226 0.06872515 0.3099943 0.10577319 0.22493865 -0.11698446 -0.16896781
-0.004673504 -0.20297803 0.0025077062 -0.067335345 0.17277606 -0.043344475 -0.1193919 0.116504714
0.2149664 0.068455465 0.19550715 0.047050428 0.30434188 -0.13126583 0.028987236 0.15955915
0.16569963 -0.0071043787 0.29927167 -0.0009999009 0.14182241 0.08434419 -0.2282584 0.046720404
0.051380277 0.12960371 0.17931119 0.113130756 0.06448982 -0.097867765 -0.057644356 -0.20870322
0.17631292 -0.06064939 -0.038720373 0.051862586 0.1426846 0.22174169 0.009632641 -0.12424588
-0.023010354 0.13410263 0.012529255 0.15733632 0.04888167 -0.110769816 -0.18435684 -0.043938853
0.009559731 0.067434266 -0.21408246 0.09071026 0.19624582 -0.33587587 -0.21720424 0.52269405
0.15388316 -0.19690262 0.20506948 0.19382165 0.025833692 0.114994645 0.05987101 -0.46045053
-0.070154436 -0.0034235844 0.23129353 -0.000308371 -0.16459915 0.1826253 0.13155974 0.021513287

fc1.bias f4 [50]
00000000: ae5d 82bd 0a2e 5fbe 438a a8bd a0b0 8dbd
00000010: 6fc3 043e 4a8d 993e b3d2 e13d fbca 9cbe
00000020: bfb1 a83d b37b c73d 99f9 ab3d 4eba 643b
00000030: 4861 0f3d df33 c2bd fbd9 f53d 1e09 4ebe
00000040: fdc2 32be 4414 023e 5c3c 5a3e 9bb8 bb3c
00000050: b522 f63d cd2b 6fbe 762e d83d d656 313e
00000060: 36a5 823c d52a 073d 3b87 e4bd c8e6 d539
00000070: 00ac 113e 7f27 f3bd 9f7d 3dbd 0268 49bc
00000080: f44c 42be 633e ccbd 8849 5dbe 0d4e 5b3e
00000090: 99a1 fbbc 43c2 1fbe 9f1b 6abe 35bb bebd
000000a0: ca76 753e 6d1b 6c3d 4381 083c 7a10 99bd
000000b0: ecfa ff3c 5edd 5fbc 5a7e c3bd 3747 94bd
000000c0: dd90 0fbc 1c3a a7bd
-0.06365524 -0.21794906 -0.08229496 -0.06918454 0.12965177 0.29990608 0.11026516 -0.30623612
0.082370274 0.09740391 0.08397216 0.0034901085 0.035004884 -0.0948255 0.12004467 -0.20120665
-0.17457195 0.12703043 0.21312088 0.022915175 0.120183386 -0.23356552 0.10555737 0.17318282
0.01594792 0.032999832 -0.11158606 0.0004079847 0.14225769 -0.11872768 -0.04626238 -0.012292864
-0.18974668 -0.09972837 -0.21610081 0.21416493 -0.030716704 -0.15601449 -0.22862099 -0.09313051
0.23971096 0.057643343 0.0083316 -0.07473846 0.031247579 -0.013663618 -0.09545584 -0.07240146
-0.008762565 -0.0816538

fc1_bn.weight f4 [50]
00000000: 1233 923f 1250 8c3f 119f 813f 314c 413f
00000010: 7b8f 933f 427c 803f 1636 9d3f 9c6d 463f
00000020: d818 a23f 1ed3 873f f3a6 4c3f ce57 8a3f
00000030: 542a 7d3f 83a8 923f 9942 7f3f f866 523f
00000040: 3b99 663f 8334 853f 2b0c 843f 85cd 963f
00000050: c2f1 8a3f ca9d 543f 95b7 623f 8876 843f
00000060: c4b5 5f3f 133a b73f cbf1 9d3f 270e 9e3f
00000070: 36f0 923f 576f 963f 14b8 703f 2ed7 653f
00000080: 5873 723f 3371 963f 8f71 8a3f 5432 363f
00000090: c196 853f 0ad0 913f 8df6 863f b5ba 893f
000000a0: 8532 703f f33f ae3f d5a3 9d3f 6d93 873f
000000b0: 4466 393f 7661 ab3f df35 603f d3ee 433f
000000c0: def5 753f 4516 a33f
1.1421835 1.0961936 1.0126668 0.75506884 1.1528162 1.003792 1.2282131 0.77511
1.2663832 1.0611303 0.79942244 1.0808046 0.9889271 1.1457676 0.99710995 0.8218837
0.9007756 1.040665 1.0316213 1.178147 1.0855029 0.83053267 0.88561374 1.0348673
0.8738673 1.4314598 1.2339414 1.2348069 1.1479557 1.1752728 0.9403088 0.89781463
0.9470725 1.1753296 1.0815905 0.71170545 1.0436631 1.1391613 1.0543991 1.0760103
0.93827087 1.3613266 1.2315623 1.0591866 0.7242167 1.3389118 0.875822 0.7653629
0.9607829 1.2741171

fc1_bn.bias f4 [50]
00000000: a133 483d 8350 60bc fb46 c93d db33 8bbc
00000010: e910 a23e c632 893d 40de a13e e40d 63be
00000020: 583e a23d 69a8 7ebe b0c1 493d 720e bb3d
00000030: d4d2 923e 6f92 55be b5d1 7e3c 48b4 383e
00000040: 8614 4ebe 67c3 9c3d 557b f63c 7cde 68be
00000050: 11c5 573e 1339 b53c 9fa4 503e 0ad4 74bc
00000060: f17a 173e 6161 c9bc cac4 d13c 1d43 093e
00000070: e7e6 00bd 165d b3bd 8560 823e 963e 9b3d
00000080: 3633 273d e309 c13d 2071 073e 497f 8f3e
00000090: 6a04 9a3e 587c 13be c592 2b3c 3698 d23e
000000a0: 2110 97ba 5e7d 843d bb62 91bb 2ac4 2e3e
000000b0: 837b ce3d c339 503e dff6 523d 5580 c23b
000000c0: 2ab2 873c 4481 993d
0.048877362 -0.0136910705 0.098279916 -0.0169925 0.31653526 0.066991374 0.31614876 -0.22173268
0.079220474 -0.24868931 0.04925698 0.091336146 0.28676474 -0.20856641 0.015552928 0.18037522
-0.20125017 0.076544575 0.030088106 -0.22741121 0.21071269 0.022121942 0.20375298 -0.014943132
0.14792992 -0.024582567 0.025606532 0.13404508 -0.031470206 -0.08757989 0.25464264 0.07580297
0.040820323 0.09425714 0.13226748 0.28026798 0.30081493 -0.14402902 0.010472004 0.41131753
-0.0011525193 0.064692244 -0.0044368184 0.17067018 0.10082152 0.20334534 0.051504966 0.0059357085
0.016564447 0.074953586

fc1_bn.running_mean f4 [50]
00000000: 6205 f03f 9a86 71c0 4ba0 833f ceee 6bc0
00000010: bafe 0e40 cc5d 15c0 a453 f6bf aaaf 78c0
00000020: ad0c 2ac0 214a 8fc0 ce8d 86bf 0ea2 31c0
00000030: 8242 e23e a580 5ebf 1f3d b2c0 49ea 94bf
00000040: e81d ddbf b685 cbbe b420 5f40 8f6e 11bf
00000050: 6b0c 8040 645b c1c0 9ce0 c13e f631 2840
00000060: f1a2 cf3f 66f9 2040 f9da 3140 d9dd c4c0
00000070: c2b8 0c3e c1ad 96bf 6ee2 0340 2717 5a40
00000080: ffa7 04c0 8f9e 6fbd 77e3 8cc0 ddde 81bf
00000090: 9ee0 9540 1cdf 2fc0 582c acc0 9a9b 833f
000000a0: 52d0 fc3f dd8e a1c0 b8e7 e7bf e735 833e
000000b0: bfde 1e40 3c71 9cbf 0338 99bf 63e2 df3f
000000c0: d2b9 1dc0 b578 07c0
1.8751643 -3.7738404 1.0283293 -3.6864505 2.2342973 -2.33385 -1.9244275 -3.8857217
-2.6570237 -4.477799 -1.0512025 -2.775516 0.44191366 -0.86915046 -5.569961 -1.1633998
-1.7274752 -0.3975045 3.486371 -0.56809324 4.001516 -6.042406 0.37866676 2.6280494
1.6221601 2.515222 2.77899 -6.152081 0.13742355 -1.1771775 2.0606952 3.407663
-2.0727537 -0.058500823 -4.4027667 -1.0146137 4.683669 -2.7479925 -5.380413 1.0281861
1.9751074 -5.0486894 -1.811759 0.25627062 2.4823453 -1.2222056 -1.1970218 1.7490963
-2.4644666 -2.1167424

fc1_bn.running_var f4 [50]
00000000: 3afb d33f e27b 2940 faa1 5540 646d 0441
00000010: 532e c740 e3d4 6a40 339c 6f40 cb28 bd40
00000020: f25f ff40 96b8 7a40 30b0 bf40 5b2a 2141
00000030: 66ec 6d40 3e4f c640 c550 5641 1e11 5040
00000040: 1283 4440 aab8 e540 759e 9a40 e0fe 5940
00000050: d68a 6340 1964 7040 a985 7940 d7fd e640
00000060: d5d1 ec40 c529 9240 4b34 9541 704d 3041
00000070: 446c 1740 b3f1 2f40 63da 4040 91bd 3d40
00000080: 0e4d a340 893d be40 9053 a940 89fc f540
00000090: c051 ad40 6d91 9140 4d13 1640 aa3d 1441
000000a0: 7909 d13f 788d 6c40 3074 b840 5f71 a640
000000b0: 1174 4340 de70 a440 16dc 0740 4bac 9740
000000c0: 70a8 2c40 1e40 9040
1.6561043 2.6481862 3.3380113 8.276707 6.224405 3.6692436 3.7439086 5.9112296
7.980462 3.9175162 5.9902573 10.072841 3.7175536 6.197173 13.394719 3.2510448
3.0705 7.178792 4.831843 3.4061813 3.5553489 3.7561095 3.898783 7.2184863
7.4006143 4.567599 18.650534 11.018906 2.365983 2.7491271 3.0133293 2.9646952
5.103156 5.9450116 5.2914505 7.687077 5.4162292 4.549002 2.344928 9.265055
1.6331016 3.6961346 5.764183 5.2013392 3.0539591 5.1387777 2.122808 4.739782
2.6977806 4.507827

fc2.weight f4 [10, 50]
00000000: cb4c 4dbe ebca 4dbe bc05 86be 7bf0 bcbe
00000010: 5d85 53be 1314 b8bc b3f3 a9be d698 2bbd
00000020: ad7e a33e 43a0 eb3d 8414 d1bd c88a 2abe
00000030: 1d6f b33e 906f edbe c3a4 70bb a0e1 01be
00000040: 69f6 603d 3309 4cbe f89b 7c3e bd93 013e
00000050: da18 08be 4c9e 27be 82b5 bfbe e467 b2bd
00000060: 8ef2 1a3e 9b7c 30ba ace2 ff3e 9ce9 2a3f
00000070: 3eea 84bc dd78 cfbe 6473 6dbe da4d 9cbd
00000080: 61e3 893d 752d 8d3c 0709 69be 805b 07be
00000090: c8b4 573e 3d3e 553e ec33 41bd f8e0 f9be
000000a0: d621 6b3d 56e7 91bd 6844 e3be 3ccb 06be
000000b0: ddc8 eabd 4c56 2dbe 1c4b 953e 7c99 743e
000000c0: 3be4 473e 5e10 473f 7557 1ebe db32 893e
000000d0: 3a6a b13e 5933 e53e 92f8 6bbe cfbe e7bd
000000e0: eb00 aabe 2fb9 c83d 60f8 f3be 023a d03e
000000f0: f208 cfbb 6ae5 dc3b 5fbf b8bd 1176 acbd
00000100: c539 f4bd 0fed 1bbe 64a7 463e d917 c4be
00000110: d5ad 333e 7819 143f 9049 35be b1a8 153e
00000120: ba32 763e ded0 e6be c7ab 12bf a290 dabd
00000130: 4ee0 7bbe 4597 5ebe 5d1c f0bd e2ac 86be
00000140: a36f 4bbe caca e4be c9cd 0b3e acde 393f
00000150: 006b ad3d 6388 ddbe 1101 61be f42c 263f
00000160: 8c5c 40bd 2a8a 823d cb1a 0abf e318 10be
00000170: 2614 6abc a176 b73b 4b36 3c3d 41fb 5cbe
00000180: a3bc c03c 8bd0 833d e309 693e 1bee 8abe
00000190: d01d cd3d b196 d1bd c8c9 23bf d838 5cbe
000001a0: d70f 59bd bb45 973d c7b0 92be 83ab b03e
000001b0: 8c3c 20be 184d a73e 35ac 1bbe 1c8f 61be
000001c0: 5b6f 513e e318 bd3e 3da2 c3bc 6dda 7bbe
000001d0: 5178 353d b001 50be 8b3e 0e3f b6a9 cc3e
000001e0: 6d13 1dbe 965b 32be 526f a7be a18e b1bb
000001f0: 73a3 9b3e 7b97 433f 3a3e 22bc ab03 05bf
00000200: 4acd 923d 57ee 8b3e 4af4 523d 1071 41bd
00000210: 0b40 aabe 6ed4 4d3e ca84 fcbd 3e68 013f
00000220: c783 99be 52fc febc 9827 08be 9d78 e93e
00000230: 71df 87be 891c 873d bbdc 853c 8ee4 433e
00000240: 4bda 053e f55e 03be e432 283e a2d0 b3be
00000250: a2b1 bebd 9c1b 3fbe 7452 90be 8e94 903e
00000260: f953 9abe e2ce 77be 8dd5 a73e 4288 e5be
00000270: 573e 7bbe 09de 9bbe 85b8 383d ffe0 063e
00000280: f40f aebd cf26 8d3e 09a2 753e 687f fabd
00000290: 4ffd aa3e 3ce6 ccbe 851e 873e e267 523d
000002a0: a627 813d 20e8 ec3d db6a 44be 9a2e 57be
000002b0: 462d 8f3e 4926 66be 2140 85bd f08c f9bd
000002c0: c98b 83be bc69 83be 15d8 093c 9bfd 84bd
000002d0: 8043 223f 0229 bdbe ae0c d1bd b883 4b3e
000002e0: 7ea3 d1bc 11f9 223c b1c1 a33e f5c9 e7be
000002f0: c295 6dbe a3e4 a73e be36 82bd c05d 583d
00000300: dd8e fabd 19e4 023f 0083 e5bc 0cc9 6cbe
00000310: 17be 77be 7f16 afbd 2582 33be 3e8d 943a
00000320: 8df3 8c3e 4a6d cbbd b52e aebe d4ea 56be
00000330: b3e2 83be 7722 523d ee9d 0a3f 2860 ae3e
00000340: 7b46 d8be f4ce 4dbe 1cb0 0f3f 432b 01be
00000350: cc14 4cbe 0bc9 99be a531 2dbe 781c 57bd
00000360: 30cc 0cbd 6a13 703e 2270 3e3e ed0e da3d
00000370: ce0b 9d3c 4c6b f5bd 4f01 773e 9259 5f3c
00000380: 37fd fbbc afa7 42bc 4cff 5d3e 93e4 77be
00000390: db5d 8fbe 5a52 e6bd 5952 793e ce0a 2fbe
000003a0: 7675 343c d0cb bb3e 3318 513f 9885 9b3e
000003b0: ff9b e8be 7152 ccbb d9e4 80be 0a3c bbbe
000003c0: e9aa 0b3e fba1 84be d0e6 1fbe 25fc 0ebe
000003d0: 2504 85be 7d88 023f b301 29be 45bc 8e3d
000003e0: b469 db3c 9f7e cbbe 49dd 73bc 722c bd3d
000003f0: 673e 89be e92e 6abe 11a7 d83d f82f f0bc
-0.20048825 -0.20096938 -0.2617625 -0.36902222 -0.20656343 -0.02247051 -0.3319374 -0.041893803
0.31932583 0.11505177 -0.10208991 -0.16654503 0.3504571 -0.46374178 -0.00367193 -0.12683725
0.054922495 -0.19925384 0.24668872 0.12654014 -0.1329073 -0.16368979 -0.37443167 -0.08711222
0.1513159 -0.0006732435 0.49977624 0.6676271 -0.016224977 -0.405219 -0.2318855 -0.076320365
0.06732822 0.01723359 -0.2275735 -0.13218498 0.21065056 0.20824523 -0.047168657 -0.4880445
0.057405315 -0.07124202 -0.44388127 -0.13163465 -0.11464093 -0.16927451 0.29158866 0.23886675
0.19520657 0.7775935 -0.1546305 0.26796612 0.34651357 0.44765738 -0.23044041 -0.11315691
-0.33203825 0.09800946 -0.47650433 0.40669256 -0.006318205 0.0067412155 -0.09020876 -0.08420957
-0.11925081 -0.1522715 0.19399792 -0.38299444 0.1754678 0.5785136 -0.17703843 0.14615132
0.24042788 -0.45081228 -0.5729336 -0.10672118 -0.24597284 -0.21737392 -0.1172416 -0.26303774
-0.19866805 -0.44685966 0.1365272 0.72605395 0.08467674 -0.43268117 -0.21973063 0.64912343
-0.04696326 0.06374009 -0.5394713 -0.14071994 -0.01428703 0.0055988585 0.045950215 -0.21580221
0.023527449 0.06436261 0.22757678 -0.27134785 0.10015452 -0.1023382 -0.6397977 -0.21506059
-0.05299362 0.07386347 -0.28650495 0.34505853 -0.15648097 0.32676005 -0.1520241 -0.22027248
0.20452635 0.3693305 -0.023881072 -0.24595042 0.044304196 -0.20313144 0.55564183 0.3997323
-0.15339442 -0.1741775 -0.32702118 -0.005418614 0.3039814 0.76403016 -0.009902531 -0.5195872
0.07168062 0.27330276 0.051502503 -0.047226965 -0.33251986 0.20100567 -0.12330015 0.50549686
-0.2998335 -0.031126175 -0.13296354 0.45599833 -0.2653766 0.065972395 0.016340604 0.19130155
0.13071553 -0.12829192 0.16425663 -0.35120112 -0.093112245 -0.18662876 -0.28187907 0.28238338
-0.3014219 -0.24200013 0.32780114 -0.4483052 -0.245355 -0.30442837 0.045097847 0.13171767
-0.084991366 0.2756867 0.23987593 -0.12231332 0.33396384 -0.40019405 0.26390472 0.0513686
0.063063905 0.11567712 -0.19181387 -0.21013871 0.27964228 -0.22475542 -0.06506372 -0.12185085
-0.25692585 -0.25666606 0.008413334 -0.06493684 0.63384247 -0.3694535 -0.102074966 0.19874465
-0.025590654 0.009947077 0.31983712 -0.45271268 -0.2320166 0.32791623 -0.063580975 0.052823782
-0.1223428 0.511293 -0.028016567 -0.23123568 -0.24193607 -0.08549213 -0.17530115 0.0011333597
0.27529564 -0.099329546 -0.3402001 -0.20988017 -0.25758895 0.0513024 0.5414723 0.34057736
-0.42241272 -0.20098478 0.56128097 -0.1261416 -0.19929808 -0.30036196 -0.16913469 -0.052517384
-0.034374416 0.23444906 0.18597463 0.10647378 0.019170668 -0.11983356 0.24121593 0.013632195
-0.03076039 -0.011880799 0.2167942 -0.24208288 -0.28001294 -0.11246176 0.2434782 -0.17093965
0.011014333 0.36678934 0.8167755 0.3037536 -0.45431516 -0.0062354137 -0.25174597 -0.36569244
0.13639416 -0.2590483 -0.15615392 -0.13963373 -0.25979725 0.50989515 -0.16504554 0.06969503
0.026783802 -0.39745042 -0.014884301 0.09236993 -0.26805422 -0.22869457 0.105787404 -0.029319748

fc2.bias f4 [10]
00000000: 0351 853d 5792 42be 0a61 40be 3caa 123e
00000010: bce2 8dbc 7969 90bd 2a8a d3bd b315 8cbb
00000020: 6fb9 95bd a927 b03d
0.065095924 -0.19001137 -0.18787017 0.14322752 -0.01732003 -0.07051367 -0.10329087 -0.0042750477
-0.07310759 0.086013146
