es-rl/experiments/checkpoints/E001-MNIST_none/190107-183714.564369|sNES|MNIST|MNISTNet/state-dict-best-model.pkl (torch_old, 91552 bytes, 20 tensors)

conv1.weight f4 [10, 1, 5, 5]
00000000: 33ef c2bc 4121 183d 95ef 08bd 9237 6f3c
00000010: f532 4b3d f753 c2bd de9a b13c 4bbf 07bd
00000020: 78f6 84bc 7f40 233d b485 213e 30aa 1abd
00000030: de44 21bc 19e4 15bd 4e70 e93d 52c1 06be
00000040: 72f6 e63b 2609 353d f0af c93d 9473 3e3e
00000050: 496c 173e 4ad7 8cbd 236f 533d 3eac 733d
00000060: d5c2 38bc 625d c0bc ccfc b8bd edd3 4d3c
00000070: fbde 06bd e919 46be 4f6f 76bd eb88 8cbc
00000080: 9060 2dbd 46ae 193e c1ad 6b3d 5214 8abb
00000090: 895a 3bbe 72ab 82bd 2683 20bd b5ca ff3d
000000a0: dc6d 83bd 10c0 fabd de1f 1fbd d58e b1bd
000000b0: c06d ab3d 62c2 dd3d 449c 33be 5f05 bc3a
000000c0: 87fe a23c 5f57 223e 7541 26bb da6b d23d
000000d0: 1490 733d c077 143d 01b4 51bc 5b6a 4c3c
000000e0: 0982 993d fc60 d23d b77f 8a3d 4297 ac3b
000000f0: 3be2 0abd 46d3 26be 2f57 59bd c095 ff3d
00000100: 711a d0bc 60b9 a13c 4bab 8a3d 51a0 70bd
00000110: 21b6 99bd 65c1 783d cf75 76bd 27ce a7bb
00000120: a68e 61bd c13a b83d b647 efbc 60f4 e13c
00000130: e442 40bd f78b dd3c cacb 443d 9659 35bc
00000140: 0a71 0ebd aea8 14bc 7d8a 7abb 8c54 f6bc
00000150: 1d5f 783d 0c16 35bd f719 cf3d 8d89 aa3b
00000160: da15 ad3d 41af 12bc 8660 923d d32a 45bd
00000170: 2f4f d83d a9b5 2b3d 81d8 0abd 15d7 703d
00000180: 9b82 f53b a022 243c 5b99 9bbc 6ad9 a03d
00000190: fa7e 363c 6b31 6abd e62b 213e 41c6 ef3d
000001a0: 9614 00bc 5ac4 c0bd d2c2 afbd 961c bf3c
000001b0: 464f 18be b9e8 c03d 51fd 1b3d 48d6 0dbe
000001c0: 31b2 5e3c 2617 acbc a778 e23c dde1 13bc
000001d0: c084 e83d 4118 bebd bf81 3e3d 5bc5 d7bc
000001e0: 3350 103d 84a6 a63d 2301 973c adf7 cb3b
000001f0: 343b 893c 2a1a 373d 7211 233e 09f6 ddbc
00000200: 7751 46bd 24e3 1ebc 1b88 843d bfe3 b03c
00000210: b242 bd3c 6947 bcbc d5ea 213c 6c6f 86bd
00000220: 4076 a23d 524a 24bd 2e9a 463c c9ef 9abd
00000230: 1629 0c3c b631 983b f918 0a3d 8488 813b
00000240: 38da cb3d ebac 223d 25aa 803e 1e26 da3c
00000250: 9edf 343c 8d5a cbbb 6647 2bbc 63df db3d
00000260: c3b0 cc3d 3239 38bd 5b78 093d 3e23 6c3d
00000270: b626 493d b944 a13d c3cd 123b 8349 a03c
00000280: 3dc3 bf3d 54ea 953d ddee 833d 81d1 a23d
00000290: 7b6c 903d 4a21 ff3b c2ec 4d3d 92e7 d4bd
000002a0: 8f22 afbd 80e0 4ebd 9e9b 593d ec4a 403d
000002b0: b2fa 043e 3430 673d 5bde 513d 8b79 8fbd
000002c0: 4038 6fbd cccf e9bd a749 da3c 1285 ebbb
000002d0: 0efe c4bd 2a29 49bd 59d1 65bd 5ffb 1d3e
000002e0: 402b b5bd cafc 85bd 3f08 b5bd 06a9 643d
000002f0: a916 0cbe b001 493e b356 56bd dd27 febd
00000300: 6f64 cd3d 23b6 3cbc c485 b4b9 36e9 0cbd
00000310: 3c01 5d3c 06e8 c8bd 598f 9c3d 6d39 05be
00000320: 4dc2 4ebd e90e 4d3c be8a 993d 9ff9 b5bd
00000330: e516 1abe db79 32bd 9879 26bd 0005 073e
00000340: cda7 243d ed35 a2bc 0d4c 2cbe 30e0 363d
00000350: 468f 10be 8bed e83c d032 2d3e db5a 2c3d
00000360: d0db 333d 5b2d 3c3d d298 ebbd 9575 38bd
00000370: 1e8c 823d 6bd8 7cba 216c df3b bb8a c13d
00000380: d22f 073e 3346 3e3d 530d c6bc fbad d0bd
00000390: 49cc c7bd cbb5 993d b8f4 81bc efbe 2cbd
000003a0: e8bb 043d bfea 103e 71f9 b5bd 5942 93bd
000003b0: 5dba a0bd ee08 e03c 534d 04be e13f 183d
000003c0: 34e8 aa3a 8fa3 23bd 973f 1f3d 0a86 1cbb
000003d0: 6b49 3ebe 546e 563d e066 bc3c e8ff 1b3e
000003e0: 2155 f5bc 995a aa3d
-0.0237957 0.03714109 -0.03343161 0.014600651 0.049609143 -0.09488671 0.021680292 -0.033141416
-0.016230807 0.03985643 0.1577366 -0.03775996 -0.009843079 -0.036594484 0.113983735 -0.13159683
0.0070484215 0.044198178 0.098480105 0.18598777 0.14787401 -0.06877001 0.05161966 0.059490435
-0.01127692 -0.023482028 -0.09032592 0.012562734 -0.032927494 -0.19345821 -0.060164746 -0.017155131
-0.042328417 0.15007886 0.05753875 -0.004213848 -0.18296255 -0.06380357 -0.039187573 0.12489835
-0.064174384 -0.12243664 -0.03884875 -0.08669821 0.083705425 0.10828091 -0.1754008 0.0014344862
0.019896759 0.15853642 -0.0025368605 0.10274477 0.059463575 0.036247015 -0.012799264 0.012476529
0.07495505 0.102724046 0.06762641 0.005267055 -0.033907156 -0.16291532 -0.05306166 0.124797344
-0.025403233 0.019741714 0.06770953 -0.05874664 -0.075054415 0.06073131 -0.060170945 -0.005121011
-0.05506768 0.089955814 -0.029209 0.027582347 -0.046938792 0.02704428 0.04804591 -0.011068722
-0.03477577 -0.0090734195 -0.0038229518 -0.030069612 0.060637582 -0.04421048 0.10112374 0.0052043856
0.084514335 -0.008952917 0.07147317 -0.048136543 0.10561978 0.04192129 -0.03389788 0.05879887
0.007492376 0.010018021 -0.018994024 0.078539684 0.011138672 -0.057176035 0.15739402 0.11707736
-0.007817408 -0.09412451 -0.08582081 0.02332906 -0.1487399 0.09419388 0.03808338 -0.13851273
0.013592289 -0.021007132 0.027645422 -0.009026018 0.11353445 -0.0928197 0.046510454 -0.026339224
0.035232734 0.08137229 0.01843316 0.0062245936 0.016751863 0.044702686 0.15924624 -0.027094858
-0.048417535 -0.009697709 0.064712726 0.021592973 0.023103092 -0.02298327 0.0098826485 -0.06564221
0.07932711 -0.04010994 0.01212172 -0.07565267 0.0085547175 0.004644598 0.033715222 0.0039530415
0.09953731 0.03971569 0.2512981 0.026629504 0.011039643 -0.006205863 -0.010454034 0.10735967
0.09994652 -0.04497642 0.033562046 0.057650797 0.049109183 0.07874436 0.0022400476 0.019566303
0.093634106 0.07320085 0.06442044 0.07950116 0.07051941 0.007785951 0.050274618 -0.10395731
-0.085515134 -0.05050707 0.053126924 0.04694645 0.12986258 0.056442454 0.051237445 -0.07005604
-0.058403254 -0.11416587 0.026646448 -0.007187494 -0.096187696 -0.049111523 -0.056107853 0.15427922
-0.0884614 -0.06542356 -0.088394634 0.055825256 -0.13680519 0.1962955 -0.052328777 -0.12409947
0.10028922 -0.011518034 -0.0003443194 -0.034402095 0.013489064 -0.0980988 0.07644529 -0.13010187
-0.05047827 0.012515762 0.07497166 -0.08885502 -0.15047796 -0.04357324 -0.040643305 0.13185501
0.04019909 -0.019801104 -0.16825886 0.044647396 -0.14117154 0.028433582 0.16913915 0.042078834
0.0439108 0.04594169 -0.115037575 -0.04503401 0.063743815 -0.0009645286 0.00681831 0.09450289
0.13201836 0.046453666 -0.024176275 -0.10189434 -0.09755761 0.075053774 -0.015863761 -0.042174276
0.032405764 0.14152049 -0.08885468 -0.07190389 -0.07848046 0.027348008 -0.12920122 0.037170295
0.0013039173 -0.039950904 0.038879003 -0.0023883604 -0.18582694 0.05235131 0.022998273 0.15234339
-0.02994782 0.083180614

conv1.bias f4 [10]
00000000: 11aa aa3b a1d4 2fbc 260c 1fbb 8b72 7e3c
00000010: 6388 01bb a922 a9bb 99f8 d6ba 1102 08ba
00000020: f623 00ba 6e7d d3ba
0.005208262 -0.010731847 -0.0024268716 0.015530239 -0.001976513 -0.0051616025 -0.0016400992 -0.0005188296
-0.0004888171 -0.0016135403

conv1_bn.weight f4 [10]
00000000: 62bb 743f fed7 753f 86af 703f 2279 753f
00000010: 3381 743f ff74 743f 8e28 743f 6169 793f
00000020: 7847 733f de80 743f
0.95598423 0.960327 0.9401783 0.9588796 0.9550964 0.9549102 0.9537438 0.9742642
0.9503093 0.95509136

conv1_bn.bias f4 [10]
00000000: 0031 6cbc 4cb3 6b3b f390 b5bb 5e4f 68bb
00000010: 61cf 163c a5e7 51bc 0bb1 953c f627 89bb
00000020: 82ea 64bc 7394 44bc
-0.014415979 0.0035965024 -0.005540961 -0.0035447697 0.009204716 -0.012811576 0.018272897 -0.004185672
-0.013971927 -0.011998284

conv1_bn.running_mean f4 [10]
00000000: b784 423d fa66 3cbd 9d4f 4d3c 41a3 443d
00000010: b14e d03b 4656 1f3d 8657 863d 6ebd 3ebd
00000020: eb50 0d3c a039 5ebc
0.047489848 -0.045996644 0.012531188 0.048007254 0.006357037 0.038900636 0.065596625 -0.046567373
0.008625249 -0.013563544

conv1_bn.running_var f4 [10]
00000000: e502 743e 6887 de3e 7454 bf3d 45da e33d
00000010: 09ac 813d 63ce 693e c094 df3e 7c19 a03e
00000020: cab7 ca3d 5e37 a93d
0.23829229 0.43462682 0.0934228 0.11125616 0.06331641 0.22832637 0.43668175 0.31269443
0.09898336 0.082625136

conv2.weight f4 [20, 10, 5, 5]
00000000: 76d4 803c 1cfb f9bd 870f f03a e8b4 293d
00000010: 0a88 94bc 8b56 e2bc efd4 8f3d a95a 1bbb
00000020: a67d 14bd 01d5 893b d6f8 ac3d db9a d8bd
00000030: ca37 8dbd 53bd b0bc 390a c13d 1661 eebc
00000040: 10f8 a3bd ba48 57bc e888 51bc 10a1 bfbc
00000050: d4f8 b03d 5d02 f43c 8ff3 eabc 0dea c5bb
00000060: 65b6 4cbd c3f5 62bd 8152 a8bd e9c6 a8bc
00000070: 2db4 cb3b 5df9 2a3c 5204 733d 83d8 6d3c
00000080: a6c4 773d 33bc 91bd bad6 aaba a0b9 c13d
00000090: b35d 113d 54fd 0abc 18da 79bd f6ec 0e3d
000000a0: 2d6e c83d 2658 adbc b514 13bd fcf1 ed3c
000000b0: d45b cbbb 98a8 533c 2b2e 52bc 2ae1 8bba
000000c0: acc9 67bd 7e83 aaba 7064 cebc 239a dcbb
000000d0: d29f 8a3d 1d09 5fbd 398a b03d 0d0a 31bd
000000e0: 43a2 65bc 83d9 9a3d 7abe ae3b b170 bbbc
000000f0: ad3f ca3c df53 22bc f456 fcbd 5a84 473d
00000100: 96a0 99bc b095 2fbc 5b47 babc cdc3 09bd
00000110: 65a1 c3bd 406c 6d3d 6bce 7db9 ba10 103d
00000120: 3b19 26bc 0e2f 9d3c 8063 133d 2dea 1ebd
00000130: e53e a9bc e812 bfbd 5755 83bd 3ab1 0abd
00000140: 8a37 14bd 2f33 323d 3d98 b43b a254 d6bc
00000150: 0cb2 2bba fa7a 043b 67f1 f23b c9fd 49bd
00000160: 2f8b 583d 0ab5 823c 8f1e 763c 5759 c43c
00000170: 69c6 853c 6c87 8a3d af47 e1bc f890 d53d
00000180: 149d 24bd f012 ba3d 8985 383d d863 fcbc
00000190: a012 a63c 983a a03d 8cc0 603d 4868 cfbc
000001a0: 66fe 7fbc 4a8f ba3d 610b 6dbd 3d99 243d
000001b0: a0fe a33d a302 953d 99f5 dc3b d79b 06be
000001c0: e918 48bd 2197 1dbd af90 90bc 5ef5 c8bc
000001d0: 18c1 83bd 2a8e 9a3b c418 ba3c 13cf 5ebd
000001e0: 5ce1 9dbc 05cc 5abc add1 713c 404a bc3d
000001f0: 0ba3 78bd c7ad 6abd 185a f93c 6e66 ce3c
00000200: de87 30bd 111a 4ebd 9454 7ebc 5952 62bc
00000210: 7400 e0bb 5550 efbd 6a7c 09bd 6be6 a03d
00000220: f5c8 77bc 35bc a63c 059d 9cbd a919 3b3d
00000230: e375 3ebd 0727 c43d bb37 ba3b 7fa7 883d
00000240: 2221 c5bd 875c f4bc 07d7 1dbc a3a4 43bd
00000250: e3a5 7fbd 1d62 06bd 12cb 5cbc 04b6 23bd
00000260: e10e 7cbd 4e26 cfbd 1cc4 c0bc 72d0 033e
00000270: b340 4b3d e302 193d 0c80 0bbd 65d4 c5bd
00000280: 5c3f d73b bf57 cb3c efd9 9cbd f215 1f3d
00000290: 2823 99bb daf8 ffbc 3f06 363d 3857 2fbc
000002a0: 9e9b 123d 4829 18bc 1206 8a3d d2b3 1ebd
000002b0: 5bff fd3c d253 1c3c 2e81 3a3d afe6 cbbc
000002c0: 670d 9e3c fa10 1b3c 696d bfbc 4f25 aabc
000002d0: ab96 03bd 47f6 2e3b a37c 36bd 2525 62bd
000002e0: e404 7c3c 0498 843d 6fdf a0bc 3c69 b8bc
000002f0: 587a 353d b905 be3d 135d b13c 73e0 9fbc
00000300: 5101 a23d 45ab f9bb 7c97 cf3c f0c6 cfbc
00000310: a013 353d 1037 553d 1f47 bcbb ff47 273d
00000320: b211 673c 16b2 7e3d 2f08 8fbb 8e88 b5bd
00000330: 7c0a 673c 2251 01bc b87f 38bd 379d 44bd
00000340: 58f7 34bd 67ab 0dbd 09bb bb3c 1c16 b0bd
00000350: 093b 33bc cf67 b8bc 53ed 97bd 2563 333a
00000360: 5db3 6ebc 3666 04be 30bb 9dbd 2bfb 84bd
00000370: 0f65 e13c c820 d9bc 8acd 0b3e e7b7 523d
00000380: bb66 af3c 7f7d 883d 64ff d1bc aa13 33bc
00000390: fe1a 22bd 6203 06bc 72ba 03be a458 e9bb
000003a0: 55b1 3d3d 8fb8 c9ba 363b 2cbc 2abe 003d
000003b0: 63df 02bc acaf 583d cb74 a6b9 57ef fa3c
000003c0: c6ef 4c3d 22ba 93bd e4eb 69bd 2ec3 e4bc
000003d0: f156 913d d0dd aabd 1594 24be 2aa7 1fbc
000003e0: 3ddd 383d 8a6e 383c 6b1b df3d 1f82 ccbd
000003f0: 483b 58bd ac69 79bd 0d16 883d 4865 44bd
0.01572631 -0.122060984 0.0018315174 0.04143229 -0.018131275 -0.027629158 0.07023036 -0.002370516
-0.03625264 0.0042063002 0.08445899 -0.10576411 -0.068954065 -0.021574652 0.09425778 -0.029099029
-0.080062985 -0.013139898 -0.012788989 -0.02339223 0.0864121 0.029786283 -0.02868059 -0.006039864
-0.049978632 -0.055410158 -0.08218861 -0.02060266 0.006216547 0.010435429 0.059330292 0.014516952
0.060490273 -0.07115974 -0.0013033964 0.09459233 0.03548975 -0.00848325 -0.060999006 0.034893952
0.09786639 -0.021160197 -0.03590842 0.029046051 -0.006206015 0.012918614 -0.01282839 -0.0010671963
-0.056588814 -0.0013009158 -0.025194377 -0.0067322417 0.067687646 -0.05445205 0.08620114 -0.043222476
-0.014015737 0.07561018 0.005332765 -0.022880884 0.024688566 -0.009907692 -0.123212725 0.048710205
-0.018753331 -0.010716841 -0.022739103 -0.033633996 -0.09552268 0.057964563 -0.00024204857 0.0351722
-0.010137851 0.019187476 0.035983562 -0.038797546 -0.020659873 -0.09329778 -0.06412762 -0.033860423
-0.03618578 0.043505844 0.0055113123 -0.026163403 -0.00065496634 0.0020214901 0.0074140313 -0.049314294
0.05286711 0.015955467 0.015021934 0.023968382 0.01632996 0.06764111 -0.027500002 0.10428041
-0.040188864 0.09085643 0.045049224 -0.030809328 0.020272553 0.07823676 0.054871127 -0.02531828
-0.015624618 0.091093615 -0.05787218 0.040185202 0.0800755 0.072758935 0.0067431447 -0.13145386
-0.04885188 -0.038474206 -0.017647116 -0.024531063 -0.06433314 0.0047166543 0.022716887 -0.0543967
-0.019272499 -0.013354306 0.014759463 0.091938496 -0.060702365 -0.057294633 0.030438468 0.025195327
-0.043098323 -0.050317828 -0.015523095 -0.0138135785 -0.0068359915 -0.11685244 -0.033565916 0.07856449
-0.0151235955 0.020353416 -0.076471366 0.04567877 -0.046499144 0.095777564 0.005682913 0.06672572
-0.0962546 -0.029829277 -0.009633786 -0.04776443 -0.06241406 -0.032808412 -0.01347615 -0.039968506
-0.061537627 -0.10114728 -0.023531012 0.12872484 0.04962225 0.03735627 -0.034057662 -0.09659652
0.0065688323 0.024822114 -0.07658755 0.038839288 -0.0046733804 -0.031246591 0.04443955 -0.010701947
0.03579294 -0.009287186 0.06739439 -0.03874571 0.031005552 0.009541469 0.04553335 -0.024890272
0.0192935 0.009464497 -0.0233676 -0.020769743 -0.03212611 0.0026697086 -0.044552457 -0.055211205
0.015382025 0.06474307 -0.019637791 -0.022511117 0.04430613 0.09278435 0.021650827 -0.019516205
0.07910407 -0.007619294 0.025340788 -0.025363415 0.04420817 0.052054465 -0.005745783 0.040840145
0.01410334 0.062181555 -0.004364989 -0.08863936 0.014101621 -0.007892879 -0.045043677 -0.048001494
-0.044181198 -0.03458729 0.022916334 -0.08597967 -0.010939368 -0.022510437 -0.07418313 0.0006843082
-0.014569131 -0.12929615 -0.07701719 -0.06493219 0.027514009 -0.02650489 0.13652626 0.051444914
0.02141129 0.066645615 -0.025634475 -0.010929981 -0.039576523 -0.008179517 -0.12864092 -0.0071211625
0.046311695 -0.0015390086 -0.010512164 0.031431355 -0.00798783 0.05290191 -0.00031749005 0.030631704
0.050033353 -0.072132364 -0.05710973 -0.0279251 0.07096661 -0.083430886 -0.16072114 -0.009744445
0.045132864 0.011256823 0.108939014 -0.09985756 -0.05279091 -0.060891792 0.06644831 -0.04794815

conv2.bias f4 [20]
00000000: 11f0 a83c 214d c3bb d1ea 353c 1bc6 c2bb
00000010: 0c3b c23b 4572 9b3b 395a 043c cbea 9c3b
00000020: 2dd0 2dbb 7a86 15bc 4fab 533c 3ca0 5fbb
00000030: 06b2 02bc 50d8 1b39 b08c 2fba 7383 18bc
00000040: 91a9 713a cb8a 943b 0437 033c 975e 9dbc
0.020622285 -0.005960122 0.011103348 -0.005944026 0.005927449 0.0047438466 0.008078151 0.0047887317
-0.0026521788 -0.0091263 0.012919261 -0.0034122607 -0.007977014 0.00014862535 -0.0006696684 -0.009308684
0.0009218688 0.004533147 0.008008722 -0.019210143

conv2_bn.weight f4 [20]
00000000: cba0 743f 8490 723f ad66 793f 7374 763f
00000010: d204 733f 7dc4 743f e028 743f d1fe 6f3f
00000020: 67ec 753f 4bf4 753f b82f 753f da5d 753f
00000030: c5f2 723f 488a 733f f365 753f 3519 703f
00000040: b943 783f d9bf 743f c74e 743f f849 723f
0.9555785 0.94751763 0.97422296 0.9627144 0.9492923 0.9561232 0.9537487 0.93748194
0.96063846 0.96075886 0.9577594 0.9584633 0.94901687 0.95132875 0.9585869 0.9378846
0.96978337 0.95605236 0.95432705 0.9464412

conv2_bn.bias f4 [20]
00000000: 6ad0 5bbc d841 fdba 542a a43b fdea cbbb
00000010: d325 e9ba 7c8d 97b8 364a 38bc 160e 903b
00000020: c4c9 843c e4c6 26bb 27b8 503c b4cb 95ba
00000030: d985 98ba d568 1a3c 796e 84ba 1132 773c
00000040: 2a56 36bc e964 433b a281 5c3b c8ff 75bc
-0.013416389 -0.0019321991 0.0050099287 -0.006223081 -0.0017787762 -7.2265946e-05 -0.011248162 0.0043962104
0.01620949 -0.0025448138 0.012739218 -0.0011428506 -0.0011636569 0.009424408 -0.0010103724 0.01508762
-0.011128942 0.0029814786 0.0033646603 -0.015014596

conv2_bn.running_mean f4 [20]
00000000: 7f2a 84bf a6f1 e73e 48df b73e ae17 a83e
00000010: 82c6 4abf 020a 573f 28b8 99bd 9efa f63e
00000020: 6908 9e3e d05a 7ebd 9a0a a73e f604 7dbf
00000030: 3005 8fbe ab3e 4dbe 9655 aa3e cfbc 963e
00000040: 88e8 f23e bcb3 dcbf 2f9a a23d f949 153f
-1.0325469 0.4530155 0.35912538 0.32830566 -0.7920915 0.83999646 -0.07505828 0.4823808
0.3086579 -0.062098324 0.32625276 -0.98835695 -0.27933645 -0.20043437 0.33268422 0.29440925
0.47443032 -1.724235 0.079395644 0.58316

conv2_bn.running_var f4 [20]
00000000: c461 6f3f e5a1 243f 5909 d93e 457b ec3e
00000010: b9c8 043f 31c0 be3e e9e1 173f 2e23 3a3f
00000020: 9e8c df3e a5f7 033f 6f34 e23e 478a 273f
00000030: 01df 273f 406b ee3e c125 2e3f 99b9 973e
00000040: e78c e13e c576 1d3f a2c3 153f 0b1b 393f
0.93508554 0.6430953 0.42389944 0.46187797 0.5186878 0.37256005 0.59329087 0.7270993
0.4366197 0.5154975 0.4418063 0.6544537 0.6557465 0.465662 0.6802636 0.29633787
0.44052812 0.6150935 0.58501637 0.7230689

fc1.weight f4 [50, 320]
00000000: 006e 9b3d c275 85bd 87c6 d9bc 8f96 65bc
00000010: 83c7 823d 76aa 60bd 51c4 cfbd 29a6 983c
00000020: 6da9 2ebe 5b3c 823d 0df1 393e b3d0 393d
00000030: 4e77 d3bd 73fb e73c 0b86 8d3d b79a 0bbc
00000040: 48a6 d53c 2048 9cbd 0f1e 8c3d 6106 89bd
00000050: 4e4c f5bc 2582 99bd 50b2 04bd eea8 fb3d
00000060: 34bb 0abe 4290 6c3d b657 033d 96cf ad3d
00000070: 26d4 5e3d 5803 06be 9e59 bdbd 656f 1dbd
00000080: 9481 c1bd 6f69 c43c 9606 d7bd b75d f73c
00000090: d517 663d 4f4f 84bd e87a c13c c4ca 3bbd
000000a0: e55c de3d 9694 27be a412 1dbc 034b 3ebc
000000b0: 21a2 903d 02ae c9bb bbb5 52bd c4c8 c6bc
000000c0: 76fe 07be 627b 06be d555 823c 3762 ca3c
000000d0: 8c3e 0cbe d425 fcbc c347 bd3d 165a 81bd
000000e0: 8179 253d e4bc 8a3c 0320 91bb e96c d93c
000000f0: 8c5c 913d c76e 8cbd 448c 203e fb8e cb38
00000100: 9d34 db3d 7187 a5bd fbae 023d b604 c03d
00000110: 1e20 9ebd c52a 12bd e491 f1bd ba5d 38bb
00000120: 5f6e 733d 2e7b edbc bec0 d4bd 24fe 2cbc
00000130: 774b 883d 9dae 80bd ad55 dd3c 841f 2d3d
00000140: 86a9 f73b f046 6bbd 09d3 183c 6e23 e93c
00000150: a3c6 0b3e 89aa 783d e1a8 753d adb8 05bb
00000160: 3f20 86bd 8b24 61bc 3675 8e3d 29f5 db3d
00000170: 21fa 2e3d 7e81 5e39 bbf9 663d 1b3a f23d
00000180: a2a2 66bd 5f36 89bd 7d91 553d 4564 a7bd
00000190: d358 383c 471a d43d e21c ad3d 52dc 3f3d
000001a0: c3a7 6c3d dbf0 073e c3c9 8b3c a644 183e
000001b0: 7889 e73d a9b1 093d cd44 af3d a129 68bc
000001c0: 7278 a03d 5ab0 273e 4041 df3d 63fe 19bd
000001d0: 11fb 903c 5b87 35bc 8c60 be3c 2652 89bb
000001e0: 6412 303d dd54 d0bc 302f 8abd 2861 cebd
000001f0: d6b8 d33c 879a 63bd e006 f4bd 53de c6bd
00000200: 2561 4bbd 86c5 7dbd 7f4f d4bc 9f62 3c3d
00000210: 06a4 01bc 3c24 b63d e117 243d 16d8 703c
00000220: dc72 23bc 03eb d33c 6687 07bd 3ee2 fd3c
00000230: ce17 4bbd 8983 e5bd 2d94 5d3c e7a1 d1bd
00000240: c02b fa3c 06ab c93d 1882 513d b29e bfbd
00000250: 41d9 933b 660c 51bd 4806 a7bc ca7f 983d
00000260: 225b 62bd 087f ae3c a958 82bd dcd0 0a3c
00000270: 7f03 f83d a21b a1bc 0f68 bcbc ccf7 423c
00000280: a6e7 9cbc be25 24bc e519 21bd cccc 60bc
00000290: 91f2 d83d 55da 17bd 687c c23d 254e 91bd
000002a0: d489 0a3d e5b3 64bb d3f1 08be 3a19 073c
000002b0: e94c 8ebd 5a8a 093e 5842 8a3d 0e50 20be
000002c0: 2c77 31bc ab2a 15be 1630 ceb9 5593 db3d
000002d0: e856 ab3d e811 643d 7ed8 80bd 5e6e a2bd
000002e0: 7ce0 6fbd 58ea a4bd 5244 c83d 1ba4 b73d
000002f0: d2d4 d5ba 999d 53bc 3731 3abd 0831 7b3c
00000300: dd1b 503d d1b1 2f3d 0f95 a5bd ba14 37bc
00000310: 57f0 81bc 711e e3ba c989 6f3a 0cc5 87bd
00000320: 4a93 153e b8b9 b5bd 5ca4 0f3d e8ec 14bd
00000330: 3002 1d3d 30e1 e43c 118d b03d ea47 723d
00000340: f57f 0cbd 76c3 4b3d 38dc bebd 02ba d83d
00000350: f866 a9bb 069f 36be ec16 573d 66bd dcbd
00000360: 22dd 813d 9660 e7bb 4906 093e bd7f d83d
00000370: c0f0 3a3e adc6 0f3c 0c26 7b3c 77c6 7cbd
00000380: 4cae bf3c a89e 6fbb 9ae4 b13d 2aee 5bbd
00000390: 84a8 363e 170c 37bd 4003 b6bd 7250 2e3e
000003a0: 1aa7 8d3d 9e17 96bc 7086 02be 0464 10bd
000003b0: 923c 223d cd9c 743d b0f3 f6bd 2c9a 253e
000003c0: 98ab 173e 4249 c53c f852 f23c f922 e23d
000003d0: b2d0 ad3c 9545 6ebd 31bd 78bd 2de1 bdbd
000003e0: ef16 8b3d 035f 513c 9695 523d af74 03bb
000003f0: 492b 163c 566d 003e 5d2c 4ebd 1626 9fbc
0.0758934 -0.06516601 -0.026583923 -0.014012947 0.0638571 -0.054850064 -0.10144866 0.018633919
-0.17056818 0.06359168 0.1815836 0.045365047 -0.1032549 0.028318143 0.06910332 -0.008520774
0.026080266 -0.07630944 0.06841671 -0.0669067 -0.029943611 -0.07495526 -0.032396615 0.1228808
-0.13547975 0.057754762 0.03206607 0.084868595 0.05440154 -0.13087213 -0.09245609 -0.038436312
-0.09448543 0.023976056 -0.10499303 0.030196054 0.05617507 -0.064604394 0.023618177 -0.04584767
0.10857562 -0.16365275 -0.009586964 -0.011614564 0.07062174 -0.0061547766 -0.051442843 -0.024265654
-0.13280663 -0.13133004 0.015910069 0.024705036 -0.13695735 -0.030779757 0.09242203 -0.06316011
0.04039908 0.016935773 -0.004428865 0.02654119 0.0709773 -0.068570666 0.15678507 9.7064265e-05
0.107033946 -0.08082474 0.031905156 0.093758985 -0.077209696 -0.03568532 -0.117954046 -0.0028132037
0.05943143 -0.0289894 -0.10388325 -0.010558639 0.06655019 -0.06283305 0.027018392 0.042266384
0.0075580506 -0.0574407 0.009327658 0.028459277 0.13649993 0.06070951 0.05997551 -0.0020404265
-0.06549119 -0.013741623 0.0695595 0.1074012 0.04271901 0.0002121981 0.056390505 0.11827489
-0.056307442 -0.066998236 0.0521407 -0.08173422 0.011251646 0.103565745 0.084527746 0.046840973
0.057777178 0.13275473 0.01706398 0.14869937 0.11305517 0.033616696 0.085580446 -0.014170081
0.07835473 0.16375867 0.10901117 -0.037596118 0.017697843 -0.011079635 0.023239397 -0.004190701
0.04298629 -0.025431091 -0.067472816 -0.10077125 0.025844973 -0.05556729 -0.11915374 -0.09710374
-0.04965319 -0.06195595 -0.025916813 0.04599249 -0.007912641 0.0889363 0.040061835 0.014699956
-0.009976115 0.025868898 -0.03308811 0.03099167 -0.04958325 -0.11206729 0.013524097 -0.102359585
0.03053844 0.09847073 0.051149458 -0.093564406 0.0045119827 -0.051037215 -0.020388737 0.07446249
-0.055262692 0.021300808 -0.06364567 0.0084726475 0.12110042 -0.019666497 -0.022998838 0.0118999
-0.019153427 -0.010018764 -0.039331336 -0.013720702 0.10593141 -0.037073452 0.09496385 -0.07094983
0.03382285 -0.0034897265 -0.13373499 0.008245761 -0.06948263 0.13431683 0.06750935 -0.15655538
-0.010831635 -0.14567058 -0.0003932721 0.10721461 0.083661854 0.05568114 -0.062912926 -0.07931207
-0.058563694 -0.0805251 0.09778656 0.089668475 -0.0016314036 -0.012915992 -0.04545709 0.015331514
0.050807822 0.04289419 -0.08085071 -0.011174375 -0.015861673 -0.0017327798 0.0009137658 -0.066293806
0.14606968 -0.08873314 0.035068855 -0.036358744 0.038332164 0.027939409 0.08620656 0.059150614
-0.034301717 0.049746953 -0.09319347 0.10582353 -0.0051697455 -0.178341 0.052512094 -0.107783124
0.06341006 -0.0070610745 0.13381304 0.10571239 0.18255901 0.008775395 0.015328895 -0.06171271
0.02339854 -0.0036563072 0.086861804 -0.053693928 0.17837721 -0.044689264 -0.08887339 0.17022875
0.06916638 -0.018321808 -0.12746596 -0.035251632 0.039608546 0.05971985 -0.120581985 0.16172093
0.14811552 0.024082784 0.029580578 0.11041827 0.021217678 -0.058171827 -0.060727302 -0.092714645
0.067914836 0.012779 0.051412188 -0.0020058563 0.009165593 0.12541708 -0.050335277 -0.01942734

fc1.bias f4 [50]
00000000: f464 1bbd dad4 83bc 86d5 0c3c 92bc 72bc
00000010: 1085 3f3d 22ff 7fbc c4f2 81bc 3605 54bd
00000020: 887f 7c3b 6153 0dbd 72dc d43a e53c 5e3d
00000030: 590a cbbc 638e f53c 4682 ba3c 1c08 38bd
00000040: 0bbe a93c e3d8 66bc 1a43 193d 454a c1bc
00000050: 524d 803b 38c4 e13c e536 353d c466 e6bc
00000060: 362d 2a3d afa7 153d 3f57 9ab9 d8da 533d
00000070: 9f12 97bb 3f6d eabc 74a9 ce3c 294f 6f3c
00000080: 2a09 30bd 22c3 babc e610 bdbc e155 093d
00000090: 4262 1cbc 5be2 48bd 9816 813c 94ae 973c
000000a0: 095f 23bb 232c 133d e645 3cbd 208d 1a3b
000000b0: bfd1 e0bc 3c46 b8bc 7c43 31bd 4965 77bc
000000c0: aac6 56bd 6718 5bbd
-0.037938073 -0.016092706 0.00859583 -0.0148154665 0.046757758 -0.015624793 -0.01586283 -0.051762782
0.0038528163 -0.034503344 0.0016240014 0.054257292 -0.024785208 0.029975122 0.022767197 -0.04492961
0.020720502 -0.014089796 0.03741751 -0.023594985 0.0039154673 0.027559385 0.044241805 -0.028125174
0.041547023 0.03653687 -0.00029438172 0.051722378 -0.004610374 -0.028616546 0.025227286 0.014606276
-0.04297749 -0.022798125 -0.023079347 0.033529166 -0.009544911 -0.049043994 0.015757844 0.018515863
-0.0024928472 0.035930764 -0.045965098 0.0023582652 -0.027443765 -0.022494428 -0.04327725 -0.015099832
-0.052435555 -0.05349007

fc1_bn.weight f4 [50]
00000000: 983b 773f fa6d 723f 3d2f 703f b9f0 723f
00000010: 07c4 753f 3aca 753f 6ec0 743f 241c 753f
00000020: dc39 743f 7986 723f fa7d 6f3f a519 743f
00000030: c873 743f ad7b 713f 4979 723f 6c2a 733f
00000040: c66d 723f dece 753f a037 743f e0a0 703f
00000050: 8347 723f 3677 733f 6a25 753f b61e 763f
00000060: 8f10 713f c95b 783f 01eb 763f 49ce 743f
00000070: e325 733f 7b11 723f 39d9 763f ad08 723f
00000080: ed08 733f c156 773f 70ee 743f ba0c 753f
00000090: 92de 753f d6d2 6e3f 5f9a 723f 4e43 733f
000000a0: 682f 733f 0eea 743f b250 793f 5934 743f
000000b0: 14fc 703f d38a 753f a533 753f 069d 723f
000000c0: 71f0 723f 6c7c 723f
0.9657531 0.9469906 0.9382208 0.94898564 0.9600224 0.960117 0.95606124 0.95746064
0.95400786 0.9473644 0.935516 0.9535163 0.9548917 0.9432934 0.94716316 0.94986606
0.9469875 0.9601878 0.95397377 0.93995476 0.9464037 0.95103776 0.95760214 0.9614061
0.9416589 0.97015053 0.9645234 0.95627266 0.94979686 0.94557923 0.96425205 0.9454449
0.94935495 0.9661675 0.95676327 0.95722544 0.9604274 0.9329046 0.947668 0.95024574
0.9499421 0.9566964 0.97388756 0.95392376 0.9413464 0.95914954 0.9578193 0.9477085
0.94898134 0.947211

fc1_bn.bias f4 [50]
00000000: 2127 daba a8b8 ecb9 4ba5 d73b 5b05 453c
00000010: 0cf9 9c3b e6a9 513a cc54 763a c558 a2bb
00000020: ecc1 69ba 1342 66bc f05b 13ba 3e50 8dbb
00000030: 496d 2ebc 8788 9ebc 01ba 91ba 6cd0 14bc
00000040: de0e a7b9 de32 03bc ecb4 a13b f5c1 b5bb
00000050: 8770 cbbb d45b c6ba f33f e03b a3c2 7cbb
00000060: 4763 28bc 945f a9bb 8f01 d63b 6ea0 82bc
00000070: 686e 05bb 6c23 333b 90aa 05bb 5958 99bb
00000080: 939a 08bc c77d 313c 6d99 00bc ca00 16bb
00000090: e495 193c c4dd 16bc 752c c6bc c344 e33b
000000a0: afe7 65bb 1c8a df3b 9c97 cf3b c436 fe3b
000000b0: d5bf a6bb f5be df3a b637 abbb 0621 133c
000000c0: 8df4 21bc d21e 8dbc
-0.0016643741 -0.00045151007 0.0065809838 0.012025203 0.004790431 0.0007998034 0.0009396791 -0.00495443
-0.0008917141 -0.014053839 -0.0005621305 -0.004312544 -0.010646173 -0.01935221 -0.0011118056 -0.009082895
-0.000318638 -0.008007733 0.0049348976 -0.005546803 -0.0062084827 -0.0015133568 0.006843561 -0.003856816
-0.010277576 -0.0051688645 0.0065309475 -0.01594564 -0.0020359997 0.0027334346 -0.0020395853 -0.0046797213
-0.008337635 0.01083321 -0.00784908 -0.0022888654 0.009374116 -0.0092081465 -0.02419112 0.0069356873
-0.003508072 0.006821884 0.006335212 0.0077579934 -0.005088786 0.001707046 -0.005225147 0.008980041
-0.009884966 -0.01722661

fc1_bn.running_mean f4 [50]
00000000: 0260 a43f ec3a eebf 087b a33f 429c cdbf
00000010: e637 cd3e 0c51 c6be 347a 65bf 21ba 05c0
00000020: 2b0b 68bf c070 ebbf 0e53 90bf cdf4 babf
00000030: 737f 1e3f 5339 95be fd69 87bf bccc ffbf
00000040: a75a b33f 4e92 953e e5e1 66be 5b13 883f
00000050: 2bca 1240 5266 b2bf bb88 65bf 683b adbd
00000060: 921b f53c ec7d 85be 5005 213f ffba 273d
00000070: 4456 80bf d017 26c0 2ef5 94be 6f3c 72bf
00000080: 5b24 13bf 2c98 8dbe 861f 6bbf ad59 14bf
00000090: c005 2cbd dd3a 70bf 1721 84bf 755f 7cbf
000000a0: 1560 c1be e4cb 1cbe 3fe5 12be fba9 363f
000000b0: ea58 f23e a120 37bf 775e 5cbf 5280 243f
000000c0: 9042 ffbf 4781 e63e
1.2841799 -1.8611732 1.2771921 -1.6063311 0.4008171 -0.3873371 -0.8963959 -2.0894854
-0.9064204 -1.8393784 -1.1275346 -1.4605957 0.6191322 -0.29145297 -1.057922 -1.9984355
1.401204 0.29213184 -0.2254711 1.0630907 2.2935894 -1.3937476 -0.8966176 -0.084585965
0.029920373 -0.26072633 0.6289873 0.040949818 -1.0026326 -2.5952034 -0.29093307 -0.94623464
-0.5747735 -0.2765516 -0.91844976 -0.57949334 -0.04199767 -0.9383982 -1.0322598 -0.98583156
-0.37768617 -0.15312153 -0.14345263 0.7135312 0.4733346 -0.7153416 -0.8608164 0.642583
-1.9942188 0.45020506

fc1_bn.running_var f4 [50]
00000000: 3a44 853f 7bbb bf3e 53d1 a13f 4461 d73e
00000010: 298d bf3f 2eb2 2a3f b4f5 d03e 7fdf d33e
00000020: 6e4c bd3e c6e1 2d3f 65ff b83e f1b4 5a3f
00000030: 0523 083f 4fe0 8a3e 51eb c73e bf6a c13e
00000040: 1f54 c23e 9a30 593f 8848 2e3f 47ff 923e
00000050: ea90 7d3f b1fa 393f 5b58 af3f 602f bc3e
00000060: 480d 8d3e d57e a93e 85d2 413f 9b17 c53f
00000070: dddf 643f 04cf 363f c294 b63e 7fd7 ab3f
00000080: 4f01 013f 82f1 1c3f 9193 c73e cd97 433f
00000090: 3408 4c3f 9277 653f 2d72 153f 8681 ed3e
000000a0: 1477 103f ac20 ba3f e2db 053f 5071 b53e
000000b0: 1c07 e83e 39c0 e83e c9bd 283f eff5 b73e
000000c0: 21a0 ef3e f721 ac3e
1.0411446 0.37447724 1.2642006 0.42066395 1.4964954 0.6667813 0.40812457 0.4138145
0.36972374 0.6792263 0.3613235 0.85432345 0.53178436 0.2712426 0.3904672 0.37776753
0.37954804 0.84839785 0.68079424 0.28710386 0.99049246 0.7264815 1.3698839 0.36754894
0.27549195 0.33104578 0.7571185 1.5397829 0.8940409 0.7140963 0.35660368 1.3425139
0.5039262 0.6130601 0.38979772 0.76403505 0.79700017 0.89635575 0.58377343 0.4638788
0.564317 1.4541221 0.5228864 0.35438013 0.45317924 0.45459154 0.6591459 0.3592982
0.46801856 0.33619663

fc2.weight f4 [10, 50]
00000000: df6d 373d 44ce 503d 2784 6fbd 1bd8 42be
00000010: b5ac 3dbd f0c8 dbbd 5bc5 c5bd 3528 e7bc
00000020: 3491 7a3e 7205 fdbb 23e7 753c 2fc2 7b3d
00000030: d83f 043e c71d 72be cba6 5dbe 28cb 8cbd
00000040: 0be8 d73d 94d5 3fbe b44c 883e f763 f03d
00000050: d4e1 12bd e3b3 bfbd 623e 00bd 4394 313d
00000060: 6abf e73d 39db 6ebe f504 493e 0dc3 dc3e
00000070: 39d7 c03b a69e 78be 019b 26be 2d1f 1cbe
00000080: 2826 9abc bafb 6bba c5ce 22be b57b 6cbd
00000090: d807 f63d 7a96 ad3d 6926 3fbe a47d 8ebe
000000a0: 0a63 013d 8729 fc3d 631e 1dbe 0ca6 80bd
000000b0: 3167 07bd f3e2 fabd f2a1 653e 6421 8b3d
000000c0: 916f a5bc 0730 733e 65fc 20be 31bb 8b3e
000000d0: 8df9 653e 21d7 533e fd71 10bc 2a1d d2bd
000000e0: e8fa 9ebe 394d a8bd d063 83be b336 ad3e
000000f0: 8b28 093e 03fa a7bc 90d0 a23c 89e8 a33d
00000100: cc1a 053c ce18 663c e62c 803e 8ada 64be
00000110: cf54 1a3e b994 c73e 3123 dabc 17ab 20be
00000120: 8daf 1d3e 83e9 a2be a54c a9be 55f6 e4bd
00000130: b2d1 8dbe f9c3 893d c8a2 e03c a8d7 1fbd
00000140: eb89 22be debe b2be 0a62 9f3d 5bab c33e
00000150: 19a6 983c 72d6 21be a7ef 7cbe 35b5 c53e
00000160: 2d96 df3d 83a8 b83d 15d6 fbbd 6b26 03bd
00000170: 3cf6 203e cb6b 2cbe 64cb 1c3c 46c4 863d
00000180: 5d4a 093d 1497 8a3d af11 243e 6dcd 28be
00000190: b997 ff3d 312d d3bd 856e 02bf 6455 4abe
000001a0: fdf3 88bd b950 1f3e 85e1 87bd 391f 2f3e
000001b0: 31f7 2dbc 24e7 623e dc31 6abe 7d24 e8bd
000001c0: fc5c 443e 24d6 413e 4492 0c3a f527 1fbe
000001d0: 5e90 3f3e 0448 80be c7d1 e23e 76a6 0b3d
000001e0: f221 09be ef30 cbbd ac4e 31be 63dd f43c
000001f0: 3c78 8f3e 4b09 ad3e 8a05 ac3d 82bf 09be
00000200: 7544 343d 0d5c 793e 8801 183d f6ab 7dba
00000210: 5c23 a43d 5893 bd3d bed8 51bd db62 ca3e
00000220: 84f2 a6be a197 c8bd fd2c 94bc 4818 723e
00000230: 744c c7bd 3a41 c7bd aa13 86bd c497 ac3c
00000240: 3836 e83c d2ee a2bc 10d4 a73d d512 68be
00000250: 3f73 27be 0780 88bd fe12 e2be 1dc6 1f3e
00000260: 6128 2ebe ae79 cc3c 2931 393e 4d32 a6be
00000270: 84c0 c3bd 6a54 9bbd 21ac 923d a2cf c2bd
00000280: f8e8 76bc 26c3 aa3d bbb3 67bd d447 99bd
00000290: 9c1d c4bd aa38 16be 3dc6 193e e86c 9b3d
000002a0: 0ffc 6e3d 81cc 533d 179c 0a3c 2b56 09be
000002b0: 1df7 703e 5e97 f5bc 5cb9 94bd 5fa0 d9bd
000002c0: 3e40 dcbc 9abc 42bd b004 3dbe cd34 b83d
000002d0: 0e0d c93e fcbe a5be c370 39bd 8f1f 913d
000002e0: 4ae6 303c c2b4 8dbd 26b5 363e d587 40be
000002f0: c584 56bd 29f4 fe3d 0b59 acbd 4d33 373c
00000300: bd88 0bbd af35 5abd 1612 a43d 6307 36be
00000310: 518a 8ebe dd66 08be 231a 1a3e 99a0 6ebe
00000320: 8ac1 373e 5016 503d 4e26 b8be 30c5 39be
00000330: 9725 403d d78d 8f3a 75f2 803e 86e5 ea3d
00000340: 37c7 15be 6b0d 87be beb5 02bc 6678 debd
00000350: 5e27 56be a32e dbbe 38f7 36be 038c 5bbb
00000360: cade 313e 27bf 923d b210 253e a1c7 7c3e
00000370: 76b3 1cbd c21d af3c 9dd7 4e3e 10ce f93c
00000380: 6932 11be 2650 bd3c e385 4b3e 1cb1 73bd
00000390: 9a6e 6dbe c3ad 52be 601a f2bd d298 c3bd
000003a0: 76b2 c7ba f0b3 853e dc82 203e 385a 6d3e
000003b0: 3473 65be 88bc 40bd 46ee dcbe a932 10be
000003c0: e194 183d 6db9 7ebe aff6 bbbd 220e 87bd
000003d0: b454 03be 17d9 843e c2a8 a3bd 5eec 463e
000003e0: 38df 84bc d53b 8dbe 14b6 053e d08e 833d
000003f0: dc07 6fbe db1d e6bc 33b9 c03d 1e9e a4bd
0.044782516 0.05097796 -0.05847564 -0.1902775 -0.046307284 -0.10731685 -0.09656783 -0.028217414
0.24469453 -0.0077215964 0.015008721 0.061464485 0.1291498 -0.23644172 -0.21645658 -0.068746865
0.105423056 -0.18733817 0.2662102 0.11737817 -0.035859898 -0.093604825 -0.031309493 0.043354284
0.11315806 -0.23325814 0.19630797 0.43117562 0.0058850315 -0.2427927 -0.16270067 -0.15246268
-0.018817022 -0.0009002049 -0.15899189 -0.057735164 0.12013215 0.08475967 -0.18666996 -0.2783023
0.03158859 0.12312608 -0.15343623 -0.06281671 -0.033057395 -0.122503184 0.22425058 0.06793478
-0.0201948 0.2374879 -0.15721281 0.27291253 0.22458477 0.20687534 -0.008816239 -0.10259469
-0.310508 -0.08217854 -0.25662088 0.33830795 0.13394372 -0.020504957 0.019874841 0.08003337
0.008124065 0.014044 0.25034255 -0.22348991 0.15071414 0.38980654 -0.026628109 -0.15690266
0.15398999 -0.3181878 -0.33066288 -0.111797966 -0.27699047 0.06726832 0.02742137 -0.039024025
-0.15872924 -0.34911245 0.07782371 0.3821667 0.018633889 -0.1580446 -0.24700795 0.38614812
0.10917316 0.09016516 -0.12296692 -0.03201906 0.15718931 -0.16837995 0.0095699765 0.06580405
0.033518184 0.06767097 0.16022371 -0.16484614 0.12480111 -0.10311354 -0.5094989 -0.19759136
-0.06687162 0.15558137 -0.06634811 0.17101754 -0.010618017 0.22158486 -0.22870582 -0.113350846
0.19176096 0.18929344 0.00053623714 -0.15542586 0.18707415 -0.25054944 0.44300672 0.034094296
-0.13391855 -0.09921443 -0.17315167 0.029890722 0.2802142 0.33796152 0.08399494 -0.1345196
0.0440106 0.24351521 0.037110835 -0.0009676808 0.08014557 0.09256619 -0.051232092 0.39528546
-0.326069 -0.09794546 -0.018087858 0.23642075 -0.09731379 -0.09729238 -0.06546719 0.021068461
0.028346166 -0.019889269 0.081947446 -0.22663434 -0.16352557 -0.06665044 -0.44155115 0.15602918
-0.17007591 0.024960365 0.1808516 -0.3246025 -0.09558204 -0.0758446 0.07161737 -0.09512259
-0.0150701925 0.08338003 -0.05656789 -0.07484403 -0.0957596 -0.14670053 0.15017028 0.075891316
0.05834585 0.051708702 0.008460066 -0.13411777 0.23531766 -0.029979404 -0.07261917 -0.106262915
-0.026886102 -0.047543146 -0.1845882 0.08994446 0.39267772 -0.32372272 -0.045273554 0.070860974
0.010797093 -0.069192424 0.1784254 -0.18801816 -0.052372713 0.124489136 -0.08415421 0.011181665
-0.03406595 -0.053273853 0.08011262 -0.17776255 -0.27839902 -0.13320489 0.15049033 -0.2330345
0.17944923 0.05080253 -0.35966724 -0.18141627 0.04691085 0.0010952306 0.2518498 0.11469559
-0.14626776 -0.26377425 -0.007977901 -0.10862808 -0.20913455 -0.42809018 -0.17867744 -0.0033500202
0.17370144 0.07165366 0.1611965 0.24685527 -0.038257085 0.021376494 0.20199437 0.030493766
-0.14179386 0.023109507 0.19875292 -0.059495077 -0.23186722 -0.20574097 -0.11821437 -0.095506325
-0.0015235681 0.26113844 0.15674919 0.23178947 -0.22407228 -0.047054797 -0.43150538 -0.14081825
0.037251357 -0.24875422 -0.091779105 -0.065944925 -0.1282528 0.25946876 -0.079911724 0.19426104
-0.01621972 -0.2758471 0.13057739 0.06423724 -0.23342842 -0.028090408 0.09410324 -0.08037971

fc2.bias f4 [10]
00000000: ca20 a43d ae87 e13d c9c7 67bd 0fb8 653d
00000010: 48a0 d63d 3734 d3bc 373a d33c 9b8e 933d
00000020: e9bd 96bc 2a60 9fbd
0.080140665 0.11012207 -0.056587014 0.056083735 0.1047979 -0.025781734 0.025784595 0.07204934
-0.018401103 -0.07782014
