es-rl/experiments/checkpoints/E001-MNIST_none/190107-183714.643092|sNES|MNIST|MNISTNet/state-dict-model.pkl (torch_old, 91552 bytes, 20 tensors)

conv1.weight f4 [10, 1, 5, 5]
0	0xbe3eaffa	-0.18621817
1	0xbde251cb	-0.11050757
2	0xbd577790	-0.052604258
3	0x3d2ee35c	0.042697296
4	0x3d8d5573	0.06901064
5	0xbe3ecb72	-0.18632296
6	0xbe369542	-0.17830375
7	0x3cc5cce2	0.024145547
8	0x3e154463	0.14576869
9	0xbcf8b366	-0.030358981
10	0x3e23a637	0.15981375
11	0x3e2a2fe1	0.16619827
12	0xbd9257d3	-0.071456574
13	0x3d605fd0	0.054778874
14	0xbe0d3aa8	-0.13791907
15	0x3d200ac5	0.03907277
16	0x3d3094e5	0.043110747
17	0x3da83c2b	0.08214601
18	0x3e934c48	0.28769135
19	0xbd7e517d	-0.062089432
20	0x3da463fe	0.080268845
21	0xbe5b7f67	-0.21435319
22	0xbe214b92	-0.15751484
23	0xbb57cb50	-0.003292758
24	0x3dc29fb7	0.095031194
25	0xbd1866b0	-0.037207305
26	0xbc67444d	-0.014115405
27	0xbd4d81b3	-0.05017252
28	0xbd9a64a9	-0.07538731
29	0xbdda139f	-0.10648274
30	0x3c9fb782	0.019496683
31	0x3ccdc94c	0.0251204
32	0xbe63046e	-0.22169659
33	0xbe57d6b4	-0.21077996
34	0xbd802283	-0.062565826
35	0xbbd00a26	-0.006348866
36	0xbe137dc2	-0.14403442
37	0x3db7aabd	0.089681126
38	0xbdef842a	-0.1169513
39	0x3c376338	0.011193089
40	0x3cbadcbd	0.022810334
41	0xbe2eb363	-0.17060618
42	0xbe517985	-0.20456512
43	0xbe9d6029	-0.30737427
44	0xbc796949	-0.015222856
45	0x3db22cd9	0.0869996
46	0xbeac2a8d	-0.33626214
47	0x3dcaca87	0.0990191
48	0x3cf1737a	0.029474009
49	0x3e55bad6	0.20872054
50	0x3ddcd7dd	0.1078336
51	0x3e2b8fe3	0.16754107
52	0x3dc45c40	0.09587908
53	0xbcf068b0	-0.029346794
54	0x3dff6635	0.12470666
55	0xbd4085d2	-0.04700262
56	0x3dac8d7e	0.08425425
57	0x3e86b3cc	0.2630905
58	0x3e8edf44	0.27904713
59	0x3dafe6d7	0.08588951
60	0xbe20d3be	-0.15705773
61	0xbe451f65	-0.19250257
62	0xbe3f49a7	-0.1868044
63	0x3d15afae	0.036544494
64	0x3bbb1178	0.0057088695
65	0xbdc5363a	-0.096294835
66	0xbe0ee8dc	-0.13956016
67	0xbd1987ba	-0.037482955
68	0xbcd85bea	-0.026411016
69	0xbcb5ed40	-0.022207856
70	0xbda9184c	-0.082565874
71	0xbc71033a	-0.014710242
72	0xbe1f888d	-0.15579434
73	0xbe16f5b2	-0.14742163
74	0xbbc0039c	-0.0058598053
75	0x3ca3e6c2	0.020007495
76	0xbcccecee	-0.02501532
77	0xbe026578	-0.1273402
78	0xbdbfa037	-0.093567304
79	0x3d712a25	0.058878083
80	0xbe179667	-0.14803468
81	0x3da3d5a3	0.07999732
82	0x3e422a98	0.1896156
83	0xbc895dd3	-0.016768372
84	0x3e2a9d9f	0.1666169
85	0x3c0ef53a	0.008725459
86	0x3c888508	0.016664997
87	0x3d4bde1d	0.04977237
88	0x3b5a1a3a	0.0033279792
89	0xbdeb1a7e	-0.11479662
90	0x3c0d3918	0.008619569
91	0x3d540c8f	0.05176979
92	0x3df62031	0.12017859
93	0x3beeaa2e	0.0072834706
94	0xbc274b94	-0.01021089
95	0xbc8ca9ea	-0.017170865
96	0x3d83b713	0.06431403
97	0x3e0f4087	0.13989459
98	0x3e646587	0.22304355
99	0x3cd6d4a3	0.02622444
100	0xbdc721e0	-0.09723258
101	0xbb73aa2e	-0.0037180292
102	0x3e3155d2	0.17317894
103	0xbccf8d6b	-0.025335988
104	0x3e8b55c8	0.27213883
105	0x3df6223d	0.12018249
106	0xbe72d17f	-0.23712729
107	0xbdd5fc9d	-0.10448573
108	0xbdca6525	-0.09882573
109	0x3dc2e35c	0.095160216
110	0xbe17d6ff	-0.14828108
111	0xbd7a23db	-0.06106935
112	0x3df17e72	0.11791696
113	0x3df73ac5	0.12071756
114	0xbdf98f9a	-0.12185593
115	0xbbd1a62d	-0.0063979835
116	0x3e018485	0.12648208
117	0x3e01db72	0.12681368
118	0x3e8abb90	0.27096224
119	0xba35e2b0	-0.0006938381
120	0x3dc92247	0.09820991
121	0x3d87ae4c	0.06625041
122	0x3ded0921	0.11574007
123	0x3dceaed8	0.100919425
124	0xbe4bf674	-0.19918233
125	0x3d8aa286	0.0676928
126	0xbbf42fb1	-0.0074519743
127	0xbe211e76	-0.15734276
128	0xbe252a0c	-0.16129321
129	0xbc9ab81f	-0.018886624
130	0x3de17dab	0.110102974
131	0x3ec37b21	0.38179877
132	0x3da58ef8	0.0808391
133	0x3d45a450	0.048252404
134	0x3d0642f2	0.032778688
135	0x3c765dc4	0.015037004
136	0x3e6b4997	0.22977291
137	0x3bfcf164	0.0077192057
138	0x3ceaf437	0.028680904
139	0xbe83300e	-0.256226
140	0xbe039726	-0.12850627
141	0xbcfe796b	-0.031063756
142	0x3ddb3ee6	0.10705356
143	0x3dcf508e	0.101227865
144	0x3e1a7741	0.15084554
145	0xbd729666	-0.059225462
146	0x3d858557	0.06519573
147	0x3cceb342	0.025231961
148	0x3dc3978a	0.09550388
149	0x3dd6971c	0.104780406
150	0x3dd76a86	0.105183646
151	0x3d2274bf	0.03966212
152	0x3d9d47a4	0.0767968
153	0x3c71fb1d	0.014769343
154	0x3cdf25d1	0.027239712
155	0xbc825c3a	-0.015913118
156	0x3e990071	0.2988315
157	0x3e350bb2	0.17680243
158	0xbd08701e	-0.03331005
159	0x3e57812d	0.2104537
160	0x3e553f85	0.20825012
161	0x3e66bad6	0.2253221
162	0x3be6bffe	0.00704193
163	0x3e301aed	0.17197771
164	0x3c8879cd	0.016659642
165	0xbe3675e1	-0.17818405
166	0xbd2b7604	-0.041860595
167	0x3e0d3fe8	0.1379391
168	0xbe8c10ea	-0.27356654
169	0x3e3a27e7	0.18179284
170	0xbe33fd8b	-0.17577188
171	0xbe105c0b	-0.14097612
172	0xbdb6f44e	-0.08933316
173	0xbdd012e2	-0.101598516
174	0xbbdbd741	-0.00670901
175	0xbe905af6	-0.28194398
176	0xbd3b7934	-0.045769885
177	0xbc687963	-0.014189097
178	0x3c047c1e	0.0080862325
179	0x3e13d05a	0.14434949
180	0xbe9f4f29	-0.31115082
181	0xbbded384	-0.006800117
182	0xbda4ddd1	-0.080501206
183	0xbdb818dd	-0.08989117
184	0x3e2ba2fb	0.16761391
185	0xbe6c673a	-0.23086253
186	0xbc7785d3	-0.01510759
187	0xbe5c3a72	-0.2150667
188	0xbe26387b	-0.16232483
189	0x3d3bc466	0.045841597
190	0xbdc9c67a	-0.098523095
191	0xbe72444e	-0.23658869
192	0xbc85a402	-0.016313557
193	0xbddceb59	-0.107870765
194	0x3ddaab8b	0.106772505
195	0xbd551ea9	-0.052031193
196	0xbe8a567e	-0.27019113
197	0xbe2a6369	-0.16639484
198	0x3d7069e3	0.05869473
199	0xbebcddb2	-0.3688789
200	0xbe062c90	-0.13102937
201	0x3e1bc8d4	0.15213329
202	0xbd5efea2	-0.054442056
203	0xbdbbb86a	-0.091660336
204	0xbc4ce044	-0.012504641
205	0xbe9bab18	-0.30403972
206	0xbe0068be	-0.12539956
207	0x3d1f2d0d	0.038861323
208	0xbcd50522	-0.026003424
209	0xbccaabfe	-0.024740215
210	0xbcbe7eb0	-0.023253769
211	0xbbc8aaff	-0.0061239
212	0xbd81d3e5	-0.06339244
213	0x3e299c64	0.16563565
214	0x3e1bc2ed	0.15211077
215	0x3c610ffd	0.013736722
216	0xbddd6114	-0.10809532
217	0xbe26367c	-0.16231722
218	0xbc15ce57	-0.0091434335
219	0x3d020ba6	0.03174939
220	0xbe925951	-0.28583768
221	0xbe92d20f	-0.28675887
222	0xbe207516	-0.15669665
223	0xbd655648	-0.055990487
224	0xbcafcd38	-0.02146016
225	0xbe719c5b	-0.23594801
226	0xbd2a476b	-0.041572016
227	0xbdbc41c7	-0.091922335
228	0x3e059bae	0.13047668
229	0x3d8f2e6e	0.06991278
230	0xbdf6e87e	-0.12056063
231	0xbdb549d2	-0.08851971
232	0x3bdd97eb	0.006762495
233	0x3e1f82c5	0.15577228
234	0x3e4fec58	0.20305002
235	0x3df929c1	0.12166167
236	0xbe876b9e	-0.26449293
237	0x3e024941	0.12723257
238	0xbcdd011c	-0.026978068
239	0x3d9ce056	0.07659976
240	0x3d835a8a	0.06413753
241	0xbdcd60b0	-0.10028207
242	0x3e0b1af4	0.135845
243	0x3d9ef8e0	0.07762313
244	0xbe2a73f9	-0.16645803
245	0xbdc01172	-0.093783274
246	0x3e4ea6c9	0.20180811
247	0x3e4d57c1	0.20053007
248	0x3b8e0754	0.0043343697
249	0xbdd5104c	-0.10403499

conv1.bias f4 [10]
0	0x3db39ff3	0.08770742
1	0xbe6b7495	-0.22993691
2	0xbd337290	-0.043810427
3	0xbcca9818	-0.024730727
4	0xbe0b2dc7	-0.13591681
5	0x3d7461c2	0.05966354
6	0xbe1bcd07	-0.1521493
7	0x39846f20	0.00025259797
8	0x3e869fe1	0.26293853
9	0x3e817e03	0.25291452

conv1_bn.weight f4 [10]
0	0x3e85aca8	0.2610829
1	0x3eca3432	0.39492947
2	0x3f0ebfc7	0.5576138
3	0x3e7aa852	0.24478272
4	0x3e7a4aae	0.2444255
5	0x3ee5ec81	0.44907
6	0x3ee935d1	0.4554887
7	0x3f1f9382	0.62334454
8	0x3ede445f	0.43411538
9	0x3ed1f9c8	0.4101088

conv1_bn.bias f4 [10]
0	0xbbae9bd2	-0.005328634
1	0x3e88bdda	0.26707345
2	0xbd752d43	-0.059857618
3	0x3e18d5d0	0.14925313
4	0x3e376c94	0.17912513
5	0xba496924	-0.00076832087
6	0x3e4242a1	0.1897073
7	0xbd5d9d39	-0.054105017
8	0xbe677db6	-0.22606549
9	0xbe36bfd2	-0.17846611

conv1_bn.running_mean f4 [10]
0	0x3d871b8a	0.065970495
1	0xbeb1589a	-0.3463791
2	0xbd3aca7e	-0.045603268
3	0x3daf521a	0.085605815
4	0xbd68650c	-0.05673699
5	0x3dc14eee	0.09438883
6	0xbddfd546	-0.109293506
7	0xbe4580f9	-0.1928748
8	0x3df40c8e	0.11916457
9	0x3e90e9b3	0.28303298

conv1_bn.running_var f4 [10]
0	0x3e892f91	0.26794103
1	0x3fd4f8aa	1.6638386
2	0x3f204ee3	0.6262037
3	0x3f174222	0.59085286
4	0x3f2cb16e	0.67458236
5	0x3f0650be	0.5246695
6	0x3f8307ba	1.0236733
7	0x40282bf5	2.627683
8	0x3faaa15b	1.3330492
9	0x3f2e64b2	0.681224

conv2.weight f4 [20, 10, 5, 5]
0	0xbdedfaf4	-0.11620131
1	0xbb0c0a71	-0.0021368528
2	0xbe12242f	-0.14271615
3	0x3db88167	0.090090565
4	0x3e149b39	0.14512338
5	0xbdd03d83	-0.101679824
6	0x3d7e3e90	0.062071383
7	0x3ded18c4	0.11576989
8	0xbe21f5ea	-0.15816465
9	0x3ce398bc	0.02778279
10	0x3dc83df7	0.09777444
11	0xbdcf9648	-0.10136086
12	0x37b02e40	2.1002372e-05
13	0xbd96dfbb	-0.07366892
14	0x3e277077	0.16351496
15	0xbcbc53fe	-0.02298927
16	0x3b35fe02	0.0027769809
17	0xbe07666b	-0.13222663
18	0xbd8060b7	-0.06268447
19	0xbdda58e5	-0.106614865
20	0x3daefc2e	0.08544193
21	0x3d888c45	0.06667379
22	0xbca4ba3a	-0.020108331
23	0x3d110874	0.035408452
24	0xbe064796	-0.13113245
25	0x3d9969f3	0.07490911
26	0xbe1821a1	-0.14856578
27	0x3d8ffefc	0.07031056
28	0x3acbec20	0.0015558042
29	0xbe10f955	-0.14157613
30	0xbdc6dedc	-0.09710476
31	0xbded5115	-0.11587731
32	0x3d55ec59	0.05222735
33	0x3dbb08c7	0.091325335
34	0xbdff8383	-0.12476256
35	0x3e0c347f	0.136919
36	0xbe20ad0d	-0.15691014
37	0x3e328552	0.1743367
38	0x3d82c650	0.06385481
39	0x3dc89b47	0.09795242
40	0xbe54da99	-0.20786513
41	0x3c9a5734	0.01884041
42	0x3e699b67	0.22813188
43	0x3e3c0846	0.18362531
44	0x3d916c53	0.07100739
45	0x3ea19bad	0.31564084
46	0xbdcc676b	-0.09980663
47	0xbe52273d	-0.2052278
48	0x3ea8433b	0.32863793
49	0xbe8850f7	-0.2662427
50	0xbe3b1d80	-0.18272972
51	0xbe0e9b19	-0.13926353
52	0xbe0523ae	-0.13001892
53	0xbe18b13d	-0.14911361
54	0x3e2531b1	0.16132237
55	0xbe085b42	-0.13316062
56	0x3e48a35e	0.1959357
57	0x3ea6f962	0.3261214
58	0xb9ccc15c	-0.00039053976
59	0x3e20ff48	0.15722382
60	0xbd6fdc11	-0.05855948
61	0x3e00d6c8	0.12581933
62	0xbda12869	-0.07869036
63	0x3dda4b65	0.106589116
64	0x3e0a82b2	0.13526419
65	0xbdb7ba1f	-0.08971047
66	0xbd9a0738	-0.07520908
67	0xbd4888a3	-0.048958432
68	0x3e2e38c2	0.17013839
69	0xbdb2071a	-0.08692761
70	0x3eacdc61	0.33761886
71	0x3deac1d8	0.11462754
72	0xbd398da6	-0.045301102
73	0x3e09c557	0.13454185
74	0x3d07bf40	0.033141375
75	0x3b0f0ec3	0.0021828867
76	0x3d962db9	0.0733294
77	0xbe608226	-0.21924648
78	0x3dc0cae4	0.09413698
79	0xbe534bbc	-0.20634359
80	0x3d0f6b54	0.035014465
81	0x3dc79c1e	0.09746574
82	0xbdfd3081	-0.12362767
83	0xbe4f54b9	-0.20247163
84	0x3dfd6709	0.12373168
85	0x3e03a3da	0.12855473
86	0xbddb9248	-0.1072126
87	0x3d08d4f9	0.03340623
88	0x3d8a7137	0.06759875
89	0xbe45d323	-0.19318824
90	0x3d200591	0.03906781
91	0x3d127ca0	0.035763383
92	0xbd8ee7b6	-0.06977789
93	0x3d66e8d0	0.05637437
94	0x3dcf1a41	0.101124294
95	0xbd3f8ba8	-0.046764046
96	0x3d94b018	0.0726015
97	0x3d22d035	0.039749343
98	0x3e1a9892	0.15097263
99	0x3d053837	0.032524314
100	0x3d11676f	0.035499033
101	0xbde73a49	-0.11290414
102	0xbdc8ac45	-0.09798483
103	0xbdd082e2	-0.10181214
104	0xbd14bbd2	-0.036311932
105	0x3cff3f8c	0.031158231
106	0x3df009c5	0.117206134
107	0xbd009e65	-0.031401057
108	0xbdcfbbde	-0.10143255
109	0xbd32ff6f	-0.04370063
110	0xbe533f4f	-0.20629619
111	0x3cbcd61b	0.023051312
112	0x3c05d347	0.008168048
113	0x3e6ec177	0.23315988
114	0x3c9cece3	0.019155925
115	0x3e992cca	0.29916984
116	0x3e4c4efe	0.19952008
117	0x3d3014d1	0.042988602
118	0xbc7e1eb2	-0.015510248
119	0xbdb383bc	-0.08765361
120	0x3c88b729	0.0166889
121	0x3db287b8	0.087172925
122	0xbd641f23	-0.055693757
123	0x3c01bcae	0.00791852
124	0xbda45ca9	-0.08025486
125	0xbde793ec	-0.11307511
126	0xbe1769c2	-0.14786437
127	0xbe3608df	-0.17776822
128	0xbd801d06	-0.06255536
129	0xbd991089	-0.07473857
130	0xbe0cb81c	-0.13742107
131	0x3d927487	0.07151132
132	0xbd8a5f65	-0.06756476
133	0xbe24acd8	-0.1608156
134	0xbd81c896	-0.06337087
135	0x3d8b3cbf	0.06798696
136	0x3d272ea4	0.040815964
137	0x3dd77e82	0.10522176
138	0x3d45ce94	0.04829271
139	0x3e1d0d96	0.15337214
140	0x3d6ea052	0.058258362
141	0x3c44ada8	0.0120042935
142	0x3e38958b	0.18025796
143	0x3d0511e2	0.032487758
144	0x3e50eccd	0.20402832
145	0xbdae7bec	-0.0851973
146	0x3cb09407	0.02155496
147	0x3e756bda	0.23966923
148	0xbe5fa729	-0.2184111
149	0x3c8d72ef	0.017266719
150	0x3d9bbde1	0.07604576
151	0xbcdbdcdd	-0.026838714
152	0xbdf6f284	-0.12057975
153	0xbe369fbd	-0.17834373
154	0xbd365f83	-0.04452468
155	0x3e2587c0	0.16165066
156	0x3e0cab43	0.13737206
157	0x3d10742a	0.035267033
158	0xbe5e2aa4	-0.21695954
159	0xbe336b55	-0.17521413
160	0x3dd42a39	0.10359616
161	0x3dbccdc8	0.09218937
162	0x3e056ec5	0.13030536
163	0x3e3cfa82	0.18454936
164	0xbd04d966	-0.03243389
165	0x3d54216c	0.051789686
166	0x3c0d5f08	0.008628614
167	0xbcb4aa31	-0.02205381
168	0x3da4e62f	0.080517165
169	0xbd59ce28	-0.05317512
170	0xbcac707f	-0.021049736
171	0xbd624306	-0.0552397
172	0xbdf3e261	-0.11908413
173	0x3d130bfc	0.0359001
174	0xbce14861	-0.027500333
175	0xbe027282	-0.12738994
176	0x3df0196b	0.11723598
177	0x3d2d019d	0.042237867
178	0xbe121a21	-0.1426778
179	0x3d99bca5	0.07506684
180	0x3e410e4d	0.18853112
181	0x3d099702	0.033591278
182	0xbe8839f3	-0.26606712
183	0xbdcbd89c	-0.09953424
184	0xbe8b8948	-0.27253175
185	0x3d775625	0.06038489
186	0x3d500d7e	0.050794117
187	0xbd624607	-0.055242565
188	0xbd026c19	-0.03184137
189	0x3ec0f113	0.37683925
190	0x3e079d09	0.13243498
191	0xbdd643c7	-0.10462146
192	0x3d849a55	0.06474749
193	0xbe200694	-0.1562751
194	0x3e46d25c	0.19416183
195	0x3b663df9	0.0035132153
196	0xbc172bd6	-0.00922676
197	0x3d5606e0	0.05225265
198	0x3d8cee2d	0.06881366
199	0x3cf64d8b	0.030066272
200	0x3d4ca765	0.049964327
201	0xbdcf5b0b	-0.10124787
202	0xbdfecc45	-0.12441305
203	0xbdcc239c	-0.099677294
204	0x3e850559	0.25980642
205	0x3c83eef9	0.016105162
206	0xbe7c10be	-0.24615762
207	0xbddf8a88	-0.109150946
208	0xbde5dadc	-0.11223385
209	0xbe69ff06	-0.2285119
210	0x3d1eb6d1	0.038748566
211	0xbe0b8f6f	-0.13628934
212	0x3e6bb7b1	0.23019291
213	0x3e18bf73	0.14916782
214	0xbe54a976	-0.20767769
215	0xbd00710d	-0.031357814
216	0x3e14a588	0.1451627
217	0xbe2cd03c	-0.1687631
218	0x3d3e9bb3	0.046535205
219	0xbd8a7642	-0.06760837
220	0xbe0da472	-0.13832262
221	0x3da95097	0.082673244
222	0x3c285eb6	0.010276487
223	0x3e3f6f67	0.1869484
224	0xbd39bd88	-0.045346767
225	0x3d2fa789	0.042884383
226	0xbd78545b	-0.060627323
227	0xbe2702c4	-0.16309649
228	0x3a23a230	0.00062421244
229	0xbe55bd19	-0.20872916
230	0xbe2abcd2	-0.16673592
231	0xbe0d4037	-0.13794027
232	0xbdddd54c	-0.10831699
233	0x3d76871e	0.06018745
234	0x3d85364f	0.06504499
235	0x3d846569	0.06464655
236	0xbddebba4	-0.10875633
237	0xbca0ea23	-0.019642895
238	0xbce71e84	-0.028212793
239	0xbde632b8	-0.112401426
240	0xbe3dcddd	-0.18535562
241	0xbd154ab0	-0.03644818
242	0xbd844149	-0.06457765
243	0xbe6d9af1	-0.23203637
244	0x3ddb228e	0.1069995
245	0x3e021e09	0.1270677
246	0x3d1e853d	0.038701285
247	0xbda0bab9	-0.078481145
248	0xbd5a06ea	-0.05322925
249	0x3e61309a	0.21991196
250	0xbe41caf9	-0.18925084
251	0xbd4cf010	-0.05003363
252	0xbdcb8af6	-0.09938614
253	0x3ce03c08	0.027372375
254	0xbe3b6200	-0.18299103
255	0xbea91f1d	-0.3303155

conv2.bias f4 [20]
0	0x3d89b00c	0.067230314
1	0xbc004018	-0.007827781
2	0x3df77f2f	0.12084805
3	0xbdc8222a	-0.09772141
4	0x3c146c12	0.009058969
5	0xbd8aeff8	-0.06784052
6	0xbb9350e3	-0.0044957264
7	0xbc07554b	-0.0082600815
8	0xbdf1d030	-0.11807287
9	0xbdb47b93	-0.088126324
10	0x3e2c2863	0.16812281
11	0x3dbe390c	0.092882246
12	0x3d4e76b7	0.050406184
13	0x3db6f565	0.08933524
14	0x3d617838	0.05504629
15	0x3dc2c426	0.095100686
16	0x3d1b2c0e	0.03788381
17	0xbc96391e	-0.018337782
18	0xbb7a24c2	-0.0038168882
19	0xbd249a79	-0.04018638

conv2_bn.weight f4 [20]
0	0x3ea6293d	0.32453337
1	0x3ee2d4f1	0.44303086
2	0x3f393a12	0.72354233
3	0x3f08c101	0.534195
4	0x3ee2c2f1	0.44289353
5	0x3f0250cf	0.50904554
6	0x3e354939	0.17703713
7	0x3e89b513	0.2689596
8	0x3f06c7f4	0.52648854
9	0x3ee3235a	0.4436291
10	0x3efb307c	0.49060428
11	0x3edcc79e	0.43121046
12	0x3ee011b1	0.43763497
13	0x3f00fe1e	0.5038775
14	0x3f07fe35	0.53122264
15	0x3e739c3f	0.23790072
16	0x3ee250ed	0.44202366
17	0x3ea2cfe2	0.31799227
18	0x3ec39412	0.38198906
19	0x3ec3255c	0.3811444

conv2_bn.bias f4 [20]
0	0xbd067125	-0.032822747
1	0x3d67c304	0.056582466
2	0x3dd9f88a	0.10643108
3	0xbcf16548	-0.02946724
4	0xbd0400a1	-0.032227162
5	0x3d082f0f	0.033248004
6	0x3d830ef5	0.06399337
7	0xbd1d5515	-0.03841122
8	0x3d834032	0.06408729
9	0x3d23861a	0.03992281
10	0x3e019e4d	0.12658043
11	0x3e280722	0.16408971
12	0x3d92172a	0.071333244
13	0x3e77c981	0.24197961
14	0xbdbc2b50	-0.09187949
15	0xbc64e9f1	-0.013971792
16	0x3d6750f0	0.056473672
17	0xbd223af6	-0.03960701
18	0xbb9ea7f9	-0.0048418012
19	0xbc1c2ba7	-0.009531892

conv2_bn.running_mean f4 [20]
0	0x3e8cd965	0.2750961
1	0x3f2cd1af	0.6750745
2	0x3fb65742	1.4245379
3	0xbe8abaf5	-0.27095762
4	0xbf5e24ae	-0.8677472
5	0x3eeb346f	0.4593844
6	0x3d074e45	0.033033628
7	0xbec42a4d	-0.38313523
8	0xbed08f98	-0.40734553
9	0x3e0e5148	0.13898194
10	0x3f98a2c6	1.1924675
11	0xbe256fb6	-0.16155896
12	0x3ece9cdb	0.40354046
13	0xbfa8a474	-1.3175187
14	0x3ebb1f10	0.36547136
15	0xbe3c68a6	-0.18399295
16	0x3f5ce216	0.8628248
17	0xbe917ba0	-0.2841463
18	0x3f5cab57	0.86198944
19	0x3f978b10	1.1839314

conv2_bn.running_var f4 [20]
0	0x3f19e511	0.6011515
1	0x3f868a70	1.0510998
2	0x3fc61655	1.5475565
3	0x3f514671	0.8174811
4	0x3feae899	1.8352233
5	0x3f6cabcc	0.9244964
6	0x3f0fd6be	0.56187046
7	0x3f07c924	0.5304129
8	0x3f717480	0.9431839
9	0x3f35ccbc	0.71015525
10	0x3f986b53	1.1907753
11	0x3f7c1f42	0.98485196
12	0x3fbebdfd	1.490173
13	0x3fb654f7	1.4244679
14	0x3f42f7a1	0.761591
15	0x3f3984a1	0.72468
16	0x3f0ba567	0.5454926
17	0x3f1f782f	0.6229276
18	0x3ef1e156	0.4724223
19	0x3f6e62d3	0.93119544

fc1.weight f4 [50, 320]
0	0x3ea6fa38	0.32612777
1	0xbdb22fe2	-0.08700539
2	0x3d89aa60	0.067219496
3	0x3e5e97af	0.2173755
4	0x3b9b6c7a	0.004743156
5	0xbe8563be	-0.2605266
6	0xbe0bd986	-0.13657197
7	0xbe130cf5	-0.14360411
8	0x3d96ed76	0.07369511
9	0xbd1608ad	-0.036629368
10	0xbe5016f0	-0.2032125
11	0xbbec4d34	-0.007211352
12	0x3aa77e36	0.0012778703
13	0xbb82f20e	-0.0039961403
14	0xbe28618d	-0.16443463
15	0xbe05992b	-0.1304671
16	0x3c82f00c	0.015983604
17	0xbe03d402	-0.12873843
18	0x3e96fa73	0.29487953
19	0x3dcecdaf	0.10097825
20	0xbde176fb	-0.11009022
21	0xbe59cbd1	-0.21269156
22	0xbcc585bf	-0.024111627
23	0xbdd8e964	-0.10591391
24	0x3d0df97b	0.03466175
25	0xbd996e2c	-0.07491717
26	0x3d98d468	0.07462388
27	0x3d849a0d	0.06474695
28	0xbdbed5cc	-0.09318122
29	0x3ccc3297	0.024926467
30	0xbc21d794	-0.009878058
31	0x3c425c54	0.011862833
32	0x3e1b3a3d	0.15158935
33	0xbd1261db	-0.035737853
34	0xbdbad004	-0.09121707
35	0xbdf7be9d	-0.120969035
36	0xbdbbcfa4	-0.09170464
37	0x3d9b26b8	0.075757444
38	0xbd866019	-0.06561298
39	0x3d503ecb	0.050841134
40	0x3e39e343	0.181531
41	0x3cbd4766	0.023105334
42	0x3e6fda79	0.23423184
43	0xbe32e005	-0.17468269
44	0xbd8e7755	-0.069563545
45	0x3d4bf773	0.049796533
46	0xbd1540ff	-0.03643894
47	0xbdfff58a	-0.12498005
48	0xbdba0425	-0.09082822
49	0x3d83fbcc	0.06444511
50	0x3d3d6b7f	0.046245094
51	0x3df3f08c	0.11911115
52	0x3c5501a1	0.013000877
53	0x3e3fb156	0.18719992
54	0xbd883d82	-0.06652357
55	0xbeb8e284	-0.36110318
56	0xbdb67ffd	-0.089111306
57	0xbde903de	-0.11377691
58	0x3e4c2b93	0.19938497
59	0xbe8c9fbf	-0.27465627
60	0x3dd77bd6	0.10521667
61	0x3dcae30a	0.099065855
62	0x3e6f9e09	0.2340013
63	0xbddd0088	-0.10791117
64	0x3e0e7021	0.13909961
65	0xbc059506	-0.008153206
66	0xbdb205ce	-0.086925134
67	0xbdcf4fa6	-0.101226136
68	0xbdfc2460	-0.123116255
69	0x3defe482	0.11713506
70	0x3e5fd2d8	0.21857774
71	0x3d23209b	0.039826017
72	0xbe27193a	-0.16318217
73	0xbcad74af	-0.021173803
74	0xbdc33069	-0.09530718
75	0x3c7823da	0.015145266
76	0x3de1fee7	0.11034947
77	0xbe922a2b	-0.28547797
78	0x3dd4a473	0.10382929
79	0x3ca3db11	0.02000192
80	0xbbc83058	-0.0061092786
81	0xbe24b098	-0.1608299
82	0xbd6b230c	-0.05740647
83	0x3e915207	0.28382894
84	0xbe32f225	-0.17475183
85	0xbdc23cca	-0.09484251
86	0xbcaefb3b	-0.02136003
87	0xbd8f5662	-0.06998898
88	0xbe360d3a	-0.17778483
89	0x3ad33af6	0.0016115594
90	0x3cfadb32	0.030622099
91	0xbd95c797	-0.07313459
92	0x3d0a5c3f	0.03377938
93	0xbe27d57a	-0.16390029
94	0x3dfc5bc6	0.12322192
95	0x3d80a967	0.06282311
96	0x3e9267b3	0.2859474
97	0x3ba308d8	0.0049754195
98	0x3e9327cd	0.28741303
99	0xbdde79ec	-0.108630985
100	0xbe155cb1	-0.1458614
101	0x3d74b2bc	0.059740767
102	0x3d664a2a	0.056223072
103	0x3d77edfa	0.060529687
104	0xbe5ccb7c	-0.21561998
105	0x3d820407	0.063484244
106	0x3dade139	0.084902234
107	0x3d1f99ab	0.03896491
108	0x3da81318	0.08206767
109	0xbdb88893	-0.090104245
110	0xbd49bf15	-0.049254496
111	0x3e398dee	0.18120548
112	0xbcef6a2a	-0.029225428
113	0x3d9453a7	0.07242518
114	0x3d6921fd	0.05691718
115	0xba805dd0	-0.0009793583
116	0x3d952366	0.07282142
117	0x3d7439a8	0.059625298
118	0xbe51cfb5	-0.2048939
119	0xbdce75c9	-0.100810595
120	0xbd171d82	-0.036893375
121	0xbcaf8fde	-0.021430906
122	0x3d636609	0.05551723
123	0x3e813f1a	0.25243455
124	0xbde041b0	-0.10950029
125	0x3e0c3cd9	0.13695087
126	0xbc49807d	-0.0122987
127	0x3dbc248b	0.091866575
128	0xbdf7af2b	-0.120939575
129	0x3e265aa3	0.16245513
130	0x3e1f0980	0.15530968
131	0x3d96c9e0	0.07362723
132	0xbdb6e5ad	-0.08930526
133	0x3e16a8b2	0.1471279
134	0xbd4c5325	-0.04988398
135	0x3e15ab52	0.14616135
136	0x3ded8788	0.11598116
137	0x3e7b50f4	0.245426
138	0xbc877fe8	-0.016540483
139	0xbe1e6487	-0.15468036
140	0x3df0e355	0.1176211
141	0x3d880632	0.06641807
142	0xbdd2c167	-0.10290795
143	0xbe282161	-0.16418983
144	0x3c88c18c	0.016693853
145	0x3e60d3d6	0.21955809
146	0xbc1ff93e	-0.009764014
147	0xbdce18dd	-0.10063336
148	0x3e01f9a3	0.12692885
149	0x3cf6cfd6	0.0301284
150	0xbdf0c436	-0.11756174
151	0xbe2abd21	-0.1667371
152	0xbdc9cc5f	-0.09853434
153	0xbd7a500c	-0.061111495
154	0x3d8b07b1	0.067885764
155	0x3cf983ae	0.030458298
156	0x3c08f290	0.008358613
157	0xbdedbd1d	-0.11608336
158	0xbe169ef9	-0.14709081
159	0xbe8aed7f	-0.2713432
160	0xbe37a00e	-0.1793215
161	0x3dfe7c03	0.12425997
162	0x3de6f89e	0.11277889
163	0xbec56149	-0.38550785
164	0x3d2780ca	0.040894307
165	0xbdbb2259	-0.09137411
166	0x3dc9daa9	0.09856159
167	0x3d02503d	0.031814802
168	0x3e008f16	0.12554583
169	0xbdd5516e	-0.10415922
170	0xbd766e65	-0.060163874
171	0x3daabb84	0.08336547
172	0xbe4d4977	-0.20047556
173	0x3e869fbf	0.26293752
174	0x3e2bf14b	0.16791265
175	0x3d89fd49	0.067377634
176	0x3dc64c4c	0.09682521
177	0xbe61f5b7	-0.22066389
178	0x3df8b3da	0.12143679
179	0x3cb993cd	0.022653485
180	0x3e519ad3	0.20469217
181	0x3d83a3fc	0.06427762
182	0x3d99acee	0.07503687
183	0xbd34685f	-0.04404485
184	0xbdfa4c33	-0.12221565
185	0xbdfa7718	-0.122297466
186	0x3e1a941f	0.15095566
187	0xbdd202fe	-0.10254477
188	0xbd8cebac	-0.06880888
189	0x3d840df3	0.06447973
190	0xbdae9566	-0.08524589
191	0x3e7f13c7	0.24909888
192	0x3d7e6edf	0.062117454
193	0x3cf1236f	0.029435841
194	0x3e249df1	0.16075875
195	0x3dd341dc	0.10315296
196	0x3e6e112e	0.23248741
197	0x3ddd27de	0.1079862
198	0x3c04ea7a	0.008112544
199	0x3e321ead	0.17394514
200	0x3ddeae52	0.10873093
201	0xbe0a5dfd	-0.13512416
202	0x3e4806de	0.1953387
203	0xbd135eab	-0.035978954
204	0xbb25de23	-0.0025309406
205	0x3d263da2	0.04058612
206	0x3ddd3e97	0.10802954
207	0x3d830f7c	0.06399438
208	0xbd672198	-0.056428522
209	0xbdcaa1c1	-0.09894133
210	0x3e6a0660	0.22853994
211	0x3d9a6421	0.07538629
212	0xbd5731b5	-0.05253764
213	0x3dc1d9b9	0.094653554
214	0xbd745640	-0.059652567
215	0xbea043e5	-0.313018
216	0xbe0aadbd	-0.13542838
217	0x3c1b836e	0.0094917845
218	0xbd9c8294	-0.07642093
219	0x3df1c774	0.11805621
220	0x3dbfcd52	0.093653336
221	0x3eb9298e	0.36164516
222	0xbddcce3d	-0.10781524
223	0xbcfc797d	-0.030819649
224	0xbd897e4b	-0.067135416
225	0x3e2db7e8	0.16964686
226	0xbdcbfb31	-0.0996002
227	0x3e24f7d7	0.16110168
228	0x3dd0ff52	0.102049485
229	0xbd9ec9fc	-0.07753369
230	0xbe2a3ce4	-0.1662479
231	0xbd23e884	-0.040016666
232	0x3e2f0663	0.1709228
233	0xbd3c4229	-0.045961533
234	0xbe374172	-0.17896059
235	0x3c9256f8	0.017863736
236	0xbd4ff5aa	-0.050771393
237	0xbe924e62	-0.28575426
238	0xbe8673bf	-0.26260182
239	0x3e89c9f0	0.2691188
240	0xbb23bafa	-0.0024983273
241	0xbec8538d	-0.39126244
242	0xbdbfc804	-0.09364322
243	0x3e2f4378	0.17115581
244	0x3bf933a2	0.007605032
245	0x3e3e86a4	0.18606049
246	0xbe04be81	-0.12963296
247	0x3d4bb772	0.049735494
248	0x3c8e76f4	0.017390706
249	0x3c889bda	0.016675878
250	0x3debe621	0.11518503
251	0xbd38a408	-0.045078307
252	0x3d481f9a	0.048858263
253	0x3e0e94fb	0.13924019
254	0x3d87c6a8	0.066296875
255	0xbc2c2b11	-0.010508315

fc1.bias f4 [50]
0	0xbe525d48	-0.20543396
1	0xbd669570	-0.05629486
2	0x3d797776	0.060904942
3	0xbd353278	-0.044237584
4	0x3d24acab	0.04020373
5	0x3d3a7d68	0.045529753
6	0x3e2469fc	0.16056055
7	0xbe476831	-0.1947334
8	0xbe4714ec	-0.19441575
9	0x3e08e9a3	0.13370375
10	0x3e1a759d	0.15083928
11	0x3d514c49	0.05109814
12	0xbc7ecfc8	-0.015552469
13	0x3dfa9e3b	0.12237211
14	0x3cf7301f	0.030174313
15	0xbd94ac3d	-0.07259414
16	0xbe668c5f	-0.22514485
17	0x3d92c9b5	0.07167379
18	0x3dcf7fec	0.10131821
19	0x3c2d5f14	0.01058175
20	0xbe1548c1	-0.14578535
21	0x3c9249ca	0.017857451
22	0x3dc2d225	0.09512738
23	0x3ced9662	0.029002372
24	0xba8e0288	-0.0010834495
25	0xbda5f158	-0.08102673
26	0x3decf718	0.11570567
27	0x3dd9056a	0.10596736
28	0x3de88b06	0.113546416
29	0xbd0c4d56	-0.03425344
30	0x3e00f1a5	0.1259218
31	0xbab3de0a	-0.0013722789
32	0xbe04bc0a	-0.12962356
33	0x3cf68b35	0.030095676
34	0xbd31105a	-0.043228485
35	0x3d8af8eb	0.067857586
36	0xbdb6162e	-0.08890949
37	0x3ddb381e	0.10704063
38	0x3d82617b	0.06366249
39	0xbe71351a	-0.23555413
40	0xbcd8c5e4	-0.02646155
41	0x3da61e45	0.08111242
42	0x3d919bb1	0.07109774
43	0xbd576e60	-0.052595496
44	0x3c26200e	0.010139478
45	0xba7531a0	-0.0009353403
46	0x3c29ea7a	0.010370845
47	0xbd8806c5	-0.06641916
48	0xbe225e57	-0.158563
49	0xbdaa6135	-0.08319322

fc1_bn.weight f4 [50]
0	0x3f031e3c	0.5121801
1	0x3f144500	0.57917786
2	0x3ee55863	0.44793996
3	0x3f05ad87	0.52217907
4	0x3f34d583	0.70638293
5	0x3eab31cb	0.33436427
6	0x3f46920c	0.775666
7	0x3f204bad	0.6261547
8	0x3f306b98	0.68914175
9	0x3f40b1ed	0.75271493
10	0x3ebde2ad	0.37087002
11	0x3ecebe43	0.40379533
12	0x3f372602	0.7154237
13	0x3f2ca071	0.67432314
14	0x3eefb783	0.46819696
15	0x3e6eb710	0.2331202
16	0x3f036c0a	0.5133673
17	0x3f38970c	0.7210548
18	0x3f07567b	0.52866334
19	0x3f12d0a6	0.5734962
20	0x3f0554f8	0.5208278
21	0x3f27ed42	0.655964
22	0x3eccfbf0	0.40035963
23	0x3f1e05aa	0.6172739
24	0x3e623686	0.22091112
25	0x3f26b5cf	0.6512117
26	0x3f4b8629	0.7950159
27	0x3f2482a5	0.6426185
28	0x3ec11ce2	0.37717348
29	0x3f098bab	0.5372874
30	0x3f03eb38	0.5153079
31	0x3f01ebc9	0.50750405
32	0x3f132617	0.57479995
33	0x3f1ffb04	0.62492394
34	0x3edeefd2	0.43542343
35	0x3ed034b1	0.406652
36	0x3ed62255	0.41823068
37	0x3f0028b0	0.50062084
38	0x3ef38bef	0.47567698
39	0x3f11c496	0.5694059
40	0x3edbbae2	0.42916018
41	0x3f22a5b1	0.63534075
42	0x3f8a25ae	1.0792749
43	0x3ec4aa43	0.3841115
44	0x3d6fea40	0.058573008
45	0x3f0e9efa	0.5571133
46	0x3ec2d685	0.3805429
47	0x3eb24a8c	0.348225
48	0x3ed2628b	0.41090807
49	0x3f3e6e89	0.74387413

fc1_bn.bias f4 [50]
0	0x3dbebf35	0.093138136
1	0xbe1e08e8	-0.15433085
2	0x3ea3bc09	0.31979397
3	0x3e9c0167	0.3046982
4	0x3e9c2ce7	0.30503008
5	0x3d270f02	0.040785797
6	0x3e6fbba7	0.23411427
7	0xbd9b8cec	-0.07595238
8	0x3e106abe	0.14103219
9	0xbda7de11	-0.08196653
10	0x3c869516	0.016428512
11	0x3def109f	0.11673092
12	0x3d6c8a29	0.057748947
13	0x3c9b6dd6	0.018973272
14	0x3db05633	0.08610191
15	0x3da7a7c8	0.081862986
16	0xbdf05340	-0.11734629
17	0x3e2ec0be	0.17065713
18	0x3ecca8f2	0.39972645
19	0x3e11ad15	0.14226182
20	0x3dd4a7d3	0.103835724
21	0x3ebae8de	0.3650579
22	0x3e14c821	0.14529468
23	0xbdefdfd0	-0.11712611
24	0x3dc0bcec	0.09411034
25	0xbdce790a	-0.1008168
26	0x3cd79a6f	0.026318757
27	0xbd198055	-0.037475903
28	0xbd931703	-0.071821235
29	0x3d98a7f2	0.07453908
30	0x3daee2b8	0.08539337
31	0x3e15e2a3	0.14637236
32	0xbddceeb1	-0.10787714
33	0x3e0e990b	0.13925569
34	0x3e2b8514	0.16749984
35	0x3e866706	0.26250476
36	0x3e85d6a2	0.26140314
37	0x3cc82966	0.024433803
38	0x3d12b558	0.035817474
39	0x3e163701	0.1466942
40	0x3d7f8975	0.06238695
41	0x3e2dd239	0.16974725
42	0x3e95117f	0.2911491
43	0x3eb5d30b	0.35512576
44	0xbc9f27f6	-0.019428235
45	0x3e16c256	0.14722571
46	0x3d63846e	0.055546217
47	0xbcbf9b33	-0.023389434
48	0x3d22b0a3	0.039719235
49	0x3e49a7c8	0.1969291

fc1_bn.running_mean f4 [50]
0	0x3f790ef2	0.9728843
1	0xc03bf89b	-2.9370487
2	0xbfcd89d6	-1.6057689
3	0xbf8db6b5	-1.1071383
4	0x3f9da445	1.2315756
5	0x3e25ee49	0.1620418
6	0x3e56960f	0.2095568
7	0xbf97750c	-1.1832595
8	0xbf3556f6	-0.70835817
9	0xbf0f3436	-0.5593904
10	0x3f467d69	0.7753511
11	0xbe9c5c84	-0.30539334
12	0x3ee2108e	0.44153255
13	0x3f7cc2b4	0.98734593
14	0xc0165ec2	-2.3495336
15	0xbf9ee98a	-1.241502
16	0x3edf59be	0.43623155
17	0x3dca3e28	0.098751366
18	0x3f8137ab	1.0095114
19	0xbfc5ad7a	-1.5443566
20	0x3f78b032	0.9714385
21	0x3e85d1b4	0.26136553
22	0xbf040fd8	-0.51586676
23	0x3f77e455	0.9683278
24	0x3f1ae3ba	0.60503733
25	0x3f95b4ef	1.1695842
26	0x3da78346	0.08179335
27	0xbfa276cb	-1.2692503
28	0xbe6c0f05	-0.23052604
29	0xbd87a69b	-0.06623574
30	0x3ec6677e	0.38750833
31	0x3fdaeeb4	1.7104096
32	0xbf67cb55	-0.90544635
33	0xbfa979e2	-1.3240321
34	0xbf31b4b0	-0.6941633
35	0x3f13bdbe	0.577114
36	0x401be23b	2.435683
37	0xbfb8c0d5	-1.4433848
38	0xc0290fbd	-2.6415856
39	0xbf199bd6	-0.6000341
40	0x3cec5eeb	0.028853854
41	0xbf3103fa	-0.6914669
42	0xbbc00fa9	-0.005861242
43	0x3fed97cf	1.8561953
44	0x3f8bcef9	1.0922538
45	0x3eb5fff3	0.35546836
46	0xbeb6e574	-0.35721934
47	0xbdf456ce	-0.11930619
48	0xbfb72728	-1.4308825
49	0x3f05fbe6	0.5233749

fc1_bn.running_var f4 [50]
0	0x3e89eb1c	0.26937187
1	0x3ec47f8c	0.3837856
2	0x400316ca	2.048266
3	0x3fff776c	1.995832
4	0x3fac5573	1.3463577
5	0x3f60452e	0.8760556
6	0x3f59b506	0.85041845
7	0x3f218a40	0.6310158
8	0x3fb4e1db	1.4131426
9	0x3eebe6ca	0.46074516
10	0x3f155d91	0.58345896
11	0x3f20fc8c	0.62885356
12	0x3f47c405	0.7803348
13	0x3f8148a7	1.0100297
14	0x4048abe5	3.1354916
15	0x3ef0e2d3	0.47048053
16	0x3e808a50	0.25105524
17	0x3f989656	1.1920879
18	0x3f258cc2	0.64667904
19	0x3ed7afd9	0.4212635
20	0x3eb92340	0.36159706
21	0x3f30c38f	0.690484
22	0x3eebcda3	0.46055326
23	0x3e8943cf	0.26809546
24	0x3eaa83fb	0.33303818
25	0x3fae8568	1.3634462
26	0x3f3edff4	0.74560475
27	0x3fa6e8d3	1.3039802
28	0x3fb23857	1.3923444
29	0x3f807317	1.0035123
30	0x3ed05c42	0.40695387
31	0x3ead3311	0.33828023
32	0x3f0e17e3	0.555052
33	0x3f7630c4	0.9616816
34	0x3eb01ec5	0.34398475
35	0x3eea5a5f	0.45772073
36	0x3edc3513	0.43009242
37	0x3ef6c525	0.48197284
38	0x3ead9541	0.33902934
39	0x3f0aa31e	0.5415515
40	0x3edc93ac	0.43081415
41	0x3f094291	0.536172
42	0x3f33351f	0.7000293
43	0x3ed6e61e	0.4197244
44	0x3f40990a	0.7523352
45	0x3f3c9ddb	0.7367837
46	0x3e95cb14	0.292565
47	0x3f7a3de2	0.97750676
48	0x3f600fe7	0.87524265
49	0x3f1175e8	0.56820536

fc2.weight f4 [10, 50]
0	0xbe218370	-0.15772796
1	0xbeabe84e	-0.33575672
2	0xbde2cf30	-0.11074674
3	0xbe6e7004	-0.23284918
4	0xbe694225	-0.22779138
5	0xbd8a3289	-0.0674792
6	0xbea2d6c0	-0.31804466
7	0xbca524e5	-0.020159194
8	0x3ea58dce	0.3233475
9	0xbe066c48	-0.13127244
10	0x3df30bb1	0.11867464
11	0xbe355205	-0.17707069
12	0x3e845e76	0.25853318
13	0xbe65d180	-0.22443199
14	0xbd81dd80	-0.06341076
15	0xbe58b86e	-0.21164104
16	0x3e24a4f1	0.16078545
17	0x3d4b2299	0.04959354
18	0x3ec7dd22	0.39035898
19	0xbe1bb4bb	-0.15205662
20	0x3df569bc	0.11983058
21	0x3cfaf7c5	0.030635724
22	0xbe87265a	-0.26396447
23	0x3d1ef3c6	0.0388067
24	0x3e857e62	0.26072985
25	0xbe4371a0	-0.19086313
26	0x3ec0abb9	0.37631014
27	0x3f1d4a52	0.6144153
28	0x3bf7c0fc	0.0075608473
29	0xbddb80f5	-0.10717956
30	0xbdfb4463	-0.12268903
31	0xbd987559	-0.07444257
32	0x3d8ae268	0.06781465
33	0xbe578784	-0.21047789
34	0x3d60488d	0.05475669
35	0x3c9d51f7	0.019204123
36	0x3cbe95e2	0.02326483
37	0xbd43d123	-0.04780687
38	0xbde417ae	-0.11137329
39	0xbddb4e31	-0.10708273
40	0xbe0d0f22	-0.13775304
41	0xbe017b16	-0.1264461
42	0xbed29920	-0.4113245
43	0xbdcc1317	-0.099645786
44	0x3df69b61	0.12041355
45	0x3b7e8da8	0.0038841758
46	0x3e58a128	0.21155226
47	0x3dc879a7	0.09788828
48	0xbd4ab196	-0.049485765
49	0x3f1d1832	0.61365044
50	0xbe42d586	-0.19026765
51	0x3e655bf7	0.22398363
52	0x3ecda2ef	0.4016337
53	0x3f02a503	0.5103304
54	0xbe7abf37	-0.24487005
55	0xbe0fb53c	-0.14033979
56	0xbeb28210	-0.34864855
57	0x3d524631	0.05133647
58	0xbea2dfe8	-0.31811452
59	0x3e5fb198	0.2184509
60	0x3e6b67b9	0.22988786
61	0xbe02acf8	-0.12761295
62	0xbadd6905	-0.001689226
63	0xbe9f1054	-0.31067145
64	0x3de90fa2	0.11379935
65	0x3e379d85	0.17931183
66	0x3e1f6391	0.15565325
67	0xbe6bc393	-0.23023824
68	0xbe0a8c31	-0.13530041
69	0x3ee6b956	0.45063275
70	0xbe74e474	-0.23915273
71	0xbe46f8e1	-0.19430877
72	0x3ea55ac6	0.32295817
73	0xbe8366db	-0.2566441
74	0xbe118653	-0.14211397
75	0xbc0a22b3	-0.0084311245
76	0xbdf2bc86	-0.11852364
77	0xbcf53804	-0.029933937
78	0x3df0ec58	0.11763829
79	0xbd099d8e	-0.03359752
80	0xbe19024b	-0.14942281
81	0xbde1c839	-0.110245176
82	0xbbfa6ce1	-0.007642374
83	0x3eb895aa	0.36051685
84	0xbe5dc5f0	-0.21657538
85	0xbede4584	-0.4341241
86	0xbe161ca0	-0.14659357
87	0x3e710bca	0.23539653
88	0x3da92058	0.08258122
89	0x3de0007f	0.109375946
90	0xbe7db50c	-0.24776095
91	0xbdf26654	-0.11835924
92	0xbd9406b6	-0.072278425
93	0x3d38a9e9	0.045083914
94	0xbdf3007a	-0.11865325
95	0x3ce2435f	0.027620016
96	0x3d643171	0.055711213
97	0xbe07fd57	-0.13280235
98	0x3e9558f7	0.29169437
99	0xbcf85501	-0.03031397
100	0x3cbd1eae	0.023085918
101	0xbe8078f8	-0.25092292
102	0xbe74c2de	-0.23902461
103	0xbe526d39	-0.20549478
104	0x3ce1982a	0.027538378
105	0x3d96767b	0.07346817
106	0xbc804d1c	-0.015661769
107	0x3e691b09	0.2276422
108	0x3ca73e6a	0.020415504
109	0x3e775718	0.24154317
110	0x3bd8a304	0.00661123
111	0xbd9f4ca6	-0.077782914
112	0x3dfb13c2	0.12259628
113	0x3ed54326	0.41652793
114	0xbe4cc119	-0.19995536
115	0xbe2eae0d	-0.17058583
116	0x3d6f15dc	0.058370456
117	0xbe711593	-0.23543386
118	0x3e39264f	0.1808102
119	0x3d0057f1	0.031333867
120	0xbd7c9de9	-0.061674032
121	0xbe512fb1	-0.20428349
122	0x3c5599c4	0.013037149
123	0x3d132391	0.03592259
124	0x3d09e029	0.03366104
125	0x3e448932	0.19192961
126	0x3ec45aaf	0.38350436
127	0xbe59e6bb	-0.21279423
128	0x3d1e75e6	0.038686655
129	0x3dd627ae	0.10456787
130	0xbdb54bcc	-0.08852348
131	0x3e294043	0.1652842
132	0xbca6741c	-0.020319037
133	0x3e089991	0.13339831
134	0x3d0354a2	0.032063134
135	0x3e9d63f5	0.30740324
136	0xbe804822	-0.25055033
137	0xbda4e76c	-0.08051953
138	0x3c1e09b4	0.009645868
139	0x3d035307	0.032061603
140	0xbded09b5	-0.11574117
141	0xbd53c6a4	-0.05170311
142	0xbe693651	-0.22774626
143	0x3ec97108	0.39344049
144	0x3e171cfe	0.14757153
145	0xbdb8d003	-0.0902405
146	0x3e9e3546	0.3090002
147	0xbe46d8e4	-0.19418675
148	0x3e7145a9	0.2356173
149	0xbebd993c	-0.3703097
150	0x3d7eedc9	0.06223849
151	0xbe6788fc	-0.22610849
152	0xbe9cb75b	-0.3060864
153	0xbdabc9bf	-0.083880894
154	0x3ecefc4c	0.40426862
155	0xbed4690a	-0.41486388
156	0xbdcde4b3	-0.100533865
157	0xbe8742ea	-0.2641824
158	0x3cdfc27a	0.027314413
159	0x3da287c0	0.079360485
160	0xbdbee8fb	-0.09321781
161	0xba2a5b30	-0.00064985733
162	0x3eaae970	0.33381224
163	0xbe3ab7a7	-0.1823412
164	0x3e9040dc	0.28174484
165	0xbe1a8f4a	-0.15093723
166	0x3e278b0e	0.16361639
167	0xbdbdfce5	-0.092767514
168	0xbb8ec355	-0.0043567815
169	0x3e361904	0.1778298
170	0xbc430a2e	-0.0119042825
171	0xbe41d915	-0.18930466
172	0x3cd99466	0.02656002
173	0xbe84becf	-0.25926825
174	0xbd8dcc84	-0.06923774
175	0xbdb52d93	-0.08846583
176	0xbdfbbfda	-0.12292452
177	0xbead31cc	-0.33827055
178	0x3ccb1fc9	0.02479543
179	0xbc8419c6	-0.016125571
180	0x3f08ec1e	0.53485286
181	0xbc9b1d31	-0.018934818
182	0x3c89ba79	0.01681255
183	0x3d6ed200	0.05830574
184	0xba925216	-0.001116338
185	0xbd11a571	-0.035558168
186	0xbd281b8d	-0.0410419
187	0xbec7dc76	-0.39035386
188	0xbe006c91	-0.12541415
189	0x3e9b0a7a	0.3028143
190	0x3d3f5333	0.046710204
191	0x3dd85058	0.10562199
192	0xbe857bd6	-0.26071042
193	0x3e6f6ba5	0.23380907
194	0xbd10fe12	-0.03539855
195	0xbe766737	-0.24062811
196	0x3ba70f36	0.005098249
197	0xbd0d3f9e	-0.0344845
198	0xbdac8ba9	-0.084250756
199	0x3a8f16c4	0.0010916819
200	0x3e5eebc9	0.21769632
201	0xbd89b491	-0.067238934
202	0xbdea27fb	-0.11433407
203	0xbdb074fc	-0.08616063
204	0xbccc0cca	-0.024908442
205	0xbdcdc840	-0.1004796
206	0x3f02ec5a	0.51141894
207	0x3eb5f6a2	0.35539728
208	0xbe651b85	-0.22373779
209	0xbe20fb69	-0.15720905
210	0x3e04c34c	0.12965125
211	0xbdcd4ff6	-0.10025017
212	0xbdea78e5	-0.1144884
213	0xbe1d0086	-0.15332231
214	0xbe3a5851	-0.18197753
215	0x3e92e6cc	0.2869171
216	0xbe346947	-0.17618285
217	0x3e7344bb	0.23756687
218	0xbd9b4a82	-0.075825706
219	0x3dbb51c2	0.091464534
220	0xbe095bf4	-0.13413984
221	0xbd57971a	-0.052634336
222	0x3e9e2fdc	0.3089589
223	0x3dc94799	0.09828109
224	0xbe660522	-0.22462896
225	0xbcc8a67f	-0.024493454
226	0xbd2b1aa4	-0.041773453
227	0xbd3d9fb3	-0.04629488
228	0xbc80baae	-0.015714016
229	0x3d818cc5	0.06325678
230	0xbd093783	-0.033500206
231	0xbe423bea	-0.18968168
232	0xbe4a5f26	-0.19762859
233	0x3d8ad31c	0.06778547
234	0x3ecf3404	0.40469372
235	0x3c09ed4a	0.0084183905
236	0xbe31d81b	-0.17367594
237	0xbd131fa0	-0.03591883
238	0xbe89436e	-0.26809257
239	0xbe622843	-0.22085671
240	0x3d87613e	0.06610344
241	0xbd34ce6f	-0.044142183
242	0x3d8a2d42	0.067469135
243	0xbe7a50a8	-0.2444483
244	0x3dae9ad8	0.08525628
245	0x3eb481e8	0.3525536
246	0xbd944fad	-0.072417594
247	0x3de2cb2f	0.110739104
248	0x3e879796	0.26482838
249	0xbee26efc	-0.442253
250	0xbdb9794b	-0.09056338
251	0xbd99e074	-0.07513514
252	0xbe3dba45	-0.18528087
253	0xbdd78567	-0.10523491
254	0x3e24387c	0.16037172
255	0xbdae086a	-0.084976986

fc2.bias f4 [10]
0	0xbd7e17a4	-0.062034264
1	0xbc8158d8	-0.015789434
2	0x3db39205	0.087680854
3	0x3e562dc5	0.20915897
4	0xbc57e228	-0.013176478
5	0x3e105191	0.14093615
6	0xbe0df966	-0.13864669
7	0x3d9d1544	0.07670072
8	0xbd222410	-0.039585173
9	0x3db38e80	0.08767414
