es-rl/experiments/checkpoints/E001-MNIST_none/190107-183714.962642|sNES|MNIST|MNISTNet/state-dict-best-model.pkl (torch_old, 91552 bytes, 20 tensors)

conv1.weight f4 [10, 1, 5, 5]
00000000: ba33 c5be 9b9e 1bbe 00f9 85be 9c6b ad3d
00000010: 9728 3e3e 9e3e b2be b798 a2be c924 3d3c
00000020: 68a7 f23d 9fdb 053e c625 443e 50eb 6c3e
00000030: ad06 2bbe de1e 9fbc 2364 eebc 3008 71bd
00000040: 5d5d c93c e9ee 503d 590c b13e ae3c 573e
00000050: 07a3 8a3e d70f 41be 3f61 9bbd ae54 ee3c
00000060: 9bc3 88bd cc28 d6bc 1bab 49be ee64 04bd
00000070: 19b0 323d 24b8 95be 57d2 0f3e 573f 013e
00000080: ed08 94be 9133 82bd cfb9 80be 5ed6 d23d
00000090: dc6b 40be 9562 bb3d e87d cdbc 0d7e 25be
000000a0: 0818 07be 8127 abbe 419a 8fbe dc01 debe
000000b0: 309c 103e dd36 11bd 82ac bcbe 30e8 1d3d
000000c0: 9aff edbc 0bc6 f93e 36fe 0b3e 0d04 a33e
000000d0: c984 823d 4b6f b4bd a186 e93d 0119 b4bd
000000e0: 2e1d 073e 996d 9f3e c3fe a83e 49df 283e
000000f0: cfa5 76be de32 36be ec1a 82be 5213 123e
00000100: ea71 f4bc ba66 a4bd 9e0c bcbc 5abb 213d
00000110: 0199 57bd c67a 9abd 2f39 e0bd 7623 ccbd
00000120: b759 87be d89d 25be c947 89bd 98fc 4e3d
00000130: 2d98 61bd 0b68 66be 9a94 18be ecd3 053e
00000140: 8e45 86be c2ce 3a3e c151 c33e 5b8e acbd
00000150: b32d 593e 141f a03d 6fed c83b f2b2 f73c
00000160: 8639 3d3e e53b d9bc 95dd 7c3d 7539 153e
00000170: 93fa 983e bfef 2bbd 2309 e63c 698f 11be
00000180: d107 433d 21c2 f93d f06a ac3e fc77 0f3e
00000190: a879 48be bbe7 40be c87a d73d aeba 1ebd
000001a0: af75 bc3e 2c4c cb3c 3b92 d0be af88 69be
000001b0: 07c0 afbe 4699 d83d bab3 3dbd 5589 a6bd
000001c0: 35c7 df3d 2bb8 8d3d 1e47 45be 6495 27be
000001d0: 72e9 983e 5795 493d e295 fb3e 9caf a83d
000001e0: 41e0 263e 6ea5 5e3d 668a 463e b859 733e
000001f0: 07bb b8bd b9c4 da3d a76a 02be ea94 56be
00000200: 9013 36be 1bc9 b93c 054f 0a3e 1829 d93e
00000210: 8374 1b3e 3fdc 34bc 65f9 ae3d e070 8e3d
00000220: c865 cc3e 3270 bb3d bfb9 aebd 2dac cdbe
00000230: af88 8abd f79a 67bd 2752 873d 2244 473e
00000240: e3b4 6c3d 3550 45be 9ac7 603e 9a0d 54bd
00000250: 8e70 8a3e 4ef6 bd3d f4a1 723d 230d a63e
00000260: 5737 ff3d e913 1f3e 98e8 703e 7720 a0bc
00000270: f4bf e23e 3c46 de3d 45bd afbd 2dcc a63e
00000280: b294 903e e085 b33e ae9e a6bc cd68 023e
00000290: 8e96 ff3d d464 c3bd f0ec a6bd ac8e a23d
000002a0: a750 d7be 5e5b a33e 07de 57be 7bd5 e9bd
000002b0: 2d30 a7bd 5f27 61bd 0aeb be3d 81f7 9dbe
000002c0: 335a 32bd af6c 68be 08a7 8d3d 84ea 6f3e
000002d0: bac6 afbe 7982 9ebd ea13 97be d1f9 a73d
000002e0: 4c78 953e 5e0c 80be f355 c7bd 478b c8be
000002f0: 4b79 38be 5681 c53e 01c9 c9bc d1e8 cdbe
00000300: b0ba 36bb 4eb7 93be ade5 843e 736c 90bd
00000310: b2d9 83be f936 70be 0030 f1bb 949f 04bf
00000320: 264f a9bd 802f e73c be1b 61bd 5ece 6cbe
00000330: 66de 39bd deba f1be 425d 72be cd13 9f3d
00000340: 7ace de3b 465f abbc 3169 febd d2f5 5d3d
00000350: 60c3 f6bd 4b72 8d3e 0e2c 843e 149c 493d
00000360: 0ca4 e3bd 2b13 a9bd 214d 0ebe 2dec 083b
00000370: 25b5 d0bd 4225 c6be 3932 ffbd fe39 babd
00000380: 5bbd a43b 5a8f 9cbe 19c7 a23c 4c22 45be
00000390: 843e 1f3e 88e8 163e 685c 05be 5aa3 24be
000003a0: b603 2dbd 27d0 fb3d 9437 1a3d 78ea 7dbd
000003b0: 09a3 8bbe db3c 933e 659b 85bd 9d26 8b3d
000003c0: f246 243e 17c6 8bbd 7c39 0e3e 5ad5 343e
000003d0: 7f46 88be d988 48bd e0ac 9a3e 4855 ac3e
000003e0: 4671 9dbd 8cd5 7fbd
-0.38516027 -0.15197222 -0.26166534 0.084677905 0.18570171 -0.34813398 -0.31757137 0.011544415
0.118483365 0.1307206 0.19155034 0.2313664 -0.16701765 -0.019423898 -0.029100483 -0.0588457
0.024580652 0.051009092 0.34579733 0.21019241 0.27077505 -0.18853699 -0.075869076 0.029093113
-0.06677934 -0.0261425 -0.19694178 -0.032322817 0.04362497 -0.2924205 0.14045082 0.12621818
-0.2891306 -0.06357492 -0.2514176 0.102947935 -0.18791145 0.091496624 -0.02508445 -0.16161366
-0.13192761 -0.33428577 -0.28047374 -0.43360794 0.14122081 -0.035452712 -0.36850363 0.03855151
-0.029052544 0.48783907 0.13671193 0.31839028 0.06372983 -0.0881029 0.114026316 -0.087938316
0.13194725 0.31138304 0.33006868 0.16491427 -0.24086688 -0.17792842 -0.25411165 0.14265183
-0.029839475 -0.08027406 -0.022955235 0.039485313 -0.05263615 -0.075429484 -0.10948407 -0.09967701
-0.26435634 -0.16173494 -0.06703145 0.05053386 -0.055076767 -0.22500627 -0.14900437 0.13069123
-0.2622494 0.18242934 0.3814831 -0.0842559 0.21208839 0.07818428 0.00613182 0.030236695
0.18478975 -0.026517818 0.061734755 0.145727 0.29878673 -0.041976687 0.028080529 -0.14214863
0.047614876 0.1219523 0.33675337 0.14010614 -0.19577658 -0.18838398 0.105214655 -0.03875225
0.36808535 0.024816595 -0.40736565 -0.22806047 -0.34326193 0.105761096 -0.04631398 -0.08131663
0.109266676 0.06919893 -0.1926541 -0.16365582 0.29865605 0.049214687 0.4913779 0.0823662
0.16296484 0.054356985 0.19388732 0.23764694 -0.09020048 0.10682053 -0.12735997 -0.20955244
-0.177809 0.022678902 0.13506706 0.42414165 0.15181164 -0.011038839 0.08543662 0.06955123
0.39921403 0.09152259 -0.08531522 -0.40170422 -0.067643516 -0.05654427 0.06607466 0.19459584
0.057789695 -0.19268878 0.21951142 -0.051770784 0.27038997 0.092754945 0.05923648 0.32431898
0.12461727 0.15534939 0.23526227 -0.01954673 0.44287074 0.1085324 -0.08581022 0.3257765
0.28238446 0.35063076 -0.020339336 0.12735291 0.12479888 -0.09540716 -0.08150661 0.07937369
-0.4205372 0.31905645 -0.2108079 -0.11417671 -0.08163486 -0.054969188 0.09322174 -0.30852893
-0.043543052 -0.2269771 0.06916624 0.23429304 -0.34331304 -0.077397294 -0.2950738 0.082019456
0.29193342 -0.25009435 -0.097331904 -0.3916876 -0.1801502 0.38575238 -0.024631979 -0.40216687
-0.002788227 -0.28850788 0.2595648 -0.07051935 -0.25752026 -0.2345847 -0.0073604584 -0.51805997
-0.082670495 0.028220892 -0.054958098 -0.23125598 -0.04537811 -0.4721288 -0.23668388 0.077674486
0.0067995163 -0.020919453 -0.124224074 0.05418951 -0.120489836 0.2762626 0.2581486 0.049221113
-0.11115274 -0.08255609 -0.1389661 0.0020892725 -0.101908006 -0.387003 -0.12460751 -0.090930924
0.0050274557 -0.3057812 0.019870328 -0.19251364 0.15551192 0.14737141 -0.13023531 -0.16077939
-0.042239867 0.12295561 0.03765066 -0.061991185 -0.27272823 0.28757367 -0.0652378 0.06794474
0.16042688 -0.06824892 0.13889116 0.17659512 -0.26616284 -0.048958633 0.30210018 0.33658814
-0.07687621 -0.062459514

conv1.bias f4 [10]
00000000: 09d8 8cbd 1a5a acbe d717 03be aae5 923e
00000010: 52e8 03be 4c8b 93bc 5e7c 49be 271d d9bd
00000020: 5fe3 163e bc98 1d3e
-0.06877143 -0.33662492 -0.12802063 0.28690845 -0.12881592 -0.018010758 -0.19676349 -0.106012635
0.14735173 0.15390295

conv1_bn.weight f4 [10]
00000000: d002 643f 564a 913f 1b75 883f c83e 893f
00000010: e511 3d3f 3ede 7d3f 8fb3 843f ede9 a33f
00000020: 24ce 683f c907 863f
0.8906679 1.135081 1.0660738 1.0722284 0.7385543 0.9916724 1.0367297 1.2805763
0.90939546 1.0471126

conv1_bn.bias f4 [10]
00000000: 0af1 9ebd 3f33 ca3e 8e9c 01be cd19 863e
00000010: 18b6 cc3d 70a7 ee3b 22d2 123e 75f3 a4bd
00000020: 38c4 abbe 7ad9 d9bd
-0.07760818 0.39492223 -0.12657377 0.2619156 0.09995669 0.0072831437 0.14337972 -0.08054248
-0.3354814 -0.106371835

conv1_bn.running_mean f4 [10]
00000000: 2ac6 20bd f67b f5be fa56 e9bd 36f1 dd3e
00000010: 66e7 6fbd aebc 343d e2db 83bd 2fcc a2be
00000020: cb5e 4a3a 927d 2b3e
-0.039251484 -0.47946137 -0.113935426 0.43348092 -0.058570288 0.04412525 -0.06438424 -0.31796405
0.0007719814 0.1674712

conv1_bn.running_var f4 [10]
00000000: c53a a03f 8d58 5440 3970 5d3f 127f fa3f
00000010: 5c5a cf3f 176a 783f 570d 3940 da92 9b40
00000020: 0497 ce3f a2a1 8f3f
1.2517935 3.3179047 0.86499363 1.9570029 1.619945 0.9703688 2.8914392 4.861676
1.6139836 1.1221201

conv2.weight f4 [20, 10, 5, 5]
00000000: 5c2b 02be 126e dd3d a23f 88be 846f 8c3d
00000010: 1cbd 443d 455b e0bc c8e2 85bc dfe1 3a3e
00000020: ca06 53be 918e 3a3d d7ff 203e 3b24 a6be
00000030: c9a9 073d a896 d9bc 3d6b b53e d2c5 1f3d
00000040: 0ac7 87be e5c0 c5bd e421 bb3d 5d6f babd
00000050: f42e 653e 236a 323c 6390 303e 5da9 173b
00000060: 84e6 46bd 5d85 5cbb 91c8 fabc ca76 f23d
00000070: 8ed9 8ebd 8953 8bbc 49e5 bdbd 9314 14be
00000080: 80e2 27bd 6035 a13d ae80 0ebe 8742 2b3e
00000090: ffcb 05be a6b5 323e 90d5 c3bc 70d6 253e
000000a0: 0000 27be 5fea 633e 3835 653e eb42 3c3e
000000b0: e397 81bd 9f23 ab3e e364 1dbe 5dac 08be
000000c0: 86ca d03e 6318 5dbe 94d0 adbe 13c2 00be
000000d0: 011f 2bbd 69ff 48be 89fc 673e 9f49 0dbe
000000e0: 7933 e7bc 4964 0d3f c1a3 a6bc fd6c 423e
000000f0: 3eb8 63be d2f9 843d 0ba4 60be a14b f33d
00000100: 80fc b4bd 8d11 42be 6a7a c43d 2aa6 00be
00000110: ebbf 0c3e 1566 ebbd c27e 5a3e 45f1 bb3e
00000120: f3c3 d23c 1b0e 5c3d 683f 3b3e d00b 66bd
00000130: 525c 08be 8076 9bbe d186 9d3a fbd6 44be
00000140: 53ac b6bd 4f1f 28bd 0189 0fbe 6ea3 9abe
00000150: ffbe 653e 5b77 603e 1abb 403b 005b b8bd
00000160: d129 293e 457f 86be 6577 533d fbab a33d
00000170: cdb0 00bd 3c0e 013e c0fa 0c3d 5d5f 993d
00000180: 5c08 5f3c 874e ba3d 0154 bf3e d6a6 a7bd
00000190: d5c2 32bc 396a 5fbe 704a 15be 5d78 9dbd
000001a0: f87a 673d 7ff4 353e c133 123e 9ad9 eb3b
000001b0: 9093 88bd 3fed 9b3b c4db bdbe 8d88 06be
000001c0: b685 0c3d a21c 8c3e 42bb ba3d 215c 993e
000001d0: c6a5 3b3e eec5 31bd 1467 ff3d 4e2c 483c
000001e0: 2024 cb3c c6f0 ae3d 795d 6c3a e9ad 103e
000001f0: 040d a2bc 0f3e 78be 57a8 a7be 4622 4dbe
00000200: f7b4 2f3d e9a4 f6bd 8df8 2cbe a1f6 1ebd
00000210: 5ac3 60be 71f8 7fbe e63f 65be 5c83 3d3e
00000220: f460 1a3d 2666 5b3e b48a bc3d 2452 9f3e
00000230: 6c0e 033e fc3e 1b3d 6e4a 873c a7db 3abc
00000240: ba22 943e 62e8 1abd ce29 d73d b674 a93e
00000250: 193e 82be cde7 133c 4956 213e 4f41 2dbd
00000260: cfd5 81be 479e b3be 0b6a 87bd 4072 b93e
00000270: d4b3 3b3e 152c c93c 8b43 8ebe 3236 9fbe
00000280: 607d 3f3e a343 ea3d 6743 f43c dd8d 893e
00000290: 050f efbd da06 343d d681 523e 292c 48bd
000002a0: 465f 433e 9435 abbd d92c 143e af29 a8bd
000002b0: e1ad 8b3b 8cff 0f3e 8c0e 163c d7be afbe
000002c0: 1434 163e 56e6 f1bc f8e6 10be 4359 673d
000002d0: 39d7 5c3e 9ed6 f33b 484b a4be e238 43be
000002e0: 99b9 94be 6609 7e3d ba43 db3d ebc3 88bd
000002f0: 2499 55bd 59e1 1e3f 7370 993e 5313 e6bd
00000300: 3db2 f53d 18b6 e0bd 9d84 de3e 3cc8 9f3c
00000310: 1ee1 8b3d 9b9e 323e 0bba d93d cd1d 86bc
00000320: 4518 043e 4be7 a2bc 28ed 48be 5294 1dbe
00000330: c5a2 be3e 8668 f3bc 2362 48be 11c4 3bbe
00000340: 7f6a 65be 7d75 1bbe ac67 d8bd 891e 46bd
00000350: 39b2 9a3e e893 113e d102 52be 8bfe 0c3e
00000360: 8d20 1c3d 8cc6 ccbd 18ba 273c c5a5 44be
00000370: ccb3 1bbe a9d2 403e 8468 4c3d d61c 6e3e
00000380: 643c 5d3d 68ef 673e 6bef 0fbe ed8a 16be
00000390: e678 a43c a868 b4be 98bf 91be b908 88bd
000003a0: 0f99 6dbe aa5c ca3d 707b 463e 22e1 b9bc
000003b0: 247e 2dbe d888 87bd af8a 153c 7264 e0bd
000003c0: 764e bfbd e181 b5bd 115d fcbd e74e b6be
000003d0: 3997 433e f0aa 8a3c 3e26 00be be88 dbbd
000003e0: 6c87 97be b3c3 933e 9370 71be 1905 22be
000003f0: 323b e33c b505 683c 668c c0bd be4c e4be
-0.12711853 0.1081201 -0.26611048 0.068572074 0.04803191 -0.02738727 -0.01634349 0.18250225
-0.20608059 0.04554612 0.15722595 -0.32449517 0.033120904 -0.026561096 0.3543338 0.039007016
-0.26519042 -0.09655932 0.091373235 -0.09103272 0.22381192 0.010889563 0.17242579 0.002314172
-0.04855968 -0.0033648827 -0.030613216 0.118390635 -0.06975089 -0.017007606 -0.09272248 -0.14460973
-0.04098749 0.078715086 -0.13916275 0.16724597 -0.130661 0.17452106 -0.023905545 0.16195083
-0.16308594 0.22257374 0.22383583 0.18384902 -0.06327798 0.33425614 -0.15370516 -0.13347001
0.40779513 -0.21591334 -0.33948195 -0.12574033 -0.041777615 -0.19628681 0.22654928 -0.13797615
-0.028222786 0.5523115 -0.020341756 0.18986888 -0.22238252 0.06492962 -0.21937577 0.118796594
-0.08837223 -0.18952008 0.09593661 -0.12563387 0.13745086 -0.1149408 0.21337417 0.36707512
0.025728201 0.05372439 0.18285906 -0.05616361 -0.13316467 -0.30363846 0.0012018328 -0.19222634
-0.08919587 -0.041045483 -0.14017107 -0.30202812 0.2243614 0.2192053 0.0029408396 -0.09001732
0.16519858 -0.26268974 0.051627535 0.07991787 -0.03141861 0.12603086 0.03441882 0.07488892
0.013612833 0.09097009 0.37368777 -0.08186118 -0.010910709 -0.21817864 -0.14579177 -0.07688973
0.056513757 0.17769049 0.14277555 0.007197571 -0.0666877 0.0047585065 -0.3708173 -0.13138027
0.034307204 0.27365595 0.09117748 0.299531 0.18324956 -0.04340165 0.124708325 0.012217594
0.0247975 0.08542018 0.0009016614 0.14128841 -0.019781597 -0.24242423 -0.3274562 -0.20032606
0.04289719 -0.12043173 -0.1689169 -0.038809422 -0.2194952 -0.24997117 -0.22387657 0.18507141
0.037690118 0.21425685 0.09206143 0.31117356 0.1279847 0.037901863 0.016514983 -0.011404908
0.28932744 -0.037819274 0.105060205 0.33096856 -0.25438002 0.009027434 0.15755571 -0.04229861
-0.25358436 -0.35081694 -0.06612023 0.36219978 0.18330318 0.024557153 -0.27785906 -0.31096035
0.1870017 0.11438682 0.029817296 0.26866046 -0.116727866 0.043951847 0.20557341 -0.04887024
0.19079313 -0.083598286 0.14470233 -0.082110755 0.0042626713 0.14062327 0.009158742 -0.34325287
0.14668304 -0.029528778 -0.14150608 0.05648161 0.21566476 0.007441356 -0.32088685 -0.19064668
-0.2904785 0.06202068 0.10706277 -0.066779934 -0.052148 0.62062603 0.29968604 -0.112341546
0.11996887 -0.109722316 0.4346055 0.019504659 0.06830047 0.17443316 0.10631188 -0.016371632
0.12899883 -0.01988568 -0.19621718 -0.15388611 0.37233558 -0.029712927 -0.19568686 -0.18336512
-0.22403906 -0.15181537 -0.10566649 -0.048368964 0.30214098 0.14216578 -0.20508887 0.13768975
0.03811698 -0.09998807 0.010237239 -0.19203861 -0.15205306 0.1883036 0.04990436 0.23253188
0.05401267 0.2264992 -0.14056174 -0.14701433 0.02007718 -0.35236096 -0.28466487 -0.06642289
-0.23202918 0.098809555 0.19383025 -0.02269036 -0.1694265 -0.06617898 0.009127303 -0.109566584
-0.09341137 -0.08862663 -0.123224385 -0.35607073 0.19100656 0.016927212 -0.12514588 -0.10719441
-0.29595506 0.28860244 -0.235781 -0.15822257 0.027738187 0.014161517 -0.09401779 -0.445898

conv2.bias f4 [20]
00000000: 3d06 963e 6f33 c0bd cb86 2e3e 3082 47be
00000010: 8203 863c 0f06 bbbd d1c7 a5bd 1a10 94bb
00000020: 32f1 3abe 0e1a 72be cf09 543e 47e7 993c
00000030: e0b2 7fbd 6e42 133e 2b20 18bd 4864 9e3d
00000040: 3d89 043e f936 4abd f81a 08bd a464 e6bd
0.29301634 -0.0938481 0.17043607 -0.19483256 0.016359095 -0.09132015 -0.080947526 -0.004518521
-0.18256071 -0.23642752 0.20706867 0.01878704 -0.062426448 0.1438081 -0.037140053 0.07733971
0.12942977 -0.049368832 -0.033228844 -0.112496644

conv2_bn.weight f4 [20]
00000000: 81c0 693f dfc7 733f 52d9 c13f 343f 983f
00000010: 1f7d 8f3f cafc 943f 593c 3e3f 31a8 453f
00000020: 3e22 8d3f eeb3 6e3f 1acb 6f3f cd64 773f
00000030: 6440 8b3f 89b1 703f 2c34 8f3f eb90 883f
00000040: 250f 8c3f b2bd 783f 8241 7b3f ea99 383f
0.9130936 0.95226854 1.5144446 1.1894288 1.1210059 1.1639645 0.74310833 0.77209765
1.1026075 0.932433 0.93669283 0.96638185 1.0879025 0.940209 1.1187797 1.0669225
1.0942122 0.9716445 0.9814683 0.72109854

conv2_bn.bias f4 [20]
00000000: f4da 283d d9ce 483e 3b34 1f3e 47c6 6ebe
00000010: 2b57 12bd 80a6 073c 1d91 1b3e d976 743d
00000020: 8d17 033e 6f34 223d 0eb6 733e efcf 5ebd
00000030: a23b 633d 7ab1 303e b657 853c 6f8b f4bd
00000040: 98fd fc37 4ab3 11be ba4c 1f3e 0650 9b3d
0.041224435 0.19610156 0.15547268 -0.23317824 -0.03572766 0.008279443 0.15192075 0.059683654
0.12801953 0.039600786 0.23799917 -0.05439752 0.055476792 0.17255202 0.016277175 -0.11940657
3.015883e-05 -0.1422855 0.15556613 0.07583623

conv2_bn.running_mean f4 [20]
00000000: 2ef5 fb3e 6550 1d40 466d 5e40 85c8 6abf
00000010: 1d3a b4bf 349b ee3e d43a e4bf a131 5abf
00000020: ea2e 643f ec98 07c0 0379 4c40 d119 e83e
00000030: 1f0c e83f 2d88 6fc0 507e 083f db1e 7ebf
00000040: 0e0a ec3f adc7 21c0 458e 7340 52de 7340
0.49210495 2.458032 3.4754195 -0.9171222 -1.4080235 0.46602786 -1.7830453 -0.8523198
0.89134085 -2.1187086 3.194886 0.45332196 1.8128699 -3.7426865 0.5331774 -0.9926583
1.8440568 -2.5278122 3.8055584 3.8104444

conv2_bn.running_var f4 [20]
00000000: a192 1241 067a 7d41 3844 2041 b247 1741
00000010: e295 5841 d77c 3541 3f47 fc40 1b9a 0f41
00000020: 1632 2041 7a7c 0441 b506 1441 8b16 1941
00000030: fbfa 8741 3f77 4c41 0706 0441 03ed f940
00000040: e4cd af40 8dd7 d240 4926 0841 0bf3 3541
9.160798 15.842291 10.016655 9.455004 13.5365925 11.3429785 7.883697 8.975123
10.012228 8.28039 9.251637 9.568004 16.99755 12.779113 8.2514715 7.810182
5.493883 6.5888124 8.509347 11.371837

fc1.weight f4 [50, 320]
00000000: 629f 013f 25a1 77be a9c5 fd3d 33c4 1a3e
00000010: 0432 97bd 2b93 09bf 96b1 8fbd 60f6 a3be
00000020: d4d6 0d3d 9b39 843d 98e1 cdbd c125 8a3d
00000030: 2d9e 88bc 49aa d9bd 74c7 47be 39f8 133d
00000040: bdea 983c e7e0 c1bd a35c fe3e fc5c 1d3e
00000050: 8d51 13be 9e29 e8be 303f 93bd b5c1 19be
00000060: 0fa1 6cbd c408 6bbe 72cf 293d 9473 413e
00000070: e630 debd d945 c7bb 51f7 14bd dc05 b83d
00000080: 3a4c 033e 52c5 c3bd 0ea4 a3bd 4555 1ebe
00000090: 6199 c03d f53f f9bc 46c9 fdbd 1c5f f93d
000000a0: 7e10 ec3e 39fc 5ebe a23e 963e d21d 5ebe
000000b0: 1a32 eb3d 0123 33bd 6c63 2fbe 3db5 b9bd
000000c0: e0f3 63be a857 bb3c cc92 7e3d 7a86 033d
000000d0: 48d3 07be 5513 123e 37a4 1dbe 4dd2 02bf
000000e0: 2804 77bd 9be4 82bd 785d 493e e9e5 dbbd
000000f0: 06f2 413e ef9d 7cbd 8343 2a3e 5c7d 96be
00000100: ab8e 7c3e b428 21be e86e 2bbe b4e9 3fbd
00000110: e190 e4bd 9bf5 aabc d739 8a3e d357 403d
00000120: 4c55 f6bd a8f4 fd3d 2946 45bd f4cc f23d
00000130: 00a9 ae3d c607 d3be f451 2b3e b914 babd
00000140: b581 a33d 412c 9dbe c33a fabd 326b 6c3e
00000150: e98a 5ebe f50b 25bd e3d2 52be 49ca 08be
00000160: 0cde c3be eb1a a3bc e103 07be b2f7 c83d
00000170: a782 de3c ed44 0ebe 2d45 203e 6732 1a3e
00000180: f8b0 d23e c93a c7bd fc36 8c3e 900d 5abc
00000190: 3a69 14be 799a f43d d5be 2e3e 7c27 953c
000001a0: ac36 8fbe 68db 8d3d f211 643e a9b1 013e
000001b0: b2cd 563e 62fb a8bd 8a58 abbd 3782 7f3e
000001c0: ccfe 2a3e 23cd 043e eea1 b03b 7db9 0fbe
000001d0: 091d 143e ad39 87bd fa69 e7bd 8574 dfbd
000001e0: 4d79 4f3d ba55 8f3d 9bad 5a3e 14da 4b3e
000001f0: 8fba 51be 9cf9 403d 9bcf a0bd 916b 813d
00000200: dab6 c33a 92a0 143e 0cb0 493e 2cb7 383e
00000210: 4873 f0bd 78d5 2f3e 3b2d 183c aeff 5b3e
00000220: 7dbf 3f3e 2616 913e d50d 8abc bb88 15bd
00000230: d74c 273e ae24 883d c9ca 8dbd 97b8 09be
00000240: fc55 b6bc 6805 4b3e bacb b63d a9e3 afbc
00000250: 22b7 603e 3b95 86ba 4213 44be 1388 5dbe
00000260: 9b62 8bbe 103e e7bd b498 513c 61b2 643e
00000270: a05b 61bd 8201 00be db6f 9bbd 4df5 3abe
00000280: fa74 54be 948d 273e 8cff ca3d 775a d6be
00000290: 1929 183e f0cf a8bd 6297 a43d 42a9 18be
000002a0: c39d 603e 13ae 2bbd c22e d0bd baf3 a93d
000002b0: 168e cdbe 767f d63e b730 163e 428f 1f3d
000002c0: 1e58 9e3d 4737 9fbe 2e80 2e3e dbb4 d33c
000002d0: 6e5e 033f e6d5 d33d 8285 79be a905 d1bd
000002e0: 378f cfbd 8257 9bbe 393a 573e ec0c b3bc
000002f0: 9ff2 153e 4ac0 35bd 743f 5bbe 73dc d13e
00000300: 42a0 af3d 95eb 283c 4b59 833e 021c 453e
00000310: 8264 703e 1990 fa3c aff4 50bd 497d 413e
00000320: 61a4 303e 553f 46be d87b 683e 710e a83d
00000330: 3642 473e 3428 9c3e 78cd d23d 29ba 5c3e
00000340: 8d88 2ebc 8b87 5fbd 3517 8d3e e941 8a3e
00000350: 3a98 3abe 0455 e93c dfca 34be 26fa bfbe
00000360: 7c20 d5bd 7ac1 72bb a5b1 8bbd 1e49 b93d
00000370: 9975 173e d7a2 ab3d 67c9 ecbd 90f4 b7bd
00000380: d5b8 05bd c04b 113e 3a77 d6bd 592c fa3d
00000390: c820 3f3e daac 40be baef 97be d287 a73d
000003a0: 5ce3 833e f642 aebb 6a26 71be ff14 d83c
000003b0: 2869 01bd 0a9f d1be 3869 b3be ccce cf3e
000003c0: 82b4 953d 26a4 d5be a1ec b4bd 19b1 2c3e
000003d0: 9b60 96bd e162 9e3e 5ad4 47be 3ff7 1cbe
000003e0: 701b 63bd 1a66 233d 012d 193e add5 b83d
000003f0: 697e 393e 7902 0b3e a6fc 773e 8eea c2bd
0.50633824 -0.24182566 0.12391216 0.15113907 -0.073825866 -0.53740185 -0.07016294 -0.32023907
0.034628704 0.064563 -0.10052794 0.06745482 -0.016676987 -0.106281824 -0.19509679 0.036125395
0.01866662 -0.09466725 0.4968005 0.15367502 -0.14386578 -0.4534425 -0.071897864 -0.150153
-0.057770785 -0.22952563 0.0414576 0.18891746 -0.108491704 -0.0060813245 -0.03636867 0.089854926
0.12822047 -0.0955912 -0.07990275 -0.15462215 0.09404255 -0.030426005 -0.123919055 0.12176344
0.46106333 -0.21775903 0.2934466 -0.21691063 0.114841655 -0.043734554 -0.1712777 -0.090677716
-0.22261 0.022868946 0.062151715 0.03211067 -0.13264191 0.14265187 -0.15394674 -0.51102144
-0.060306698 -0.06391259 0.19664562 -0.10737211 0.18939981 -0.061674055 0.16627316 -0.29392517
0.24663799 -0.15738183 -0.16741526 -0.046853736 -0.11160446 -0.020869067 0.26997253 0.046958756
-0.12027988 0.1240018 -0.048162613 0.11855498 0.08528328 -0.41216868 0.16730481 -0.09085984
0.07983724 -0.30697826 -0.12218239 0.23087767 -0.21732678 -0.040294606 -0.2058826 -0.13358416
-0.38255346 -0.019910296 -0.13185073 0.09812869 0.02716191 -0.1389348 0.15651388 0.1505829
0.4115064 -0.09728009 0.273857 -0.013308898 -0.14493266 0.11943526 0.17064984 0.018207304
-0.279714 0.06926614 0.2227247 0.12665428 0.20976904 -0.082510725 -0.08366497 0.24952017
0.1669876 0.12968878 0.0053903973 -0.14035602 0.14464201 -0.06602798 -0.1129951 -0.10910896
0.05065279 0.06998773 0.21355288 0.19907409 -0.20481323 0.047113046 -0.078520976 0.06319345
0.0014931813 0.14514378 0.19696063 0.18038625 -0.11740738 0.17171276 0.0092881275 0.21484253
0.1872539 0.2833721 -0.016852299 -0.03650735 0.16337906 0.06647621 -0.06923444 -0.13449322
-0.022257797 0.19826281 0.089255765 -0.021470862 0.2194486 -0.0010267863 -0.19147971 -0.2163394
-0.27223668 -0.11291134 0.012792755 0.22333671 -0.05501902 -0.12500575 -0.07589694 -0.18257637
-0.20747748 0.16362602 0.09912023 -0.41865894 0.14859428 -0.08242786 0.080366865 -0.14908317
0.21935181 -0.041914057 -0.10165168 0.0829844 -0.40147465 0.4189412 0.1466702 0.03895498
0.07731651 -0.3109686 0.17041084 0.025843075 0.51315963 0.10343532 -0.24367335 -0.10206158
-0.10134738 -0.303402 0.21018304 -0.021856748 0.14643334 -0.044372834 -0.21410924 0.40988502
0.085754886 0.010310073 0.25654063 0.19248965 0.2347584 0.03058629 -0.0510146 0.18895449
0.17250206 -0.19360097 0.22703493 0.082058795 0.19458851 0.30499423 0.10293096 0.2155539
-0.010652673 -0.054572623 0.27556768 0.2700341 -0.18222132 0.028482921 -0.17655514 -0.37495536
-0.104065865 -0.003704159 -0.068209924 0.09047149 0.14790954 0.083806686 -0.11561852 -0.089821935
-0.032646973 0.14189053 -0.104719594 0.1221549 0.18664849 -0.18815938 -0.29675084 0.081802025
0.257594 -0.005318041 -0.2354981 0.0263772 -0.031594425 -0.4094165 -0.35041213 0.4058746
0.0730982 -0.41726798 -0.08834196 0.16864432 -0.07342645 0.30934814 -0.195146 -0.15328692
-0.05544609 0.039892294 0.14958574 0.090251304 0.18114628 0.13575162 0.24217471 -0.09517394

fc1.bias f4 [50]
00000000: 2c29 c7be 175d 23bd 81ec 053e 231a 20be
00000010: ed2e a23d a35a f73d 713b 313e 4822 a9be
00000020: bfd3 31be e8c2 b93e f0ea 0e3e 6b5e 533e
00000030: d6ab c63d 841e cc3d 8cee 05bd ccfd 08be
00000040: 14e0 56be 6a54 013e 5202 5b3e 0e78 3a3e
00000050: 6606 bebd d7d7 bfbd ef95 b2bd 633d 313e
00000060: 51c5 5f3e bd8b 50bc 8761 a33e ef8c 4d3d
00000070: 685b 213e ee49 72bd 588a 9e3e 19fa 16b9
00000080: d012 adbe 80fa a83d 663a 7dbc 37eb 503e
00000090: 6fb7 f9bd 1077 ab3d c9e8 a5bd 0a75 a9bd
000000a0: bed6 2d3e 507c 203e 19e8 053e d8a1 0dbd
000000b0: 952e 1cbd 8b7a a0bc 46a9 1dbe ba05 41be
000000c0: 680e d5be 1e7b 8abe
-0.388986 -0.0398837 0.130785 -0.1563497 0.07919107 0.120778345 0.17307831 -0.33033967
-0.17365931 0.36281514 0.13956809 0.20641486 0.09700744 0.09966758 -0.0326982 -0.13378066
-0.20983917 0.12629858 0.21387604 0.1820986 -0.09278564 -0.0936734 -0.08720004 0.17308573
0.21852614 -0.012728629 0.31910345 0.050183233 0.15757525 -0.059152536 0.30964923 -0.00014398283
-0.33803415 0.08250904 -0.015455818 0.20402227 -0.1219319 0.08372319 -0.08101041 -0.082742766
0.16976449 0.15672421 0.1307682 -0.034578174 -0.03813036 -0.019589683 -0.15396604 -0.18849841
-0.41612554 -0.27047056

fc1_bn.weight f4 [50]
00000000: c351 863f 502a 753f 05c8 5d3f a84f 7f3f
00000010: 7c08 a03f 31a4 6b3f 520e b03f 809c 803f
00000020: 0173 a03f 554b a43f c5f5 5e3f 76aa 6b3f
00000030: f843 983f 4dee 973f cba3 7f3f dc1a 313f
00000040: ecdb 913f 01a0 873f a91c 783f 00d4 813f
00000050: 8543 693f 416c 803f 88a7 4b3f 6fee 843f
00000060: 8759 533f ece6 a43f 7124 8b3f 5a35 8f3f
00000070: dafe 7b3f a52b 813f 13bd 623f e7f7 873f
00000080: f3e7 883f 8643 9c3f d38d 623f 9c34 753f
00000090: 782f 803f e1e6 6b3f 5e94 723f 8042 823f
000000a0: 4eb7 823f 177d a73f 4fb5 ba3f 8054 593f
000000b0: 318d 083f 4b77 8d3f cdd4 603f 2ed7 703f
000000c0: 00ae 3d3f d64e 9e3f
1.0493702 0.9576769 0.8663333 0.9973092 1.2502589 0.9204741 1.375437 1.004776
1.2535096 1.283549 0.87093765 0.9205698 1.1895742 1.1869599 0.99859303 0.6918161
1.139524 1.0595704 0.9691873 1.0142822 0.9111865 1.0033036 0.7955251 1.0385264
0.8255848 1.2882972 1.0870496 1.1188157 0.9843575 1.0091444 0.88569754 1.0622529
1.0695785 1.2208107 0.88497657 0.957834 1.0014486 0.9214917 0.9475764 1.0176544
1.021219 1.3085049 1.4586581 0.8489456 0.5334044 1.105203 0.8782471 0.9407834
0.7409363 1.2367809

fc1_bn.bias f4 [50]
00000000: a1f7 23bc 771a 49be 83fa bc3e dfc0 683e
00000010: cfc3 d13e ade9 e13c 4cff c53c 774f b0bd
00000020: ec5e a33d 5598 86be e60c ccbd 396d ea3d
00000030: b286 3c3e ab3d 263d d741 09bd d283 153e
00000040: 2eea 3bbe 2dbf 533e 8b47 dd3e bda7 033e
00000050: 9b35 043e 78d5 a43e 6f66 453e d27a 353c
00000060: 753b af3d c09f 96be 7f73 45bd 123d 8dbd
00000070: 4fae d9bd bedc cc3d 9c25 e1bb 6198 723c
00000080: 2df8 d7bd fe39 73bc 3544 273e 2845 923e
00000090: 69fc 933e c1e0 fbbd 9a2e 6cbb b6b1 843e
000000a0: 5ce5 d6bc cae6 963d f94c 293e 970f 8c3e
000000b0: 7874 8abe f81f 6a3e 1219 5c3e 65c0 bfbd
000000c0: ea8d aabc e6d6 0e3d
-0.01000777 -0.19639002 0.36909875 0.22729824 0.40969703 0.027577246 0.024169587 -0.08608907
0.07977089 -0.26288095 -0.09963398 0.11446614 0.18410757 0.040586155 -0.033510055 0.14601067
-0.18351051 0.20678397 0.43218645 0.12856956 0.12911074 0.32194114 0.19277357 0.011076646
0.085562624 -0.29418755 -0.04820585 -0.06896414 -0.1062895 0.10003041 -0.0068709385 0.014806838
-0.10545383 -0.014845369 0.16334613 0.28568387 0.2890351 -0.12298728 -0.003603852 0.25916833
-0.026232414 0.07368238 0.16533269 0.27355644 -0.27041984 0.22863758 0.21493939 -0.09362868
-0.020819623 0.034872912

fc1_bn.running_mean f4 [50]
00000000: df1f 1740 f08a ecc0 dc9e 79c0 b00c 44c0
00000010: a6fa 4c40 7acc 80bf c010 28bf fd08 c0c0
00000020: de49 8bbf f0ae bdbf 2221 813f 9ac7 8fbf
00000030: c147 c83f 4f3c 6dbd b9e7 13c1 20e6 68c0
00000040: 28f3 47bf d7df 32bf eab8 ec3f e221 80c0
00000050: e3bf 6e40 af7a cebf 5650 d03e 5674 683f
00000060: 4bc9 1c40 0e5a 9840 a6fb dcbd 094b e2bf
00000070: c183 11be 9edd c1c0 f453 553f f456 3540
00000080: 25ee 2dc0 354e e3bf 205f 40c0 8b72 9ac0
00000090: f220 0641 3f13 9cc0 fa97 03c1 1df5 b53f
000000a0: 57db 65be 795d 9dc0 17be bebf 6060 f340
000000b0: ea12 963f 10ab 0bc0 61e3 63c0 97bc b03f
000000c0: 9ea4 73c0 ef55 8ebe
2.3613203 -7.39196 -3.900321 -3.0632744 3.2027984 -1.0062401 -0.6565056 -6.001097
-1.0881917 -1.4819012 1.0088236 -1.1232789 1.5646898 -0.057918843 -9.244073 -3.6390457
-0.781054 -0.698728 1.8493931 -4.004136 3.7304618 -1.613119 0.4068629 0.90802515
2.449786 4.760993 -0.10790186 -1.7679149 -0.14210416 -6.058303 0.8333123 2.8334322
-2.7176602 -1.7758242 -3.005806 -4.8264823 8.383043 -4.8773494 -8.224604 1.4215428
-0.22446953 -4.91766 -1.4901761 7.6055145 1.1724522 -2.1823158 -3.560753 1.3807553
-3.8069224 -0.27799937

fc1_bn.running_var f4 [50]
00000000: b28f 3b41 a0e2 4a40 e719 1541 09fb 9240
00000010: ca90 3441 3d40 ad40 045b 8c40 8c0d 0441
00000020: 1bac 7141 0832 9c40 2eef ee40 f31b eb40
00000030: 1544 ad40 489b a940 77da b641 6abc 0440
00000040: 3c40 0440 6335 1441 c8dc 2941 269b 5140
00000050: 1fbe bd40 b67b f640 542e 8040 fdaa 8340
00000060: 42ae 8740 1e30 4f41 53b9 6c41 4625 a341
00000070: ed5b 7241 74d8 5840 b51e 4f40 7a60 5a40
00000080: fb71 1141 b202 d940 ff13 e040 99b1 e740
00000090: aadf b740 c3a9 a440 7c4f 5d40 8b83 6b40
000000a0: aa98 1a41 8be2 8240 09fb 9e40 153c 5440
000000b0: 8f26 2b41 8a86 c540 97b7 8540 4cf8 9140
000000c0: ef04 0241 a896 be40
11.722582 3.170082 9.318824 4.593144 11.285349 5.4140916 4.3861103 8.253307
15.104518 4.8811073 7.4666967 7.347162 5.414561 5.300205 22.856672 2.074
2.0664206 9.263034 10.616402 3.2750945 5.929458 7.7026014 4.0056553 4.1146226
4.2400217 12.949247 14.795245 20.3932 15.147443 3.3882113 3.2362492 3.4121385
9.090327 6.781579 7.002441 7.2404294 5.7460527 5.145723 3.4579763 3.6799037
9.6622715 4.090154 4.968144 3.316167 10.696914 6.172673 4.178661 4.5615597
8.1262045 5.9558907

fc2.weight f4 [10, 50]
00000000: 3b67 08be 2d50 dbbe 0c29 c9bd 6cf3 afbe
00000010: cd49 bebe 67f7 d1bd 0dc3 a8be 2149 83bd
00000020: 4699 e63e 5558 c4bd cc1f 043e db73 adbe
00000030: ad0b ab3e fed3 acbe 727a 20be 57b5 d9bd
00000040: 23ac 2e3e 6340 d3bc 5aaa 143f d21e 08bd
00000050: e80b 713d 7c50 753c b1ff debe 4e27 fa3d
00000060: 4dec 8a3e 9a34 a4be ac60 143f 8563 573f
00000070: 06ba 6f3c fd42 58be 4ddd 9fbd d255 b6bd
00000080: 6612 243b 274c cbbe 4a94 533d e370 1bbe
00000090: 90cb 823d 6f09 253d bdb2 c1be 2072 55be
000000a0: cb1d 8ebd a2b9 90be 76bc 1ebf 86b8 1cbe
000000b0: 0811 3e3e 6d9e efbd eb63 da3e c84a 883e
000000c0: 472e bcbd 4ad9 1e3f 1e02 96be ed58 6b3e
000000d0: 07f7 093f 761d f53e bbb6 3bbe e9fa 83be
000000e0: 1fd5 11bf 42af 39bd 69cb d9be ea7d 083e
000000f0: 77aa 4c3e 0916 61bd 607a afbd 8701 9ebe
00000100: f053 123e 248e 273d 98f4 a63e 010b a2be
00000110: 8195 9fbd 3522 363f 2f5a abbe 4d78 91be
00000120: 9d13 e33e 39de fdbe 5888 c0be bafe 21bd
00000130: ed10 d0be e88c 403c 2441 30bd afc2 0dbe
00000140: f43f 91be 750c 40be 5170 443e 1407 143f
00000150: d864 3ebd ae83 29bf ae0e a1be 9878 9f3e
00000160: 47e0 e63c 384f 26bd b97b e8be 1c5a 9ebd
00000170: 3bdc c3bd e74a 493e a8ec 873c b8ed bd3d
00000180: a033 b0bc bacd fdbd b853 8b3e fde2 45be
00000190: 21ad 1f3d cf36 30be b89b e5be 3830 cbbe
000001a0: 760d a1bd 556f 54bd 41fe 3dbc 4fc4 a53e
000001b0: 5d03 af3d d062 b53e 3c60 cc3b 7f97 c9bd
000001c0: 03d0 153e c3e8 163f 001f 80be 5b2e 5abe
000001d0: 6f29 b43d e460 c1be a02a b93e 52ec 803e
000001e0: 5093 01be 8e13 e0be 0f63 34be 93df b4bc
000001f0: a59f e43e 5702 a13e e70d 853e 2bda dcbe
00000200: 8e38 3bbc 8f2c 7c3e 1e15 2ebc b99e 613e
00000210: 7b26 0bbd 5edf dd3d 0b7f f33d 168d f93e
00000220: 1a67 e3be 6ff8 17be b01b 5cbd 4b88 503e
00000230: 81b1 05be a448 d1bc 296c 1ebe 2784 ce3e
00000240: 1970 663e 755b 29bd 7c4c 8c3e 557b bdbe
00000250: 9253 423e 7fc5 f0be 3177 2cbe a8bf 09be
00000260: dd0b c1be 5b40 2ebe 2440 ff3e ca7c 11bf
00000270: 8428 c83d a5dd b5be 49f6 153e 0e1e 093e
00000280: 959e 66bd 13b1 893c adc6 8c3e b64f a2be
00000290: 30fc d13e 7522 a4be 3340 983e 4c63 86bd
000002a0: f064 c2bd f706 aa3e 788e ccbd 0920 a5be
000002b0: c183 073e ded4 8ebe 4f51 c4bd 63c1 c538
000002c0: 9f3c 85bd 213d e0be aa02 683c 148f aebc
000002d0: 99c4 4b3f 2417 78be a171 37bd 04e2 213e
000002e0: c218 e23d f7f1 c6bd c7af 163e ba4a c6be
000002f0: 3710 8ebe 029b 9b3e d5a8 723d ce75 263d
00000300: 3986 8cbe 70fe a33e 3370 eb3a 12f9 e3be
00000310: d65e bbbd df54 0d3d aa06 f4bc 809e 5cbe
00000320: 41e2 df3e 3dfb 20be b1d9 81be faa2 6cbe
00000330: 0981 20bd efec a03d 783a 2f3f aecd ba3e
00000340: 6997 debe 8eb3 53be 99f3 a93e 2989 0bbe
00000350: 0426 71be ae32 97be ae85 6dbe 627a 333e
00000360: d0e2 f3bd 0adc f93d 9e3d d03c 8525 193e
00000370: 99dc 24bc 4bca 96bd 68fa 053f 7012 353e
00000380: 25c5 a6be 4354 5abd dc5a 7a3d 4314 2dbe
00000390: 2958 37be c75b 7d3d 1d4b 81bd c4d0 8dbe
000003a0: 0aaf 6fbe ea89 a33e 4cbf f33e 3217 103e
000003b0: 4293 08be fbbf 29be 85ff fdbe 2b2e 87be
000003c0: 5dde acbd d171 3abe 38ac 373d 5062 b1be
000003d0: 137a 34be 0f32 f13e 859a 26be 6de1 dc3c
000003e0: 48c6 c53e 9944 2abf 1d04 8e3d 1596 9ebd
000003f0: cb6a a6be 44fd ccbd 3d42 333e e02c 38be
-0.1332063 -0.42834607 -0.09822282 -0.34365404 -0.3716568 -0.102522664 -0.32961312 -0.064104326
0.45038813 -0.095871605 0.12902755 -0.33877453 0.33407345 -0.33755487 -0.15671709 -0.10630291
0.17057852 -0.025787538 0.58072436 -0.033232518 0.058849245 0.014972802 -0.43554452 0.12214528
0.27133408 -0.32071382 0.5796001 0.8413623 0.014631754 -0.21119304 -0.07805882 -0.08903088
0.002503538 -0.39706537 0.05165509 -0.15179782 0.06386483 0.0402922 -0.3783168 -0.20844316
-0.06939276 -0.28266627 -0.6200632 -0.15304765 0.18561184 -0.11700139 0.42654356 0.26619554
-0.09188514 0.62050307 -0.2929849 0.22983141 0.5389256 0.4787404 -0.18331425 -0.25777367
-0.5696582 -0.045333154 -0.42538002 0.13329282 0.19986902 -0.054952655 -0.08568263 -0.3086054
0.14289832 0.04090704 0.32608485 -0.3164902 -0.077921875 0.71145946 -0.33467242 -0.28412095
0.443509 -0.49583605 -0.37604022 -0.039549567 -0.40637913 0.011752345 -0.043030873 -0.13843797
-0.28369105 -0.18754752 0.1918347 0.578233 -0.04648289 -0.6621655 -0.31456512 0.31146693
0.028183116 -0.040602893 -0.45406893 -0.07732031 -0.0956349 0.19657479 0.016592339 0.09273857
-0.021508992 -0.12392755 0.2721231 -0.1932487 0.038983468 -0.17208408 -0.44845366 -0.39685225
-0.078638956 -0.051863987 -0.011596263 0.32376334 0.08545563 0.3542695 0.006237058 -0.09843349
0.14630131 0.58948916 -0.2502365 -0.21306746 0.08796965 -0.37769234 0.36165333 0.25180298
-0.12653852 -0.4376492 -0.17615913 -0.022079265 0.4465305 0.31447098 0.2598717 -0.431352
-0.011427058 0.24626373 -0.010625152 0.22033204 -0.033972245 0.108336195 0.11889466 0.48740453
-0.44414598 -0.14840864 -0.053737342 0.20364492 -0.13055994 -0.025547333 -0.15470947 0.403352
0.225037 -0.041346986 0.27402103 -0.37008157 0.18977192 -0.47025678 -0.16842343 -0.13452017
-0.37704363 -0.17016737 0.49853623 -0.5683104 0.09773353 -0.35520664 0.14644732 0.13390371
-0.05630358 0.016808068 0.27495328 -0.3170144 0.41012716 -0.3205754 0.2973648 -0.06561908
-0.094919086 0.3320844 -0.09988111 -0.32251003 0.13233854 -0.2789678 -0.09585821 9.429713e-05
-0.06505703 -0.43796638 0.014160791 -0.02130846 0.7959686 -0.24227577 -0.0447861 0.15808874
0.110398784 -0.0971412 0.14715491 -0.38728887 -0.27746746 0.303917 0.059243042 0.04063969
-0.27446154 0.32030058 0.0017962515 -0.44525963 -0.09148948 0.034504768 -0.029788334 -0.21544838
0.43727306 -0.1572084 -0.25361398 -0.23109046 -0.039185558 0.078576915 0.6844859 0.36485046
-0.43474892 -0.20673963 0.33193663 -0.13626541 -0.23549658 -0.29530853 -0.23195526 0.17527154
-0.119084954 0.12200172 0.025420006 0.14955719 -0.01006236 -0.07362803 0.52335215 0.17682815
-0.32572284 -0.053303014 0.061121807 -0.1690226 -0.17904724 0.061855104 -0.06313155 -0.27698338
-0.23406616 0.31941158 0.47606885 0.14071348 -0.13337424 -0.16577141 -0.49609008 -0.2640241
-0.0844085 -0.1820748 0.044841975 -0.3464532 -0.17624693 0.47108504 -0.16269882 0.02696296
0.3862784 -0.6651092 0.06934378 -0.077434696 -0.32503352 -0.10009244 0.17505737 -0.17985868

fc2.bias f4 [10]
00000000: a660 b9bd 7676 21bd c596 5abd 92a2 ec3e
00000010: 02bf 43bc 314d 073e 912d 47be 3430 063e
00000020: 74c8 74bd a029 213d
-0.09051637 -0.039419614 -0.05336644 0.4621778 -0.011947395 0.1321304 -0.19450976 0.13104326
-0.05976148 0.039346337
