es-rl/experiments/checkpoints/E001-MNIST_none/190107-183718.981604|sNES|MNIST|MNISTNet/state-dict-best-model.pkl (torch_old, 91552 bytes, 20 tensors)

conv1.weight f4 [10, 1, 5, 5]
000000 dd 7b d6 bc 2b 70 1f 3d 0e 29 0e bd 5b 57 2d 3c
       -0.02618211 0.03892533 -0.03470712 0.010579909
000010 18 40 31 3d d6 87 c7 bd 77 68 ea 3c 78 76 0a bd
       0.043274015 -0.097427055 0.028614266 -0.033804387
000020 1d 91 95 bc b5 fb 29 3d 7a 01 1e 3e c2 55 0f bd
       -0.018257672 0.041499812 0.15430251 -0.034993894
000030 0a b5 74 bb fb 4a 26 bd 7a cf f4 3d be d7 00 be
       -0.0037339353 -0.04059885 0.119536355 -0.12582299
000040 37 28 33 3c cb d4 1a 3d 64 fb d3 3d 10 d0 45 3e
       0.010934881 0.03780059 0.10350683 0.19317651
000050 01 32 17 3e b4 5b 7e bd 78 30 5f 3d 0e 1a 5b 3d
       0.14765169 -0.062099174 0.054489583 0.053491645
000060 88 cc 96 bc 6d 49 fa bc 5e ef c9 bd b5 44 6c 3c
       -0.018408075 -0.03055259 -0.09860109 0.014420678
000070 5a 1f df bc 89 a8 43 be 47 73 7e bd 43 8b b2 bc
       -0.02723663 -0.1910726 -0.062121656 -0.02179492
000080 9d f8 f7 bc a6 26 1d 3e ad ea 77 3d f3 89 22 bc
       -0.030269915 0.15346774 0.06052654 -0.009920585
000090 05 d5 3f be 26 6e 7f bd 84 1a 15 bd 23 c6 03 3e
       -0.18733604 -0.062360905 -0.03640224 0.12868552
0000a0 ad c4 8f bd f6 af f8 bd 09 de 09 bd 74 ae a8 bd
       -0.07019935 -0.12142937 -0.033659015 -0.08236399
0000b0 e5 3a b6 3d db 77 e3 3d bd 28 34 be 8b 26 f1 3b
       0.08897952 0.11106845 -0.17593665 0.007359331
0000c0 f9 d8 c1 3c 5f 99 21 3e 55 58 aa ba 9a a0 e2 3d
       0.023663031 0.15781163 -0.0012996296 0.110657886
0000d0 72 56 80 3d cc e5 1e 3d 10 d0 83 bc 64 d3 35 3c
       0.06266488 0.03879337 -0.016090423 0.011097763
0000e0 17 3b 8e 3d d3 47 d2 3d e7 af 82 3d 3d 2a 36 3b
       0.06944864 0.10267606 0.06381207 0.0027796172
0000f0 16 0c 09 bd 5a 38 27 be 59 bb 4a bd a7 cc 01 3e
       -0.03345879 -0.1633009 -0.049495075 0.12675725
000100 6c 69 c3 bc df 6c 8e 3c 7b 76 8e 3d b3 be 82 bd
       -0.02385398 0.017385898 0.06956192 -0.06384029
000110 70 b2 98 bd 4c 66 81 3d 51 96 86 bd d0 dc a1 bb
       -0.07455909 0.0631834 -0.06571639 -0.004939653
000120 19 aa 54 bd 2d f3 c3 3d 08 e6 02 bd 67 45 db 3c
       -0.05192003 0.095678665 -0.031957656 0.026766492
000130 59 6d 42 bd c0 e2 02 3d e3 9c 47 3d a3 f0 90 bc
       -0.047467563 0.031954527 0.048733603 -0.01769287
000140 d4 73 09 bd c4 73 88 bb f4 f4 3a bc 41 d3 fc bc
       -0.033557728 -0.004164191 -0.01141094 -0.030862452
000150 4f 8f 5e 3d d4 4d 30 bd f4 f9 d3 3d fc 0c 01 3c
       0.05433589 -0.043042973 0.10350409 0.007876631
000160 03 fe a7 3d a4 76 de bb 00 29 94 3d 02 d4 41 bd
       0.08202746 -0.0067890454 0.07234383 -0.047321327
000170 53 8d da 3d 4d 1e 33 3d b1 94 0c bd c8 4e 87 3d
       0.10671487 0.04373007 -0.03432149 0.06606823
000180 59 d2 3a 3b 3b 7c e6 3b 16 51 93 bc 51 b5 a5 3d
       0.0028506725 0.0070338524 -0.017983 0.08091224
000190 45 f0 81 3c 64 af 73 bd 43 61 1c 3e f2 97 03 3e
       0.01586164 -0.059493437 0.15271477 0.12850931
0001a0 34 af 26 bc 2a 2c ca bd e4 69 af bd d2 5f e3 3c
       -0.010173608 -0.09871705 -0.08565119 0.027755652
0001b0 09 3d 20 be e4 fd c1 3d a4 0a 35 3d aa ec 0d be
       -0.15648283 0.09472254 0.0441996 -0.13859811
0001c0 d3 ee 8d 3c e8 59 b1 bc 7c 58 ff 3c e9 b8 4e bc
       0.017325794 -0.021649316 0.031170122 -0.012617328
0001d0 a4 38 de 3d f4 a4 c5 bd 9d aa 3a 3d 98 a3 de bc
       0.10850647 -0.09650603 0.045572866 -0.027177617
0001e0 09 45 da 3c 4d 6e a8 3d f4 fa ac 3c 91 6e 3e 3b
       0.026644247 0.08224163 0.021115758 0.0029057602
0001f0 f2 2e 87 3c cf ee 1d 3d ae 41 26 3e 11 ed df bc
       0.016501877 0.038557824 0.16235992 -0.027334722
000200 38 05 33 bd cc ae 74 bc 28 71 88 3d 03 86 92 3c
       -0.04370615 -0.014934253 0.06662208 0.017886167
000210 19 f6 b8 3c 4e b7 c9 bc d3 df 03 3c 52 83 85 bd
       0.022578286 -0.02462354 0.008048969 -0.06519188
000220 03 f7 9b 3d fa 07 2d bd ed 74 59 3c 1c 3f 97 bd
       0.07615473 -0.042243935 0.013272506 -0.07385084
000230 03 37 0f 3c 4d b5 3a 3c 2d 97 01 3d c8 4a e2 3b
       0.008741143 0.011395765 0.031638313 0.0069058873
000240 98 da d6 3d 08 63 2e 3d 2f 2a 80 3e cb 4c b0 3c
       0.10490912 0.042574912 0.25032184 0.021520993
000250 38 ab 09 3c 9a 68 04 bc e8 75 af bb 15 84 ea 3d
       0.008402638 -0.00808158 -0.0053546317 0.11450974
000260 ea bf c7 3d 05 85 43 bd f1 f5 07 3d 42 74 85 3d
       0.097534016 -0.04773428 0.033193532 0.06516315
000270 ac b6 47 3d ed da a6 3d 51 35 fa 3b 2d 23 01 3c
       0.048758194 0.081472255 0.0076357503 0.007881922
000280 9e 6c c3 3d 65 85 95 3d 98 8f 74 3d 7c 02 a7 3d
       0.095422015 0.073008336 0.059707254 0.08154771
000290 1a b2 8c 3d 6a 83 5d 3c 1d ea 63 3d e8 59 de bd
       0.06869908 0.013520101 0.05564319 -0.10856992
0002a0 bd 36 aa bd 9a 2e 6f bd 6d 05 6a 3d 40 13 42 3d
       -0.08311222 -0.058394052 0.05713408 0.04738164
0002b0 cb dc 07 3e 7f 3b 68 3d d3 6c 3a 3d e4 76 82 bd
       0.1326782 0.056697365 0.04551394 -0.06370333
0002c0 a1 8b 75 bd b0 09 df bd 44 86 0a 3d d3 94 e6 bb
       -0.059947614 -0.108905196 0.033819452 -0.007036784
0002d0 d7 6d a7 bd 57 d6 4e bd a1 b2 56 bd a9 2b 23 3e
       -0.08175247 -0.05049738 -0.052416448 0.15934624
0002e0 c7 68 b6 bd de d2 79 bd 9e 29 b9 bd e9 60 70 3d
       -0.089067034 -0.060992114 -0.09041141 0.05868617
0002f0 77 ec 0e be ee 3b 4d 3e 06 91 54 bd bc e9 f6 bd
       -0.13957392 0.20042393 -0.051896118 -0.120563
000300 e9 10 c6 3d 4a 80 6c bc 80 fd e8 3a 48 b1 04 bd
       0.09671194 -0.014434883 0.0017775744 -0.03239563
000310 20 e6 98 3c ce 4b c3 bd 72 e8 a5 3d 6b 74 f2 bd
       0.01866442 -0.09535943 0.08100976 -0.11838611
000320 50 8a 3a bd e3 78 80 3c c8 c1 8f 3d 4e 7a b5 bd
       -0.04554206 0.015682643 0.07019383 -0.088612184
000330 32 80 1f be c1 6d 2c bd 5a 9e 1e bd 32 4a fd 3d
       -0.15576246 -0.042096857 -0.038725235 0.12367667
000340 84 5c 1f 3d 71 31 52 bc df 0d 32 be dc 51 1e 3d
       0.03890659 -0.012829171 -0.17388104 0.038652286
000350 22 83 11 be a8 78 ab 3c f9 d1 2c 3e b1 32 25 3d
       -0.1421018 0.020931557 0.16876973 0.040331546
000360 90 d6 45 3d 12 2f 34 3d 24 c8 f1 bd 75 31 21 bd
       0.048300326 0.043990202 -0.11805752 -0.039353807
000370 07 ec 8f 3d ba fe e3 3a 04 85 69 3b ee 47 c4 3d
       0.070274405 0.001739464 0.0035632262 0.09584032
000380 ac e3 0a 3e 7c 14 4f 3d 44 bb b9 bc 8f c9 c3 bd
       0.13563412 0.050556645 -0.022672303 -0.095599286
000390 f1 36 c8 bd cc 3b a1 3d 7a f7 7b bc bb 48 17 bd
       -0.09776104 0.078727335 -0.015378827 -0.036934596
0003a0 ee 45 e7 3c 08 de 1b 3e f9 fc b0 bd 92 95 8e bd
       0.028231587 0.15221417 -0.08642001 -0.06962122
0003b0 ee 85 94 bd 8c a5 df 3c b3 a8 07 be 8f cd f9 3c
       -0.072521076 0.027300619 -0.13247947 0.030493526
0003c0 4a 7d 11 bc c0 94 0d bd 62 75 2b 3d 58 23 96 bb
       -0.008879969 -0.034565687 0.04185999 -0.00458185
0003d0 c2 fc 41 be bb 10 3d 3d 84 64 a0 3c 5c bc 1c 3e
       -0.18944076 0.046158534 0.01957918 0.15306228
0003e0 0c 68 dd bc 58 9d ac 3d
       -0.027027152 0.084284484

conv1.bias f4 [10]
000000 f4 38 64 3b 2b 6b f5 bb e4 98 dc b9 45 b8 47 3c
       0.0034823986 -0.007489582 -0.00042075582 0.012189929
000010 f0 c5 9b 3b b2 d6 b8 3a 93 67 10 bb af 08 0c bb
       0.0047538206 0.001410207 -0.0022034391 -0.002136748
000020 c5 9c 18 bb ba d7 9e ba
       -0.0023286801 -0.0012118735

conv1_bn.weight f4 [10]
000000 b2 ff 75 3f 62 17 77 3f e8 24 72 3f ed ae 74 3f
       0.96093285 0.96520054 0.94587564 0.95579416
000010 c4 52 73 3f b2 db 74 3f 51 cb 74 3f 87 ee 75 3f
       0.95048165 0.9564773 0.95622736 0.9606709
000020 08 1b 73 3f 25 87 75 3f
       0.9496312 0.9590934

conv1_bn.bias f4 [10]
000000 84 f1 d5 bb 2e 5b 16 3c d2 78 ae ba c1 8a 68 bb
       -0.006529035 0.009177012 -0.0013311154 -0.0035483094
000010 4e 6c c8 3b 5d cb ce bb 44 9b 9e 3c db 1e 94 3a
       0.0061164265 -0.006310864 0.019361146 0.00113007
000020 e9 05 03 bc 9f c2 96 bb
       -0.007997015 -0.0046008374

conv1_bn.running_mean f4 [10]
000000 ae cc 40 3d 33 42 2a bd 6c 90 72 3c 40 ce 38 3d
       0.047070198 -0.04156704 0.014804941 0.04511857
000010 8a 04 36 3c 50 0e 3c 3d 89 ca 88 3d aa b2 33 bd
       0.011109481 0.045912087 0.066792555 -0.04387156
000020 09 2f f8 3b 3f 0c 4b bc
       0.0075739664 -0.012393056

conv1_bn.running_var f4 [10]
000000 85 4d 7a 3e ba 6d df 3e 1c 13 c5 3d 10 9b de 3d
       0.24443634 0.43638402 0.096227854 0.108694196
000010 76 c0 7b 3d 45 79 6a 3e c6 cb ea 3e 2f 77 8e 3e
       0.061462842 0.22897823 0.45858592 0.27825305
000020 51 a7 d2 3d 7a 74 a1 3d
       0.10285819 0.07883544

conv2.weight f4 [20, 10, 5, 5]
000000 6c e2 3d 3c ff 0d fd bd fd fc 67 3a f9 f5 34 3d
       0.011589628 -0.12356185 0.0008849649 0.04417989
000010 6b ff 63 bc 8d 2b d4 bc 48 80 9a 3d 0f 90 98 bb
       -0.013915877 -0.025899673 0.07543999 -0.004655845
000020 72 a6 fd bc b5 32 3d 3c 47 ec ad 3d fd 3d dc bd
       -0.030963156 0.011547734 0.08492332 -0.10754011
000030 83 5b 8f bd c8 65 a8 bc 52 51 c2 3d 8c 26 eb bc
       -0.06999876 -0.020556346 0.09488167 -0.028704904
000040 77 21 a0 bd 66 57 c7 bb 4a 82 6c bc 13 5e 9a bc
       -0.07818883 -0.0060834168 -0.01443536 -0.018843686
000050 e1 7b ae 3d a4 60 f2 3c 22 79 d4 bc 31 dc 8c bb
       0.08519722 0.029587097 -0.025936667 -0.00429871
000060 77 9c 4b bd 5d f7 5c bd 9f 17 a8 bd 8e 83 fc bc
       -0.049709763 -0.05394684 -0.0820763 -0.030824449
000070 23 28 34 bb 78 51 2a 3c 19 09 80 3d f3 12 ad 3c
       -0.0027489744 0.0103954 0.06251735 0.0211272
000080 b7 e5 75 3d 80 bd 9c bd 36 be 24 bb 7a 7f bd 3d
       0.060033526 -0.07653332 -0.0025137789 0.0925283
000090 ba bc 2a 3d 10 0d 05 bc 3d 1f 83 bd 80 fc 03 3d
       0.04168389 -0.00812079 -0.064024426 0.032223225
0000a0 88 89 d4 3d c9 cb ca bc d0 be 34 bd 45 76 01 3d
       0.103777945 -0.024755375 -0.044127285 0.03160693
0000b0 1a 6d 80 bc a6 6a 6f 3b 1e 59 3f bc 9a 97 30 3b
       -0.015677024 0.0036532073 -0.011678962 0.002694583
0000c0 f9 1c 6f bd 40 47 8e 3b ab 11 8d bc 19 f4 fd b9
       -0.05837724 0.0043419898 -0.017220339 -0.00048437787
0000d0 c0 56 89 3d 3a 0a 64 bd d4 fc a6 3d eb 06 38 bd
       0.067059994 -0.055673815 0.08153692 -0.044928472
0000e0 7f 8f 9e bc 8d 95 85 3d 3a db 9d 3b 9e be b3 bc
       -0.019355534 0.06522665 0.0048173936 -0.02194148
0000f0 33 9a d9 3c a8 38 12 bc d3 6f f9 bd 53 80 37 3d
       0.026562786 -0.008924641 -0.12179532 0.044800114
000100 b7 3b 89 bc 1a 6b 2f bc 08 cc c3 bc d1 6f d5 bc
       -0.016752107 -0.010706687 -0.023901 -0.026054295
000110 5d 61 c8 bd 08 c3 77 3d 9a d6 6c bc b3 e6 ea 3c
       -0.097841956 0.06048873 -0.014455462 0.02867446
000120 57 c9 fd bb ae 64 7f 3c 62 75 10 3d e5 74 31 bd
       -0.007744949 0.015587969 0.035268195 -0.04332437
000130 cc ac a7 bc fd 4b b0 bd f7 2b 86 bd 25 90 0d bd
       -0.020468138 -0.086082436 -0.065513544 -0.034561295
000140 38 59 23 bd ca a2 2d 3d cd 62 1b 3c 4e 32 a3 bc
       -0.039880008 0.042391576 0.009484005 -0.019921448
000150 d7 8c 09 3b 3d 23 90 3a 7a e8 32 3c e6 76 34 bd
       0.0020988488 0.001099683 0.010919685 -0.044058703
000160 43 cf 5c 3d 3a 80 d2 3c 91 60 2e 3c 4b 54 b4 3c
       0.053908598 0.025695909 0.01064314 0.02201285
000170 3f c2 a7 3c 12 32 91 3d 34 54 08 bd e9 e1 d2 3d
       0.020478366 0.07089628 -0.033283427 0.10296995
000180 93 fd 2a bd f4 7b c0 3d 65 ac 04 3d ef 00 00 bd
       -0.041745733 0.09398642 0.03239097 -0.03125089
000190 d6 d4 b1 3c 62 eb a5 3d b2 85 67 3d 34 0d a0 bc
       0.021707933 0.08101536 0.056523986 -0.019537546
0001a0 5c 5b 8b bc bc 19 bc 3d ed 6f 75 bd d0 36 3a 3d
       -0.017011337 0.09184596 -0.059921194 0.04546243
0001b0 5c b3 aa 3d 0e dc 97 3d b8 b4 0d 3c 9f a3 0c be
       0.08334991 0.07415019 0.008649044 -0.13734291
0001c0 d1 1a 47 bd 27 e0 19 bd 74 59 9d bc 24 6c 17 bd
       -0.04860956 -0.037567284 -0.019207694 -0.036968365
0001d0 02 f0 97 bd 2e 4d bc 3a d3 6d 7a 3c 4b 08 6c bd
       -0.07418825 0.0014366263 0.015284973 -0.057625096
0001e0 63 15 c2 bc d7 e5 48 bc 1b 8a 4f 3c 97 03 c4 3d
       -0.023691839 -0.012261829 0.012667204 0.09570997
0001f0 ea 2c 86 bd 68 e3 67 bd f5 ab 10 3d fd d9 f9 3c
       -0.065515354 -0.056613356 0.03532024 0.030499453
000200 9e b7 38 bd 10 44 3f bd 18 df 50 bc 45 72 85 bc
       -0.045096986 -0.04669577 -0.012748502 -0.01628984
000210 f7 0d d2 bb 8e 6f e3 bd 5f 62 f1 bc 89 6f 9c 3d
       -0.006410356 -0.11105262 -0.029465852 0.07638461
000220 30 54 80 bc ee 90 9f 3c ba df 99 bd dd 18 31 3d
       -0.015665144 0.019478288 -0.075133756 0.043236602
000230 a8 a6 5a bd c5 f2 c1 3d 38 63 a7 3b ab 83 89 3d
       -0.053381592 0.09470133 0.0051082633 0.06714567
000240 b4 3c ca bd 75 91 0e bd 34 00 45 bc f4 d4 5d bd
       -0.098748595 -0.034806687 -0.012023974 -0.054158166
000250 b2 f7 7d bd b4 11 f9 bc 41 a9 1d bc 39 ff 29 bd
       -0.0620038 -0.03040395 -0.009622873 -0.041503165
000260 74 21 67 bd 79 4a ce bd eb fe db bc a6 e4 09 3e
       -0.056428388 -0.10072798 -0.026854953 0.13466129
000270 bf 1b 1f 3d 0d c0 2e 3d a3 ce 1e bd d3 67 c0 bd
       0.03884482 0.042663623 -0.038771283 -0.09394803
000280 8c 58 4b 3b b2 bd bb 3c 34 0d a0 bd 90 68 c4 3c
       0.003102812 0.022917602 -0.07815018 0.02397564
000290 87 70 c2 ba 40 08 09 bd 5f 8a 32 3d e3 2d 42 bc
       -0.0014834561 -0.033455133 0.043588992 -0.011851761
0002a0 55 c4 1e 3d 2d ec 14 bc 55 e8 91 3d 41 ba 16 bd
       0.038761456 -0.009089512 0.07124392 -0.03679872
0002b0 8a 8d e8 3c a0 be 3e 3c 29 29 3e 3d 71 7f 80 bc
       0.028387804 0.011642128 0.046425972 -0.015685769
0002c0 91 41 6b 3c 9d aa 04 3c fc 19 8d bc 73 8b c7 bc
       0.014358894 0.008097318 -0.017224304 -0.024358487
0002d0 2c 66 14 bd 15 e4 a5 bb cf 8a 16 bd e0 85 61 bd
       -0.03623025 -0.00506259 -0.036753472 -0.055059314
0002e0 82 a9 a9 3c ac 7a 7b 3d 5b 05 5d bc d6 20 ad bc
       0.02071071 0.061396286 -0.013490046 -0.021133821
0002f0 fe 3c 2e 3d e9 e7 af 3d 55 a6 d9 3c 89 a3 83 bc
       0.042538635 0.08589155 0.026568571 -0.01606919
000300 a6 3c 9b 3d 0c d6 d5 bb 2e 7c c4 3c 8f 18 ea bc
       0.07579927 -0.0065257605 0.023984995 -0.028576164
000310 5b 4f 39 3d a5 8e 4f 3d 92 8d 01 bc 3f 23 25 3d
       0.045241695 0.050673146 -0.007907288 0.040316816
000320 d7 61 42 3c 27 58 85 3d a2 60 41 bc b8 be b3 bd
       0.011864147 0.06510954 -0.011802824 -0.08776611
000330 0a 0b 4c 3c c0 20 b6 bb d3 77 33 bd 66 96 3a bd
       0.012453804 -0.0055581033 -0.043815445 -0.045553587
000340 d9 c2 22 bd d4 25 fd bc 24 cc 9b 3c cf c2 aa bd
       -0.039736602 -0.030901827 0.01901824 -0.08337938
000350 44 d0 66 bc 2b 76 dd bc d0 79 8a bd 64 22 0d 39
       -0.01408774 -0.027033886 -0.06761515 0.0001345962
000360 23 9a 62 bc 15 08 05 be 1e ae a1 bd 21 cd 79 bd
       -0.013830694 -0.12991364 -0.07894538 -0.06098664
000370 ae 64 13 3d 9a c8 bc bc cc 37 0b 3e b9 27 46 3d
       0.035984688 -0.023044873 0.13595504 0.048377726
000380 4a 8a 8b 3c cc d9 86 3d ae 70 8e bc 4b 45 2c bc
       0.017033715 0.0658451 -0.017387714 -0.010514568
000390 c1 36 1a bd 64 cd 12 bc 50 9f 00 be 4b ba e4 bb
       -0.037649874 -0.008960102 -0.12560773 -0.0069802157
0003a0 6d 3c 65 3d ca ee 09 bc 50 56 2a bc 86 61 0d 3d
       0.05596583 -0.008418748 -0.010396555 0.034516834
0003b0 20 be f6 bb a5 2a 5a 3d bf d0 bd bb 3c 20 f5 3c
       -0.007529989 0.053263325 -0.0057927067 0.029922597
0003c0 94 6c 46 3d 23 74 90 bd 5f 82 45 bd 51 e5 07 bd
       0.048443392 -0.07053401 -0.048220035 -0.033177678
0003d0 5c 12 80 3d 0d e6 b3 bd b1 e6 25 be 4c cc e8 bb
       0.06253502 -0.08784113 -0.16201283 -0.007104432
0003e0 c5 2e 44 3d a3 75 17 3c 91 2c e5 3d 7d 9c c3 bd
       0.047896165 0.009244355 0.11190141 -0.09551332
0003f0 30 cd 4c bd d3 97 6f bd e4 91 95 3d 3e c1 44 bd
       -0.05000037 -0.0584944 0.07303217 -0.048035853

conv2.bias f4 [20]
000000 ba 1c 28 3c d6 dd d6 ba e2 0e 08 3c 14 6a 16 bb
       0.010260755 -0.0016393017 0.00830433 -0.002295141
000010 80 97 36 3a 6d 22 00 3c 4d b1 2c 3c b7 f5 79 3b
       0.0006965324 0.007820708 0.010540319 0.0038140842
000020 7a ed 8d 38 9e 4e 4c ba e0 19 44 3c 5d 4f 21 b9
       6.7676374e-05 -0.00077936973 0.01196906 -0.00015383722
000030 55 60 b7 bb 78 58 41 3b 5b 0a 9a ba ef dc 9f bb
       -0.0055962005 0.0029502194 -0.0011752354 -0.0048786323
000040 e8 c0 27 3b a1 6f 4c 3b 88 8b 13 3b e0 f2 73 bc
       0.0025597159 0.0031194466 0.0022513587 -0.014889449

conv2_bn.weight f4 [20]
000000 78 1b 75 3f 79 05 74 3f 02 53 77 3f 04 f4 75 3f
       0.9574504 0.9532085 0.96611035 0.96075463
000010 3c 2e 72 3f b6 8a 73 3f 4b ae 76 3f a2 26 72 3f
       0.946018 0.9513353 0.963597 0.945902
000020 dd 14 76 3f 2c 7d 77 3f 02 73 75 3f b2 96 75 3f
       0.96125585 0.9667537 0.95878613 0.9593307
000030 2b 62 73 3f 13 13 74 3f b3 4d 75 3f 6f 97 71 3f
       0.9507167 0.95341605 0.95821685 0.94371694
000040 8d 1b 78 3f 58 0c 75 3f fd c3 73 3f 05 f4 72 3f
       0.9691704 0.9572196 0.9522093 0.94903594

conv2_bn.bias f4 [20]
000000 f8 91 83 bb ff dd e5 bb 72 03 2b ba f5 c7 a1 bb
       -0.0040152036 -0.0070149894 -0.0006523646 -0.004937167
000010 bd 5c d2 b9 ae 79 f0 3b 0f 21 29 bc 0c 56 00 3c
       -0.00040123417 0.007338724 -0.010322823 0.007833015
000020 a5 43 67 3c b4 b1 79 ba 74 c3 e7 3b f5 1a 8b b9
       0.014115249 -0.0009525076 0.0070728604 -0.0002653223
000030 f8 96 b8 b9 75 c8 a7 3b f7 23 e5 ba 9b 81 3a 3c
       -0.00035207695 0.005120332 -0.0017482032 0.011383439
000040 3c 1c 6b bc 07 ed 3d 3b bd f2 14 3c 79 6f 8a bc
       -0.014349993 0.002898039 0.009091076 -0.016898857

conv2_bn.running_mean f4 [20]
000000 16 d2 88 bf 9d 8c e2 3e 78 26 96 3e 12 1d bb 3e
       -1.0689113 0.44247904 0.29326224 0.36545616
000010 1e 2c 43 bf 77 74 64 3f 4f 3e f7 bd 0e 36 e8 3e
       -0.7623919 0.8924021 -0.12072431 0.4535374
000020 12 a2 5d 3e 27 df 10 be 8c 1e 9a 3e a4 0b 81 bf
       0.21643856 -0.14147626 0.3010143 -1.0081677
000030 cc 23 d2 be b4 2d 36 be 9e c8 87 3e ef be 7d 3e
       -0.41042936 -0.17790872 0.26520246 0.24779867
000040 9a a3 ff 3e fd 27 e6 bf 12 26 39 3a 04 f7 07 3f
       0.49929506 -1.7980953 0.0007062863 0.5311129

conv2_bn.running_var f4 [20]
000000 c9 1b 62 3f 11 3d 27 3f 29 83 df 3e f5 a7 f3 3e
       0.88323647 0.65327555 0.43654755 0.4758908
000010 41 73 07 3f 81 85 c8 3e d4 71 1b 3f 2c 38 2d 3f
       0.5291024 0.39164355 0.6072056 0.67663836
000020 7e b1 cf 3e 5f 18 01 3f 86 53 dd 3e 95 4e 31 3f
       0.40565103 0.5042781 0.43227786 0.6926053
000030 af 38 27 3f b2 23 fb 3e 32 fa 27 3f c0 71 a1 3e
       0.6532087 0.4905067 0.6561614 0.31532097
000040 23 90 ec 3e 87 d0 24 3f 79 a8 09 3f b5 f6 31 3f
       0.46203718 0.6438069 0.53772694 0.6951707

fc1.weight f4 [50, 320]
000000 c2 4e 82 3d 6f 52 85 bd 81 1b 10 bd e7 87 d0 bc
       0.06362678 -0.065098636 -0.03518248 -0.025455428
000010 cb 20 81 3d 20 86 34 bd 65 32 d0 bd 1e 22 91 3c
       0.06305083 -0.044073224 -0.10165862 0.017716464
000020 49 05 30 be 5b 12 81 3d 12 4c 39 3e 58 da 2f 3d
       -0.17189516 0.06302329 0.18095425 0.04293284
000030 2a 07 cb bd 12 04 d5 3c c7 43 8c 3d 6e 2e e5 bb
       -0.09913476 0.026002917 0.06848865 -0.0069940602
000040 e6 5e df 3c 61 a2 9f bd 4b f4 6c 3d 3b 37 8f bd
       0.02726693 -0.07794643 0.057850163 -0.06992956
000050 9a 3c de bc cd 28 8e bd 61 75 0b bd 7b 5a 08 3e
       -0.027128506 -0.06941376 -0.034047488 0.13315766
000060 9a eb 09 be cc b0 80 3d 23 93 b5 3c a7 22 b3 3d
       -0.13468781 0.06283721 0.022164887 0.08746844
000070 39 4a 83 3d 64 07 0c be 24 dc c7 bd 2d fb 1f bd
       0.06410641 -0.13674694 -0.09758785 -0.0390579
000080 04 c5 da bd fa bd ae 3c 5b a0 da bd 19 0b 1c 3d
       -0.10682109 0.021330822 -0.10675117 0.03809652
000090 62 83 69 3d 09 3d 99 bd c8 22 d0 3c 30 2a 2a bd
       0.057010062 -0.07482345 0.02540721 -0.04154414
0000a0 cf 38 cf 3d 51 47 28 be 34 d9 f1 bb 97 27 ed bb
       0.10118257 -0.16433455 -0.007380629 -0.0072373855
0000b0 64 45 89 3d ff 66 0b bc 49 ac 61 bd 8a 20 c0 bc
       0.06702688 -0.008508443 -0.055095945 -0.023453016
0000c0 c7 24 fd bd b8 69 0b be 89 61 5d 3c 77 4d ff 3c
       -0.1236053 -0.13614547 0.013512024 0.031164868
0000d0 99 b7 0e be 84 9a e2 bc f6 4b c6 3d c0 99 6d bd
       -0.13937224 -0.02766157 0.09682457 -0.058007956
0000e0 27 86 33 3d c4 d9 c3 3c 99 8f 6a ba de ea ec 3c
       0.04382911 0.02390755 -0.00089477893 0.028920587
0000f0 dd da 80 3d d7 e5 8f bd bc c4 27 3e 60 c1 34 3b
       0.06291745 -0.0702626 0.16383642 0.002758108
000100 37 1f d8 3d 16 2a a6 bd e7 b7 3d 3d a7 53 c9 3d
       0.10552829 -0.08113496 0.04631796 0.098304085
000110 d7 54 a2 bd 9a f8 1c bd 82 de fa bd ce 2d a0 bb
       -0.07926338 -0.038323022 -0.12249471 -0.004888273
000120 9d 44 6d 3d 84 77 06 bd cf f3 ca bd 00 58 18 bc
       0.057926763 -0.032828823 -0.09909784 -0.009298325
000130 f9 a5 8b 3d 53 65 7c bd ac 83 e0 3c 48 6f 37 3d
       0.06818766 -0.061620068 0.027406536 0.04478386
000140 5c 42 db 3a d9 29 6b bd 29 c0 26 3c c6 85 b5 3c
       0.0016728151 -0.057412956 0.0101776505 0.022158515
000150 72 eb 12 3e ea c3 7d 3d 16 d8 96 3d fa 79 48 3b
       0.14347628 0.061954416 0.07365434 0.0030590282
000160 2d 81 83 bd 21 a4 72 bc a4 44 98 3d 77 f6 e5 3d
       -0.06421123 -0.014809639 0.07434967 0.1122865
000170 cf 9f 29 3d 85 4b 8a ba ee 54 58 3d 8c 14 fc 3d
       0.04141217 -0.0010551071 0.05281537 0.123086065
000180 e0 a2 7e bd 5c ed 8e bd 52 05 58 3d 44 da ae bd
       -0.06216705 -0.069788665 0.05273945 -0.085377246
000190 48 92 81 3c 4e 45 ca 3d 40 b4 9e 3d fd b4 48 3d
       0.015816823 0.098765 0.07749224 0.04900073
0001a0 08 0f 7c 3d 1f 31 0c 3e 02 d3 2e 3c ed cb 17 3e
       0.061537772 0.13690613 0.010670425 0.14823885
0001b0 da b3 ea 3d c7 f6 1c 3d 52 3e be 3d 7e 8f 5c bc
       0.11460085 0.038321283 0.092892304 -0.013461946
0001c0 da 8d 99 3d 7c 35 24 3e 4e 31 cb 3d bd 01 2f bd
       0.07497759 0.16036028 0.099215135 -0.042726267
0001d0 33 bb 64 3c e5 eb 9b bb f1 d9 ea 3c cb c2 09 bc
       0.013960647 -0.0047583454 0.028668376 -0.008408259
0001e0 61 17 38 3d 29 06 cb bc a0 2c 83 bd 68 8f d9 bd
       0.04494417 -0.02478321 -0.06404996 -0.10623056
0001f0 24 2d 0a 3d 6d 8c 58 bd 63 fa eb bd c0 ab d3 bd
       0.033734456 -0.052868295 -0.11522367 -0.10335493
000200 d1 d9 47 bd 64 b2 95 bd 5d e0 c3 bc f5 28 34 3d
       -0.04879171 -0.07309416 -0.023910696 0.043984372
000210 5c 1c c6 bb 82 14 b1 3d ef 47 2d 3d ec 8c 93 3c
       -0.006045861 0.0864649 0.04230493 0.018011533
000220 16 37 1e bc c3 d3 49 3c 0b 87 fe bc 82 5a 0e 3d
       -0.009656688 0.012318554 -0.031070253 0.034754284
000230 99 a2 43 bd 55 b2 df bd ba a3 47 3c 8c b9 de bd
       -0.047762487 -0.10922686 0.012185032 -0.10875234
000240 ba 2c 0a 3d 33 4d c4 3d 70 69 50 3d 10 99 b7 bd
       0.03373406 0.09585037 0.050881803 -0.08964741
000250 a5 af 8e 3a 28 d9 43 bd 5d 73 89 bc 8d 62 a2 3d
       0.0010886086 -0.04781452 -0.016778642 0.07928953
000260 a1 03 6d bd a7 84 b1 3c a9 82 82 bd 31 39 e2 3b
       -0.05786479 0.021669699 -0.06372578 0.0069037904
000270 c5 38 f7 3d 6a 68 b4 bc a4 ce 90 bc 43 37 8f 3c
       0.12071375 -0.022022445 -0.017676659 0.017482406
000280 d8 ec 5b bc f4 c9 69 bc d2 7c 1d bd db f9 77 bb
       -0.013423167 -0.014269341 -0.038449116 -0.0037838134
000290 31 73 ea 3d df 6f 0e bd 7b be c2 3d eb 0e 95 bd
       0.11447752 -0.034774657 0.095089875 -0.07278236
0002a0 b3 6b f0 3c 6e 0e 88 3a 6f 14 0b be ee 08 5a 3c
       0.02934823 0.0010380277 -0.13582014 0.013307793
0002b0 04 31 81 bd 8e fc fb 3d f2 19 88 3d b7 d3 1f be
       -0.06308177 0.1230403 0.06645574 -0.15608107
0002c0 a7 17 82 bc f3 5e 1e be f1 78 44 39 32 85 e3 3d
       -0.015880419 -0.15465908 0.00018737071 0.11109389
0002d0 b8 9e a5 3d 58 ff 4c 3d ae a6 86 bd fa 30 a9 bd
       0.08086914 0.050048202 -0.065747604 -0.08261295
0002e0 8b 6c 67 bd 35 7a a6 bd bf 67 b8 3d 3f 48 c2 3d
       -0.0565 -0.08128778 0.09004163 0.09486436
0002f0 66 41 3b 3b f6 a8 43 bc 09 2b 28 bd f7 bb a4 3b
       0.0028572916 -0.011942139 -0.041056667 0.00502729
000300 be ac 54 3d ae 55 36 3d 7a e9 a2 bd 75 aa 89 bc
       0.051922552 0.044515304 -0.07954688 -0.016804913
000310 cf 46 23 bc 43 88 e2 ba 28 80 f0 39 b7 0b 82 bd
       -0.009965613 -0.0017283041 0.0004587185 -0.06349891
000320 69 86 0e 3e b1 66 a9 bd af 87 f4 3c 2f e2 1f bd
       0.13918461 -0.0827154 0.029849855 -0.039034065
000330 90 75 0b 3d 38 69 be 3c c6 cb a4 3d a1 c5 5e 3d
       0.034047663 0.023243532 0.08046679 0.054387692
000340 c8 89 f2 bc 26 d9 61 3d a2 0c d1 bd 73 62 d2 3d
       -0.029606715 0.05513873 -0.10207488 0.10272684
000350 d3 71 7d ba b5 25 3b be 0e 9a 58 3d e5 73 cf bd
       -0.0009668145 -0.18276103 0.052881293 -0.10129527
000360 5a a3 93 3d 78 2e 05 bc c3 6b 0b 3e e3 76 de 3d
       0.07208891 -0.008128755 0.13615327 0.108625196
000370 38 9a 37 3e cd f0 fd 3b f0 e3 81 3c 36 05 66 bd
       0.17929924 0.007749653 0.01585576 -0.056157313
000380 c7 9f f8 3c f9 dd 70 bb 3b 5d b0 3d 16 2f 7c bd
       0.030349625 -0.00367534 0.08611532 -0.061568342
000390 4a a6 33 3e 5e 7d 32 bd 44 d9 b4 bd e0 62 31 3e
       0.17543903 -0.04357659 -0.08830503 0.17322874
0003a0 8e 45 8b 3d 68 33 9e bc 56 0b 04 be 4b 85 12 bd
       0.06800376 -0.019311622 -0.1289495 -0.03577165
0003b0 89 b1 32 3d e8 80 7c 3d b4 f9 e7 bd 26 68 27 3e
       0.043626342 0.061646372 -0.11326924 0.16348323
0003c0 f8 ce 19 3e cf c8 12 3d 44 ed 39 3d cd be df 3d
       0.15020359 0.035836037 0.04539229 0.10925064
0003d0 58 8d c3 3c ef 05 85 bd 72 bd 79 bd 38 f3 d0 bd
       0.023871109 -0.06495272 -0.060971685 -0.1020264
0003e0 6c cd 8a 3d 9c eb 62 3c 2e 18 4e 3d eb 94 da b9
       0.06777462 0.013850119 0.05031603 -0.00041691153
0003f0 8e ac 2d 3b 67 b9 f8 3d 71 5f 47 bd 77 f4 81 bc
       0.0026500556 0.12144738 -0.048675004 -0.01586364

fc1.bias f4 [50]
000000 2f 1c f6 bc ad 59 9b bc d2 64 e3 3b 74 21 3d bc
       -0.030042736 -0.01896366 0.006939509 -0.01154362
000010 51 77 3a 3d 07 dd 4b bc 48 a9 9c bc 69 88 4a bd
       0.045523945 -0.012442834 -0.019123688 -0.049446497
000020 05 f6 49 3c f4 2f 2b bd ca 64 8c bb 55 96 58 3d
       0.012326722 -0.04179378 -0.004284476 0.052877743
000030 fd 3a c4 bc d5 c6 ea 3c 6e 5e bf 3c 42 49 2d bd
       -0.023953909 0.028659264 0.023360457 -0.042306192
000040 a9 f3 cd 3c b4 d5 80 bc 26 76 0b 3d 2a 4c c3 bc
       0.0251406 -0.015726902 0.034048222 -0.023840029
000050 74 8e ee 3b b5 a1 c9 3c 72 c7 31 3d c1 63 d3 bc
       0.0072801653 0.02461324 0.043403096 -0.025804402
000060 f1 ec 0a 3d 3d fd 1a 3d ad 31 d6 bb fb 52 4e 3d
       0.03391737 0.037839163 -0.0065366835 0.050372105
000070 88 2b a3 bb de 2f 03 bd fa b3 de 3c a8 14 71 3c
       -0.0049795546 -0.03202807 0.027185429 0.0147143975
000080 94 23 12 bd 34 a5 d4 bc 7a b2 7c bc 44 6c dd 3c
       -0.03567846 -0.025957681 -0.0154234115 0.027029164
000090 2e ef 29 bc 38 eb 60 bd b7 9b 0c 3c d5 b9 8e 3c
       -0.010371966 -0.054911822 0.008582047 0.017422596
0000a0 99 1e 2f 3b 38 8a 27 3d 50 b6 3d bd 54 39 43 3b
       0.0026721118 0.0409033 -0.046316445 0.002978881
0000b0 58 1c d3 bc 66 67 c6 bc d3 f3 45 bd 9d 70 18 bc
       -0.025770351 -0.024219226 -0.048328232 -0.009304193
0000c0 c4 43 44 bd dc 88 52 bd
       -0.04791619 -0.05140005

fc1_bn.weight f4 [50]
000000 11 89 75 3f 61 a2 72 3f 49 f5 71 3f c7 d6 73 3f
       0.9591227 0.9477902 0.945149 0.952496
000010 f5 78 75 3f 08 5e 76 3f 43 ab 73 3f 1e 66 74 3f
       0.9588769 0.9623723 0.951832 0.9546832
000020 fe cc 74 3f 10 ea 70 3f 95 05 70 3f 37 8b 74 3f
       0.95625293 0.9410715 0.9375852 0.95524925
000030 22 ee 72 3f 07 c6 71 3f e7 d1 72 3f cb 78 73 3f
       0.9489461 0.9444279 0.94851536 0.9510619
000040 d4 57 71 3f 63 b0 73 3f a2 03 75 3f 46 d2 70 3f
       0.9427464 0.9519102 0.9570867 0.9407085
000050 68 df 74 3f be 56 72 3f 51 6d 75 3f 4b ad 75 3f
       0.9565339 0.9466361 0.9586993 0.9596755
000060 e2 d4 71 3f 72 20 78 3f 91 d2 76 3f 5c 33 76 3f
       0.9446546 0.9692451 0.9641505 0.9617212
000070 6c aa 74 3f ba 80 71 3f b5 0f 78 3f 36 0f 6f 3f
       0.95572543 0.94337046 0.9689897 0.93382585
000080 16 64 72 3f 79 1c 77 3f 54 ad 74 3f 09 22 74 3f
       0.9468397 0.9652782 0.9557698 0.95364434
000090 cb 57 75 3f e6 80 72 3f 6e 47 73 3f 28 13 74 3f
       0.95837086 0.94727933 0.9503087 0.9534173
0000a0 ee 6d 71 3f 8e 59 75 3f 6e 29 76 3f 77 af 75 3f
       0.94308364 0.95839775 0.96156967 0.95970863
0000b0 6e 54 73 3f 69 11 76 3f 59 86 76 3f 72 03 72 3f
       0.95050704 0.96120316 0.9629875 0.9453651
0000c0 6f dd 73 3f 0a 62 72 3f
       0.95259756 0.94680846

fc1_bn.bias f4 [50]
000000 1f 2a 9f b9 c1 8f b0 3b 5a 9c ae bb a2 d6 1a 3c
       -0.00030358226 0.0053882306 -0.005328697 0.0094505865
000010 da e6 e5 3b 29 a5 8b 3a cd 1a 84 3b 8f a9 80 bb
       0.007016045 0.001065408 0.004031515 -0.003926463
000020 f5 71 a7 3a e3 c5 66 bc b2 92 19 ba b3 ca ec bb
       0.0012775051 -0.014085266 -0.0005858346 -0.007226312
000030 4a 88 20 bc 60 c2 a8 bc 17 56 a1 ba 29 2a a5 bb
       -0.009798119 -0.020600498 -0.0012308982 -0.0050404263
000040 ee 34 2a 3b 71 14 48 bc 5d f1 dd ba 15 f1 16 bc
       0.002597149 -0.012211905 -0.0016932894 -0.009212752
000050 d5 46 dd bb f9 c9 f7 bb 88 76 0d 3c 8b b9 54 ba
       -0.0067528286 -0.007561919 0.008634217 -0.0008114806
000060 4e ca 68 bb 9d 77 29 ba 86 5e bb 3b d5 b4 0b bc
       -0.0035520974 -0.0006464662 0.005718055 -0.008527
000070 05 e6 d0 b9 1a d7 aa ba 7c 8b df b9 67 a3 9b bb
       -0.0003984423 -0.0013034076 -0.00042637798 -0.0047497037
000080 3b 4c b2 39 7c 86 3c 3c 35 4b d6 bb 1c 98 20 bb
       0.00034007602 0.011506673 -0.006539727 -0.0024504727
000090 c0 dc 06 3c 68 8f 9d bb 89 97 61 bc 80 58 fc 3b
       0.008231342 -0.004808355 -0.013769039 0.0077009797
0000a0 98 f2 a8 ba e0 c0 f1 3b 95 1c 05 3b d4 5a 8f 3a
       -0.0012889681 0.007377729 0.0020311226 0.0010937103
0000b0 33 bd 15 3c 03 2d f5 b9 a0 11 b5 bb 9f 5d b2 3b
       0.009139347 -0.00046763578 -0.0055257827 0.0054432894
0000c0 e5 4f 2f bc 35 1a 79 bc
       -0.010700201 -0.015204002

fc1_bn.running_mean f4 [50]
000000 05 1a 95 3f f1 70 e6 bf 04 a7 a4 3f c9 aa d0 bf
       1.1648566 -1.8003217 1.2863469 -1.630212
000010 9c 4c 92 3e 1c ac d5 be e7 3d 83 bf 94 b6 f2 bf
       0.28574073 -0.41732872 -1.0253266 -1.8961968
000020 4a 7b 7b bf 0f fd 05 c0 83 36 8c bf d7 b7 ab bf
       -0.98235 -2.0935705 -1.0954136 -1.3415478
000030 e2 dc 0b 3f 67 8d 51 be d8 94 87 bf 90 16 f6 bf
       0.54633915 -0.20464097 -1.0592299 -1.9225636
000040 f4 9d bd 3f 1f 34 74 3e 92 11 95 be 31 c6 93 3f
       1.4813828 0.23848008 -0.29114968 1.1544858
000050 3b 0c 11 40 89 37 b6 bf 66 38 5f bf 46 74 4a be
       2.2663715 -1.4235698 -0.8719543 -0.19770917
000060 4e 73 63 bd ff 82 b2 be 3b bf 0e 3f ef d2 81 3d
       -0.055529885 -0.34865567 0.55760545 0.063390605
000070 d6 0a 8b bf f7 df 22 c0 b0 7d 93 be d9 b4 56 bf
       -1.0862682 -2.5449197 -0.2880683 -0.838697
000080 9a 8b 17 bf ef 79 92 be ed 1c 60 bf 84 68 da be
       -0.5919739 -0.28608653 -0.8754414 -0.42657864
000090 f8 78 46 be 43 7c 59 bf 64 7c 68 bf b3 c4 56 bf
       -0.19382083 -0.84955233 -0.90814805 -0.8389389
0000a0 18 0a c7 be 77 1d 48 be 75 9f 0c be d8 a5 39 3f
       -0.38874888 -0.1954249 -0.13732703 0.7251868
0000b0 5c a6 c5 3e 28 62 2c bf e6 ed 40 bf 5e 9c 37 3f
       0.38603485 -0.67337275 -0.75363004 0.7172297
0000c0 e4 4b 00 c0 eb c9 b5 3e
       -2.004632 0.35505614

fc1_bn.running_var f4 [50]
000000 8c 08 7b 3f 70 6b ba 3e c0 59 b6 3f 87 98 d5 3e
       0.98059916 0.36410093 1.424614 0.41717932
000010 15 7f c0 3f 51 1b 04 3f 67 5b db 3e 6b ce f0 3e
       1.5038782 0.5160418 0.42843172 0.47032484
000020 ae 2d b6 3e 04 54 17 3f 5b ba c3 3e 5d 8e 2b 3f
       0.35581726 0.5911257 0.38228115 0.67014104
000030 4f 9e 11 3f 34 db 80 3e 2d 65 bf 3e 8c a3 b7 3e
       0.56882185 0.2516724 0.37381878 0.35866964
000040 ca ac c0 3e eb 6a 53 3f ac 8e 43 3f 89 9b 9d 3e
       0.37631828 0.8258502 0.76389575 0.30782726
000050 61 39 87 3f c1 ad 24 3f 23 15 a1 3f a9 c2 e2 3e
       1.0564386 0.6432763 1.2584575 0.4428914
000060 ee fd 9c 3e 70 95 a5 3e 96 8b 5a 3f d5 dd 9e 3f
       0.30662483 0.32340574 0.8536924 1.2411448
000070 c4 e5 7c 3f 10 b5 2c 3f f9 82 a3 3e 02 0e bd 3f
       0.98788095 0.6746378 0.31935862 1.47699
000080 f9 cd 0e 3f 54 3e 18 3f bc ed d1 3e b4 55 7b 3f
       0.5578304 0.59470105 0.4100169 0.9817765
000090 5b 23 63 3f b7 64 5e 3f c8 44 f0 3e 3c f1 00 3f
       0.88725823 0.8687243 0.46927476 0.50368094
0000a0 43 58 15 3f 36 0f b3 3f c8 ff f5 3e 1f a6 ed 3e
       0.583378 1.3989017 0.48046708 0.46415803
0000b0 db c9 ec 3e 87 08 ed 3e 08 36 1c 3f 17 e9 ba 3e
       0.46247754 0.46295568 0.61019945 0.36505958
0000c0 ab 30 e9 3e fd 1d a6 3e
       0.45544943 0.32444754

fc2.weight f4 [10, 50]
000000 c6 dc 3f 3d a8 1a 5b 3d 91 d3 7f bd f9 06 3f be
       0.046841405 0.05349222 -0.062457625 -0.18655004
000010 e2 c4 26 bd 5c fc d5 bd ac 36 c0 bd 6a dc ef bc
       -0.040715106 -0.10448524 -0.09385428 -0.029279906
000020 8a f2 78 3e a3 44 27 bb d2 5e 23 3c 94 d0 85 3d
       0.24311271 -0.0025523088 0.009971337 0.06533924
000030 42 a7 04 3e e7 e4 75 be 16 71 61 be 4a c7 89 bd
       0.12954429 -0.240131 -0.22015795 -0.067274645
000040 52 6b c9 3d 1f a3 45 be 66 3d 85 3e 73 ec f9 3d
       0.09834923 -0.19300507 0.26023406 0.12203302
000050 b0 60 23 bd 52 0c c4 bd 3e 0f d5 bc 15 88 1c 3d
       -0.03988713 -0.095726624 -0.026008245 0.038215715
000060 f3 c6 d2 3d 40 d0 66 be 16 b8 47 3e 5e a6 dc 3e
       0.10291853 -0.22540379 0.19503817 0.43095678
000070 55 be 3d 3b 6c 29 72 be 5d c6 20 be 15 64 1b be
       0.0028952558 -0.23648614 -0.1570067 -0.15174897
000080 70 19 9e bc b6 20 51 3b c1 0e 25 be ed 73 69 bd
       -0.019299239 0.0031910366 -0.1611891 -0.05699532
000090 4d eb 00 3e e7 16 ae 3d d5 91 3c be b8 19 90 be
       0.1258976 0.08500462 -0.18415006 -0.28144622
0000a0 a8 87 f7 3c 31 06 ff 3d cd 45 17 be 75 d0 93 bd
       0.030216053 0.12452353 -0.1477272 -0.072174944
0000b0 64 fb 0e bd 80 53 fe bd 83 0c 5e 3e e0 5a 89 3d
       -0.034907714 -0.1241827 0.2168446 0.06706786
0000c0 00 d2 a7 bc 09 5d 70 3e 76 68 1c be d5 86 8c 3e
       -0.020485878 0.2347299 -0.15274224 0.2744662
0000d0 b6 7c 5f 3e a8 37 52 3e 0b 58 1d bc 1d fd cf bd
       0.21824917 0.20529044 -0.009603511 -0.101556994
0000e0 3a 73 9e be 83 26 9b bd 9c 66 86 be 7b 70 af 3e
       -0.30947286 -0.07575705 -0.2625016 0.34265503
0000f0 6a 41 05 3e cb 14 cc bc 39 26 96 3c aa 7b ac 3d
       0.13013235 -0.024912259 0.018328773 0.084220245
000100 4f 57 08 3c ae 23 22 3c 08 07 7f 3e 35 2f 66 be
       0.008321597 0.009896202 0.24905026 -0.22478946
000110 18 ee 1e 3e 82 c1 c5 3e 2a 88 e6 bc e6 d3 1a be
       0.15520513 0.38624197 -0.0281411 -0.15119895
000120 8e 94 1a 3e 50 d5 a2 be f9 69 a9 be 0d d1 e5 bd
       0.15095732 -0.3180337 -0.33088663 -0.11221514
000130 aa 91 8f be 1c 32 85 3d b8 0a c3 3c 91 c2 3a bd
       -0.2804082 0.06503698 0.023808822 -0.04559571
000140 ce ad 24 be 88 e6 b2 be 64 c3 8c 3d 10 54 c5 3e
       -0.16081926 -0.34941506 0.06873205 0.38540697
000150 d2 a5 8f 3c e1 b0 1c be c3 27 7d be bc a9 c7 3e
       0.017535124 -0.15301849 -0.24722199 0.38996685
000160 d5 b4 e4 3d 7d dd b0 3d f6 3b 00 be 13 89 16 bd
       0.111673035 0.086359955 -0.12522873 -0.036751818
000170 38 64 18 3e 68 5b 2c be 50 c4 43 3c 9f 03 67 3d
       0.1488198 -0.16831744 0.01194866 0.056399938
000180 cf c2 02 3d 8d 5a 8b 3d 3a e0 1d 3e 93 dc 2f be
       0.031924065 0.068043806 0.15417567 -0.17173986
000190 66 b0 fd 3d 6c cb d8 bd 7c 82 01 bf 45 35 49 be
       0.12387161 -0.10585675 -0.5058973 -0.19649227
0001a0 79 f8 90 bd a1 10 1e 3e 36 0f 85 bd b2 99 2c 3e
       -0.070786424 0.15436031 -0.06497042 0.16855505
0001b0 c7 29 6f bc 5d 44 60 3e 7e ac 65 be a8 9e e9 bd
       -0.014597363 0.21901079 -0.22429082 -0.114072144
0001c0 ef 06 46 3e eb e9 46 3e 8f d7 06 3a f6 b9 23 be
       0.19338582 0.1942517 0.0005143815 -0.15988907
0001d0 af 74 3f 3e 34 ac 7e be fb c0 e3 3e 83 51 19 3d
       0.18696855 -0.24870378 0.4448317 0.03743125
0001e0 8d 00 0a be fd 3c ca bd 86 c9 38 be 03 e1 fc 3c
       -0.13476773 -0.09874914 -0.18045625 0.030869013
0001f0 a2 a2 90 3e 48 98 ad 3e 6a 35 a0 3d ff 10 05 be
       0.2824908 0.33905244 0.07822688 -0.12994765
000200 93 94 25 3d e8 5b 7c 3e c4 3f ff 3c c1 45 02 bc
       0.040424895 0.24644434 0.031158336 -0.007951201
000210 a4 8c 9f 3d a9 34 c1 3d 4f 13 60 bd 8a 41 c8 3e
       0.07790497 0.09433872 -0.054705914 0.39112502
000220 99 28 a7 be 72 7c b5 bd 81 0a af bc c1 fc 75 3e
       -0.3264816 -0.08861627 -0.021367313 0.24022199
000230 31 9f ca bd a9 3b cb bd 57 ca 7b bd 96 a7 9a 3c
       -0.098936446 -0.09923489 -0.061472263 0.01887874
000240 ee 3b ba 3c 8b ab af bc 27 35 a3 3d 79 a6 65 be
       0.022733655 -0.021444103 0.079691224 -0.22426786
000250 c6 3f 32 be ac b4 7e bd 3a 74 e5 be 2e ce 1f 3e
       -0.1740714 -0.06218402 -0.44815236 0.15605995
000260 30 ee 30 be bd a9 bb 3c 07 d0 35 3e 8e 7e a5 be
       -0.17278361 0.022908086 0.17755137 -0.32323116
000270 c6 c8 cc bd 91 69 92 bd 40 84 9d 3d 33 68 ce bd
       -0.09999232 -0.071490414 0.0769124 -0.10078468
000280 aa d3 35 bc 67 0e bd 3d 03 f6 69 bd 03 e2 98 bd
       -0.011097828 0.09231263 -0.05711938 -0.07464983
000290 20 96 c6 bd 49 fd 14 be 11 b3 19 3e 5f cd 9d 3d
       -0.09696603 -0.14549746 0.15009715 0.07705187
0002a0 fa ce 6f 3d 5e ba 2d 3d 09 75 d3 3b e8 c0 0b be
       0.058546998 0.04241406 0.0064531607 -0.13647807
0002b0 ea 90 6f 3e f6 c2 de bc 04 5f 97 bd 44 4f df bd
       0.23395124 -0.027192574 -0.0739117 -0.109037906
0002c0 74 ed f0 bc 31 13 16 bd 9e 3f 3f be 92 9b a3 3d
       -0.029410101 -0.036639396 -0.18676612 0.07988657
0002d0 aa 12 c8 3e e7 ec a6 be 65 e5 33 bd d2 76 89 3d
       0.3907674 -0.32602617 -0.04391994 0.06712116
0002e0 83 a6 05 3c 80 0b 94 bd 62 8d 3a 3e 24 50 3f be
       0.008157375 -0.07228756 0.18217996 -0.18682915
0002f0 2b 69 4a bd e5 50 fc 3d 18 41 b5 bd 98 58 1b 3c
       -0.049416702 0.12320117 -0.08850306 0.009481572
000300 29 38 0c bd 3b 70 6f bd c1 f2 a3 3d fa 82 34 be
       -0.034233246 -0.05845664 0.08005286 -0.17628089
000310 11 ee 8e be b3 a2 0e be 33 d5 1c 3e 62 d3 6d be
       -0.27916005 -0.13929252 0.15315704 -0.23225167
000320 4c a7 37 3e 86 ad 57 3d cd 75 b7 be 83 a2 3f be
       0.17934912 0.05265572 -0.35832062 -0.18714337
000330 23 fb 2d 3d 11 71 73 3b d7 52 81 3e 84 6e df 3d
       0.04247583 0.003714625 0.25258514 0.10909751
000340 91 32 14 be f0 7a 87 be 90 45 ed bb f5 1e e6 bd
       -0.14472415 -0.2646098 -0.0072409585 -0.11236373
000350 25 c8 54 be c8 89 da be 15 6d 36 be 58 b5 d4 3a
       -0.20779474 -0.42683244 -0.17815049 0.0016228361
000360 40 48 30 3e 37 7a 93 3d 37 89 20 3e 24 ba 7a 3e
       0.17215061 0.07201045 0.15677343 0.2448507
000370 20 c2 03 bd 43 68 66 3c ed 1c 4b 3e 47 72 f2 3c
       -0.032167554 0.014062944 0.19835253 0.029595507
000380 4a e7 0b be b9 59 c6 3c 3d a7 46 3e f0 0b 69 bd
       -0.13662449 0.024212705 0.19399734 -0.05689615
000390 f1 21 70 be 1c 71 52 be 29 4b e3 bd 95 0e b3 bd
       -0.23450448 -0.2055096 -0.1109832 -0.08743016
0003a0 2e 40 3c 3a 01 71 89 3e 7e 83 20 3e b0 39 79 3e
       0.00071811944 0.26844028 0.1567516 0.24338412
0003b0 d4 ee 68 be 45 3d 3d bd 38 76 d8 be 58 c1 08 be
       -0.22747356 -0.04620101 -0.42277694 -0.13355005
0003c0 6d 75 23 3d 2f 1e 81 be 68 d9 c3 bd f9 cb 85 bd
       0.039906908 -0.2521834 -0.09562951 -0.06533045
0003d0 84 5f 05 be 13 7d 83 3e bf d9 a8 bd 5c 13 46 3e
       -0.13024718 0.25681362 -0.08244657 0.19343323
0003e0 eb ec 96 bc d9 46 8a be 43 fe 0e 3e 1e 18 86 3d
       -0.018423518 -0.27007177 0.1396418 0.06547569
0003f0 b0 b7 6e be 47 69 f4 bc fa b7 ba 3d ec 1a 9e bd
       -0.23312259 -0.029835356 0.09117122 -0.07719979

fc2.bias f4 [10]
000000 27 18 a9 3d 23 c8 ea 3d 2f 30 70 bd 15 5b 37 3d
       0.0825656 0.11463954 -0.0586397 0.044764597
000010 fa 82 d5 3d fd 64 f3 bc d1 51 08 3d 54 26 80 3d
       0.104253724 -0.02971124 0.03328115 0.062573105
000020 ea de a4 bc 27 52 96 bd
       -0.020125825 -0.07339888
